MACHINE_LEARNING/checkpoints/o3_model_epoch4.pt (torch, 419225 bytes, 13 tensors)

0.weight f4 [256, 12]
00000000: 8ec7 173e 292d 303e 49e5 23bd 51bd 19bd
00000010: e627 88bd bb16 e33b 8341 2a3d 782b b23a
00000020: c239 413e f3d2 443e 6187 833c 00f3 e13d
00000030: e2a7 503e 0d1f 653e 512c 0bbe 5799 f3bd
00000040: efa8 933d f583 84be 5be1 f03d cf22 95bc
00000050: 265d 0ebe 04ef 96bd 966b 41be 18d9 cabd
00000060: a5b8 683c f879 593e 970d 1b3d db5f 293e
00000070: 4709 7dbe 3450 0f3d 2468 083e 7d92 543e
00000080: a016 d9bd 6b6f 89be 1879 3fbe 2716 44be
00000090: 6d85 36be 7f50 07be 7994 77be 8a12 5d3e
000000a0: b517 d23d 91c4 213e 2b4a 903e dcac 09be
000000b0: 78ff b3bd 5a65 34bd d4c9 79be 453a 5fbe
000000c0: 9cc8 233d 4330 22be 519b 8d3e 497a 8fbe
000000d0: 9ddb 393e 2b61 07bd 3c8f 6fbe afd9 df3d
000000e0: 6f6e 1b3e 620f 3f3a a272 733e 063f 62bc
000000f0: 8e78 c1bb 3723 03be b836 9f3d 93ec fbbd
00000100: 44bf 8c3d 643e 643e 803f 2fbe efd4 0f3e
00000110: a631 7f3e 187d 613c 4898 50be 3db8 3dbe
00000120: 75ec 0c3d cca6 08be 1ca7 2c3e 3ad9 a8bd
00000130: 41f8 51be fd17 5e3e 253b d5bd 4ffd 12bd
00000140: 5906 c9ba baf8 e13c d496 88bd c214 7a3e
00000150: 0a67 4cbe d8a8 f8bd 0679 08be f041 e43b
00000160: f4e5 5abe 9436 81be ca66 7abe 07dd 83be
00000170: f54e 973d f0f8 8f3e b7ec 973d 226d 25be
00000180: 6ca2 623e aec5 593e 23d7 c3bd 8784 4b3e
00000190: f68f 1b3e e9a4 393e 2ee7 863d bede 81be
000001a0: f6c6 bfba b23e da3d 949b 623e c31c 0e3e
000001b0: f613 34be c738 71be d047 01bd cebb 0c3c
000001c0: 4d5c 883e b97b 93be c1db 823e c00d 86bd
000001d0: 8865 78be 7c6c 81be 91fa 343d 6b02 ce3d
000001e0: fa1a 893e 147a afbc e273 553d c2c0 3b3e
000001f0: a4ed 52be 32a8 d63d 6f0d 713d 08c4 aabb
00000200: fc2c 863d 3034 00be 2e6c 40be 4dfc cebd
00000210: d80b 68be 8240 8c3e 5a76 1fbe b71f 843e
00000220: b371 8f3e 12b5 553e 5f52 39bd 0949 643e
00000230: b6cb 55be 2d9b 813d ff99 0ebd ce96 25bd
00000240: 48a7 2fbe 018b 8e3e 32ee 0abe fd2f f53d
00000250: 9ada 3abe 92b5 473e 8ff2 3e3d b52a 4e3e
00000260: 3f5c d9bd f0f2 05be 93a7 803e 58e5 7bbe
00000270: 2f1a c0bd 9d79 1cbc 048d 91be 00a5 873e
00000280: 39e8 07be 9620 1d3d d1e9 063e 0b69 47be
00000290: cf88 38be 7de9 7d3e d455 0fbe ca27 383d
000002a0: ebd2 49bd 5c7d 3cbe bdf5 31be 9ea1 553e
000002b0: 5e0c ba3b 6841 05be 1308 91bc a15a 6ebe
000002c0: 0f8f 89be d896 7abc b4aa 8ebd deaa a13d
000002d0: b2ef 9a3d 0b62 0e3e e3e8 083e 7e3a 5fbd
000002e0: bb5e 973d dc7b ac3d 1d7c 04be 1a41 0d3c
000002f0: c8e3 bdbd 4047 2e3e 10fe 873e 0802 773e
00000300: 62bd 303e 07c0 bbbb 7afa 73bc e036 c53d
00000310: 52eb 6f3e 063b 90bd 7836 5e3e 3f63 16be
00000320: 1ed5 cebc 615e 203e 6298 733e e90f 2d3d
00000330: 0758 65bd b278 8d3e e0bf a0bd b2bc 093e
00000340: e76e 293e 0920 093d 3733 8a3e 2082 e0bd
00000350: 2e0c 81be 336c a7bd 7598 613e db76 40bd
00000360: a8fa b53d b788 343e fbca e5bc de8a 673e
00000370: 4240 173d bc96 84be 6720 15bd d0d6 863e
00000380: 5799 4cbe 84dc 263e 69dc 09be 0b1d c93d
00000390: 392d 69be 398f f23d 4733 75bd 3610 84bd
000003a0: 7597 403d bcb8 853e 3741 f6bd cf22 593d
000003b0: 81d3 32ba 5dd1 63be ed77 4bbd a36b 3fbe
000003c0: 523f c53b de0f 72be bcb0 673e 2d2d 50bc
000003d0: 0b71 27be 452b c4bc 959c 20be ff05 da3d
000003e0: c7a7 82bd 20bd 4fbd 6737 8abe 9d9f 81bd
000003f0: 9a4d 603e 4175 7cbe f0ab 93be 6bf1 debd
0.14822218 0.17204727 -0.040013585 -0.03753406 -0.06648235 0.0069302 0.041566383 0.0013593277
0.18869689 0.19221096 0.016055765 0.11032677 0.20376542 0.22375126 -0.13591124 -0.11894482
0.07209956 -0.25881925 0.11761733 -0.018205075 -0.13902721 -0.07369807 -0.18888697 -0.099046886
0.014204179 0.21237934 0.037854757 0.16540472 -0.2471057 0.034988597 0.13320976 0.20759006
-0.106000185 -0.26842818 -0.18698537 -0.19149075 -0.17824335 -0.132143 -0.24177732 0.21589103
0.10258428 0.1579764 0.28181586 -0.13444847 -0.08788961 -0.04404197 -0.24393398 -0.21799572
0.039986238 -0.15838723 0.2765756 -0.28022984 0.18150182 -0.03305165 -0.23394483 0.10930192
0.15178846 0.0007288364 0.23774198 -0.013808971 -0.005904264 -0.12806402 0.07774109 -0.12300982
0.068724185 0.22289425 -0.17114067 0.14046071 0.24921283 0.013762735 -0.2037059 -0.18527313
0.03440519 -0.13344878 0.16860622 -0.08244558 -0.20504858 0.21688838 -0.104116715 -0.035886105
-0.0015336975 0.027584422 -0.06669393 0.24421981 -0.19961181 -0.121415794 -0.13327417 0.006965868
-0.21376783 -0.25236952 -0.24453273 -0.25754568 0.07388107 0.28119612 0.07418197 -0.16154912
0.22132272 0.21266815 -0.095625184 0.19874774 0.15191635 0.18129314 0.06587063 -0.2536525
-0.0014631439 0.106564894 0.22129661 0.13878159 -0.1758574 -0.23556815 -0.031562626 0.008589698
0.2663292 -0.2880533 0.25558284 -0.06545591 -0.24257481 -0.2527808 0.04418427 0.10059055
0.26778394 -0.021420516 0.052112468 0.1833525 -0.20598465 0.104812995 0.058850702 -0.005211357
0.06551549 -0.12519908 -0.18791267 -0.10106716 -0.22660768 0.27392966 -0.15572491 0.25805447
0.28016433 0.20869854 -0.04524457 0.22293486 -0.20878491 0.063284256 -0.03481483 -0.04042702
-0.17153656 0.27840427 -0.13567427 0.11972044 -0.18247452 0.19502857 0.04661804 0.20133479
-0.10613298 -0.13080955 0.2512785 -0.24599206 -0.09379994 -0.009550479 -0.284279 0.26493073
-0.1327218 0.038361154 0.13175131 -0.19473664 -0.18020938 0.247961 -0.13997585 0.04495982
-0.049273413 -0.18407196 -0.17378898 0.20862433 0.005677744 -0.13013232 -0.017704045 -0.2327676
-0.26866958 -0.015294753 -0.06966153 0.078939185 0.075652495 0.13904588 0.13370089 -0.054499142
0.07391115 0.08422062 -0.1293797 0.008621478 -0.092719615 0.17019367 0.26561022 0.24121869
0.17259744 -0.0057296786 -0.014891261 0.09629607 0.23429611 -0.07042508 0.21700466 -0.14686297
-0.025248107 0.15661003 0.23788598 0.0422515 -0.055992153 0.27631146 -0.07849097 0.13450888
0.16546212 0.033477817 0.269922 -0.109623194 -0.25204605 -0.08174934 0.22030814 -0.04698835
0.088856995 0.17630278 -0.02805089 0.22611567 0.036926515 -0.2589625 -0.036407854 0.26335764
-0.1998037 0.16295058 -0.13462986 0.09819993 -0.22771157 0.11843724 -0.059863355 -0.064484045
0.04701944 0.26117504 -0.120241575 0.05301171 -0.00068216777 -0.22247835 -0.049674917 -0.18693404
0.0060195113 -0.23638865 0.22626013 -0.012706083 -0.16351716 -0.023946414 -0.15684731 0.10645675
-0.06379657 -0.050717473 -0.26995394 -0.06329272 0.21904603 -0.24654104 -0.28842115 -0.108858906

0.bias f4 [256]
00000000: de82 c6bd 198c 823e 8477 c0bd 6c00 ddbc
00000010: 400d 85bd 4bcd 58be 90a9 723e dedb 823e
00000020: 9dae 67be 9dca 95bd 9f8f 013e fe90 943d
00000030: 0630 1ebe e16c 29be d696 01be 374e 243d
00000040: 39e7 91be d6c2 003d 71da 20be 914c 93be
00000050: 4ed9 553e 6cbd 45bd 24d3 ab3d 7d23 59be
00000060: c6c2 34be 685b 8abe 240b e63d 4b0e d53d
00000070: ae0a 8a3d 1132 87be 0e2f 713e aa67 89bd
00000080: 857c 373d 1e5f bbbd 01ff e63c c604 b43d
00000090: f35a 8abe f071 683e e49b 9bbd 3b97 323d
000000a0: 8033 413d ffb6 89bb 3559 333e 4878 853e
000000b0: 672f 483e 83e3 163e e5a7 883e 41fe 98bc
000000c0: facc 263b 5767 5d3e 8b66 7e3e 0ecf ca3c
000000d0: 1e1b 933d 31fe 8dbe 70f8 3fbe add5 1a3e
000000e0: 6092 403e f505 e2bd a54d 17be 4148 4b3e
000000f0: 8602 8fbe 7b8f 613e c5fc 8c3e f23c 43be
00000100: 971f 153e 4835 aabd ff8c 4c3e dc69 43be
00000110: a2de 4f3e 2d21 21be 9faf f9bd ac5d 2abe
00000120: f51b 133e dba0 763d 755d 58bc 7c76 79be
00000130: 627a 8cbe 3e07 063e 4e76 7ebe 042a 19bd
00000140: cfc1 803d c879 133d da41 7d3e a6d8 163e
00000150: db96 97bc 2e1f 883d 297d edbd bbf4 ec3d
00000160: 5da7 4dbe 097b f2bd 30e8 7e3e 8fb1 8e3d
00000170: 5c14 5a3d 9e3f 3c3e 93f2 6dbe 5bfc bb3c
00000180: bf11 8cbe 44a8 4abe 9f90 203e 3531 dbbd
00000190: 71ec 48be 690e 90bd 5320 443e 414f 6d3e
000001a0: b733 76bd 60eb 00be 9530 6b3e 4f0e 4b3e
000001b0: 962b fabd 8ba5 2d3e a6cf 72be 0d5f 9a3d
000001c0: 7f51 80be ef21 70be f808 35be ae3d 87be
000001d0: a1e5 cf3c 0d37 8c3d 3a2c 043e b32f 653e
000001e0: 8590 91be baaa dfbd 2881 96bd 13a0 303c
000001f0: 87c1 73be da18 aebd f768 3c3c 50a2 4a3c
00000200: 5419 78be 9dab edbd b36a 77be 6897 0a3e
00000210: 8e74 803e 6813 6d3e eed6 c8bc 0c9f 443e
00000220: 4850 1cbe 2dba 9d3d be05 833e 72b6 063e
00000230: 3413 18be 2ef5 3cbe 3d93 70be 481e bfbc
00000240: e115 813c a3f7 ccbb 87fb 9d3d e0fe 88be
00000250: baaf 4e3e aa2c 6f3e 9d6b 133e 3170 46bc
00000260: d56f 8b3e ee6e 55bd d204 90bd cbdb 953c
00000270: e41b 853b 8eb8 ac3d 8972 663d 2ee2 a1bd
00000280: 5b94 693d 174d 1fbe 1123 7abe 05b8 64be
00000290: 6e5f a7bd c0a9 f3bd 8030 693d 1864 f23d
000002a0: 218b 6f3e 1e43 893e c5e7 88be 2584 52be
000002b0: 21b0 7d3e 5135 fabd 0793 1bbe e474 70bd
000002c0: e7f7 613e 2ae8 49be 547c 213e e57f 8bbe
000002d0: c56d 573e ee9e 48be 85cb 76be 8095 3b3e
000002e0: 967e 6e3e cb6b 54be 267b 1c3e b015 433e
000002f0: d4e9 88be 368a 16be 40ca acbd 21d4 a43d
00000300: 95d2 473e 92a0 f13c b218 eb3c 3053 fd3c
00000310: 4efd 7a3e 8538 263e c18c d03d 6fb5 29be
00000320: 9145 81bd b134 88be e915 113e 9658 473e
00000330: c8ef ebbd 430e 70be 1eed 8ebe bd1b 353d
00000340: dbc0 0abe e50d 7ebc ec0a 353c 54ad 53be
00000350: d1a0 233e 4613 913e c6b4 38be db3f 863d
00000360: d7a1 283e 947c 39be b067 9d3d 2e8b 86be
00000370: f8c8 7bbd 5b2d 8b3e 0046 4cbc f881 89be
00000380: 77e9 9c3c 6b25 a4bd f21f 4e3e 4f40 d83d
00000390: 9c49 5d3e cdfc d13c d567 39be 9b04 683e
000003a0: ac92 083d 43b5 8dbe a3a8 603e 1be9 8dbe
000003b0: 145f 9e3d e1ef 6bbd ae16 62be 5853 6f3d
000003c0: fb08 c4bc 2867 58be 4d98 0cbe 2cec 513d
000003d0: 79b6 82be 129c 573e 4338 1abd a4bd 3a3e
000003e0: 6209 f73d b7ea 62be d352 873e 0eba 91be
000003f0: 362f d23d 899c 3e3e 4d91 aabd 5d89 3dbe
-0.0969293 0.2549751 -0.09397796 -0.02697774 -0.06496668 -0.21172063 0.23697495 0.2555837
-0.22625203 -0.07314036 0.12652443 0.072542176 -0.15448007 -0.1654544 -0.12655196 0.040113654
-0.2849672 0.03143581 -0.15708329 -0.28769353 0.20883676 -0.04827635 0.08389881 -0.21204944
-0.17652425 -0.27022862 0.11232594 0.10403117 0.06740318 -0.26405385 0.23553106 -0.067092255
0.044796485 -0.091490015 0.028197767 0.08789973 -0.27022514 0.22699714 -0.07598093 0.043601256
0.047168255 -0.004202723 0.17514499 0.2606833 0.19549333 0.14735226 0.26690593 -0.018675925
0.0025451765 0.21621452 0.24843805 0.024756934 0.071829066 -0.27732995 -0.18747115 0.15120573
0.18805838 -0.110362925 -0.14775713 0.19851781 -0.27931613 0.2202739 0.27536598 -0.19066218
0.14562832 -0.08310944 0.1997566 -0.19083351 0.20299771 -0.15735312 -0.121917 -0.16637295
0.14366134 0.060211997 -0.013205876 -0.24361604 -0.2743712 0.130887 -0.24849817 -0.037393585
0.06286966 0.03600481 0.24732152 0.14731082 -0.01850455 0.06646572 -0.11596138 0.11570116
-0.20083375 -0.11839873 0.2489326 0.0696746 0.053242072 0.18383643 -0.23237066 0.02294748
-0.2735729 -0.1979075 0.15680169 -0.10702745 -0.19621445 -0.070339985 0.19152956 0.23174764
-0.060107913 -0.12589788 0.22967751 0.19829677 -0.122153446 0.16957681 -0.23712024 0.07537661
-0.25062177 -0.23450445 -0.17679203 -0.26414245 0.02537805 0.068464376 0.12907496 0.22381477
-0.28430572 -0.109212354 -0.07348853 0.010780352 -0.23804294 -0.08500834 0.011499635 0.0123678
-0.24228412 -0.11604998 -0.24161796 0.1353432 0.25088924 0.23151934 -0.024516549 0.19201297
-0.15265 0.07701526 0.25590318 0.13155535 -0.14851075 -0.18452904 -0.23493667 -0.023329869
0.015757503 -0.0062551065 0.07713991 -0.26756954 0.20184222 0.23356882 0.1439652 -0.012111709
0.2723376 -0.052107744 -0.070321694 0.018293282 0.0040621627 0.084336385 0.056261573 -0.079044685
0.05702625 -0.15556751 -0.2442744 -0.22335823 -0.08172499 -0.118976116 0.05693102 0.118354976
0.23392917 0.2680902 -0.26739326 -0.20558222 0.24774219 -0.122172005 -0.15192805 -0.058705226
0.22067223 -0.1971747 0.15770084 -0.27246013 0.21037968 -0.19591877 -0.24101074 0.18318748
0.23290476 -0.20744245 0.15281352 0.19051242 -0.26740897 -0.14701161 -0.084370136 0.08048273
0.19513924 0.029495511 0.0286983 0.030923456 0.2451069 0.16232498 0.10183097 -0.16573118
-0.06312097 -0.266027 0.14168514 0.19467387 -0.11520344 -0.2344294 -0.2791528 0.044215906
-0.13550131 -0.015506242 0.011049967 -0.20671588 0.15979315 0.28335017 -0.1803771 0.06555148
0.16467987 -0.18113929 0.076857924 -0.2627806 -0.061470956 0.2718304 -0.012467861 -0.2685697
0.019154293 -0.080149494 0.20129374 0.10559141 0.21610111 0.02563324 -0.18106015 0.22658007
0.033343002 -0.27677354 0.2193933 -0.27716908 0.077329785 -0.057601813 -0.22078964 0.058429092
-0.023930063 -0.21133101 -0.13729973 0.05125062 -0.2552984 0.2105563 -0.03765131 0.18236405
0.120623365 -0.22159849 0.26430377 -0.2846226 0.10262911 0.18614401 -0.08328495 -0.18509431

1.weight f4 [256]
00000000: a2d1 803f 3918 803f a012 813f 2663 7d3f
00000010: 3185 803f fae3 803f 1483 7e3f 757d 803f
00000020: ba33 813f e36b 803f b1f1 7d3f a8ea 7e3f
00000030: 3657 803f 31e1 803f 87bb 803f 75f1 803f
00000040: 3c10 803f 887c 803f c1ea 7e3f cd1a 813f
00000050: 9092 803f f636 7e3f e9c1 803f be11 7d3f
00000060: 4f9b 803f b8b3 7f3f 949a 7f3f 7e77 7f3f
00000070: d9af 803f 837d 7e3f 70a6 7f3f 51d8 803f
00000080: 2027 7f3f 3973 7e3f 468e 803f b224 813f
00000090: f8a7 7e3f a607 7d3f 05ad 803f ccf5 803f
000000a0: 4463 803f e256 7f3f 6870 803f 8406 813f
000000b0: 46f5 803f 419f 803f 1696 803f 4658 803f
000000c0: 43d9 7e3f dd00 7f3f 8332 803f 6562 7e3f
000000d0: 1056 7f3f 161a 7f3f 0843 7e3f 88f7 7f3f
000000e0: e12f 7e3f 813d 7e3f 3804 813f ef64 7e3f
000000f0: 7042 7e3f 6026 7e3f 0385 7e3f cd67 803f
00000100: a66f 803f d36d 813f 0d7b 813f 3fd0 7e3f
00000110: 2db9 803f b56d 7f3f ac79 803f 3c0b 7e3f
00000120: 2b36 7c3f 5335 7e3f 3d3d 813f 8b07 813f
00000130: 6e1f 803f c00f 813f 0f74 7f3f 4ad3 7f3f
00000140: e2e5 7f3f db3a 7e3f d350 7e3f 3f03 7f3f
00000150: 0884 7f3f 1c92 803f a626 7e3f c107 7e3f
00000160: 3108 813f 9dce 7e3f d9ef 7f3f 0f4a 803f
00000170: 8969 813f b2e2 7f3f 2ec6 7f3f d549 7f3f
00000180: 5cbd 7f3f d325 813f 78cf 803f 19b1 7c3f
00000190: 3656 7e3f 7d06 813f 50f3 7d3f ab2c 7f3f
000001a0: 9f96 803f e2d5 7c3f 28fc 803f d5ce 7e3f
000001b0: 4ea8 803f 0429 7e3f e904 7e3f 8200 813f
000001c0: 1fba 803f a90f 813f 2f53 7d3f c2d7 7d3f
000001d0: f876 803f 17d2 803f e60c 7e3f 64c7 803f
000001e0: abb0 7d3f 214b 813f c83c 803f 7dac 803f
000001f0: c4af 7e3f 1a90 803f e1d4 803f 37ae 7d3f
00000200: 56ce 7e3f 4719 813f ea40 813f 76ba 7e3f
00000210: 6749 813f 0e6b 7e3f baa1 803f a5ba 803f
00000220: 07b0 7d3f 9047 803f e1d6 803f 90da 7d3f
00000230: 2e10 7f3f 2874 7f3f 5eba 803f 675b 7e3f
00000240: 0253 7e3f 3794 7e3f ce15 813f 8a82 7f3f
00000250: bcf7 7d3f bb9c 7f3f 600b 813f f9be 803f
00000260: 4034 7e3f 7ec8 803f dd7a 7c3f 471b 803f
00000270: bec7 803f 1326 813f 44d0 7d3f 24e6 803f
00000280: 4139 7e3f e2e7 7f3f 7a06 803f 8fc8 7e3f
00000290: bdeb 803f 60fd 803f 5b16 813f 444c 803f
000002a0: d9b2 803f 4572 7f3f bad8 7e3f a783 803f
000002b0: 5f11 7f3f 52fb 7f3f cfa6 803f 844c 803f
000002c0: 02e5 7e3f a802 813f 77da 803f b8c2 803f
000002d0: e65a 813f bd0e 7e3f fca0 7f3f cdc3 7e3f
000002e0: ad86 803f c50a 803f 8228 803f 3335 803f
000002f0: d718 7f3f 25ba 803f 5206 803f ee96 803f
00000300: cd66 7f3f df76 7f3f 9014 803f 8fcd 803f
00000310: 8e6e 813f 5380 813f 8ebe 803f 90cc 7d3f
00000320: 1161 7e3f 132d 803f 2d1d 803f bd3d 7e3f
00000330: 694c 813f 1e74 803f 4daa 803f ca35 7e3f
00000340: 9654 7e3f 734d 7d3f c806 803f 0d56 7e3f
00000350: 17b9 7d3f 67f9 7f3f df02 7e3f 5e5a 7f3f
00000360: 3b23 813f b3c3 803f ddfb 7f3f 25bc 7d3f
00000370: eeb8 803f 9823 7e3f 89f6 803f 8ff7 803f
00000380: 255c 7e3f 3766 803f 1022 7e3f adfc 803f
00000390: 0612 7e3f 1075 7e3f d3ce 7e3f 4ad4 803f
000003a0: ec89 803f 5ebf 7e3f e78e 7e3f 3119 7f3f
000003b0: 0d99 7e3f b765 7f3f b259 7f3f f9f0 7f3f
000003c0: 8bb3 803f 3ecc 803f b8d7 7c3f 30d5 7f3f
000003d0: bfaa 7e3f 7bf7 803f 2db6 803f a968 803f
000003e0: cb8f 7e3f c393 7e3f f074 7e3f 6283 7e3f
000003f0: 4c57 803f ba60 7f3f c048 7f3f 433a 7e3f
1.0063975 1.0007392 1.0083809 0.98979414 1.0040647 1.0069573 0.9941876 1.0038286
1.0093911 1.0032924 0.99196917 0.9957681 1.0026615 1.0068723 1.0057229 1.0073687
1.0004954 1.0038004 0.99576956 1.0086304 1.0044727 0.99302614 1.0059177 0.988552
1.0047396 0.99883604 0.9984524 0.99791706 1.0053664 0.99410266 0.9986334 1.0066015
0.99669075 0.99394566 1.0043418 1.0089324 0.9947505 0.98839796 1.0052801 1.0075011
1.0030293 0.9974195 1.0034304 1.0080113 1.0074852 1.00486 1.0045803 1.0026939
0.99550265 0.9961069 1.0015415 0.9936889 0.99740696 0.9964918 0.9932103 0.9998708
0.9929181 0.993126 1.0079412 0.9937276 0.99320126 0.99277306 0.9942171 1.0031677
1.0034072 1.0111641 1.0115677 0.9953651 1.0056511 0.99776775 1.0037131 0.9923589
0.98520154 0.99300116 1.0096813 1.0080427 1.0009592 1.0082932 0.99786466 0.99931777
0.9996015 0.99308556 0.9934208 0.9961433 0.9981084 1.0044589 0.9927772 0.9923058
1.0080625 0.99534017 0.99975353 1.0022601 1.0110332 0.99955285 0.99911773 0.99722034
0.99898314 1.0089668 1.0063314 0.9870773 0.993503 1.0080105 0.9919939 0.9967753
1.0045966 0.9876386 1.0076952 0.9953435 1.0051363 0.99281335 0.9922624 1.007828
1.00568 1.0082904 0.98955053 0.99157345 1.0036306 1.0064114 0.9923843 1.0060849
0.990977 1.0101053 1.0018549 1.0052639 0.9948695 1.0043976 1.0064965 0.99093956
0.99533594 1.0085839 1.0097935 0.99503267 1.0100526 0.993821 1.0049355 1.0056959
0.9909672 1.0021839 1.0065576 0.99161625 0.99634063 0.99786615 1.0056875 0.9935822
0.9934541 0.9944491 1.0084779 0.9980856 0.9920614 0.99848527 1.0081596 1.005828
0.9929848 1.0061185 0.98624974 1.0008324 1.0060956 1.0089744 0.99145913 1.0070233
0.9930611 0.999632 1.0001976 0.9952478 1.0071942 1.0077324 1.0084947 1.0023274
1.005458 0.99783736 0.9954945 1.0040177 0.9963588 0.9999286 1.0050906 1.0023351
0.9956819 1.0078936 1.006667 1.0059423 1.0105865 0.9924124 0.9985502 0.9951752
1.00411 1.0003287 1.0012362 1.0016235 0.9964728 1.0056807 1.0001929 1.004606
0.99766237 0.9979076 1.0006275 1.0062732 1.0111864 1.0117286 1.0058153 0.9914026
0.9936686 1.0013756 1.0008904 0.99312955 1.0101444 1.0035436 1.0051972 0.99300826
0.9934782 0.98946303 1.000207 0.99350053 0.9911055 0.9998993 0.9922313 0.99747264
1.0088876 1.0059723 0.9999369 0.9911521 1.0056436 0.9927306 1.0075237 1.0075549
0.9935935 1.0031193 0.99270725 1.007711 0.9924625 0.99397373 0.9953434 1.0064785
1.004209 0.99510753 0.994368 0.99647814 0.99452287 0.9976458 0.9974624 0.9997707
1.0054792 1.006233 0.9876666 0.99934673 0.9947929 1.0075525 1.0055596 1.003194
0.9943816 0.99444216 0.9939718 0.99419224 1.0026641 0.9975697 0.9972038 0.9930765

1.bias f4 [256]
00000000: f068 d53b 9916 033b 3e6c 0a3c 6321 253c
00000010: d90e 863b 2107 0c3c 9b1b afbb ab1f 7bbb
00000020: f59f 163c fe16 51bb 45f3 05bc 4554 883b
00000030: f4d9 2fbb 4335 eabb 78a9 bbbb b2f3 f83b
00000040: 395a 313a f0fe 82bb 8931 88bb 4901 0fbc
00000050: 6dce 643b 8df3 d1bb 48d2 ccbb a3ed d3bb
00000060: 3351 8dbb 8d21 5e3a 37d5 8b3a 2d34 ddba
00000070: e38a b1bb be7c c0bb d7da abba 1afe debb
00000080: 5055 773b 0d31 c83b 3771 853b 6804 063c
00000090: c9b0 a63b 98a2 433c 55cf ad3b 4455 f5bb
000000a0: 0616 5e3b 3341 cabb 511a ae3b 7d46 4c3b
000000b0: 5659 fc3b 2ae4 fb3b 7d3c 953b 4188 49bb
000000c0: bfa3 a43b 42f7 41bb 905b d0ba fb9f f13b
000000d0: 04a3 14bb e302 62bb 3489 ddbb 6a49 6238
000000e0: e3b4 e6bb 12e1 90bb 4857 e03b 8bc9 c13b
000000f0: fa45 dd3b e5b5 e9bb 154f b2bb 3eab 4fbb
00000100: b296 173b 2817 33bc dc19 3dbc 66f0 a03b
00000110: 767a b93b 0713 c13b 3591 d2bb 1eb1 f63b
00000120: 2572 6ebc cb61 e4bb cd4f 183c fd0e 00bc
00000130: bcc7 8cba f33b 07bc b8c0 033b 751b c33b
00000140: e65b a4ba 1b5b c8bb 5d37 c4bb 3d4f a03b
00000150: 8699 4db9 3f68 a13b b5c2 debb ddf5 f93b
00000160: f487 043c f51e 98bb 0fd5 193b c152 073c
00000170: 23bc 2abc 352d 9ab9 71da 183a 2b32 693b
00000180: 0174 97ba 1c49 12bc 55f7 d3bb 93c9 543c
00000190: 6cb7 c83b 04f4 02bc 9562 03bc f4dc 543b
000001a0: 1b6b a3ba 915c 083c 2e8c fbbb 67d9 94bb
000001b0: 6387 b4bb cbc8 eabb 091a ff3b 2eb3 023c
000001c0: e7c8 00bc ba92 093c 4643 043c 7e03 ccbb
000001d0: 2b1a 77bb 698b 843b 8223 2abb 4326 c33b
000001e0: 50b2 0cbc 052f 34bc ccc6 f8ba eeb6 abbb
000001f0: fc19 9c3b 75c5 da3b 3fb4 fbbb 97b7 7abb
00000200: f201 94bb 3ed8 d03b 3a56 1abc c84b 25bb
00000210: 3dd6 243c 947f c03b 5c46 a23b 6cc2 1f3c
00000220: 4902 15bc c726 1d3b 880c d2bb c691 06bc
00000230: d47c 69bb 6469 f0ba fdaa d23b 68f2 dcbb
00000240: d6a5 d5bb ebb5 f4bb 95f1 06bc 205a ff3a
00000250: 5c0a 02bc c3dd aa3a e5d5 073c b90c bebb
00000260: 70c0 e5bb fa30 ecbb 3f48 be3b 0b9c 76ba
00000270: aaca d03b 6c2b 12bc fae7 4cbb 7828 e6bb
00000280: df8c bdbb 6a52 333a 26ba 21b9 8c86 9a3b
00000290: c96b eb3b 9b26 0f3c 5176 fb3b 911b a33b
000002a0: b49e d63b 36fc 053b c599 93bb 4935 8a3b
000002b0: acf9 5bbb 79e2 2038 a8f2 a7bb d79f 673b
000002c0: f303 723b e9fd 00bc cd90 edbb 0855 e2bb
000002d0: 8142 273c 9689 e8bb 9076 c43a ec27 7abb
000002e0: 6fff cbbb 6231 e2b9 361a dd3a 9154 c9ba
000002f0: 962e 613b 8ae9 bcbb 6f30 493b a63c 8dbb
00000300: 6352 1a3b d5fe d53a 94dd 8c3a d5cb bfbb
00000310: 2487 373c 71c5 3dbc 38d8 f5bb 94b4 0d3c
00000320: 550c 44bb 325d c3ba b89c 753a fdd2 97bb
00000330: cea1 263c 7f4e 863b f540 183b bd99 ce3b
00000340: 7540 d73b ad3e 2dbc 72fc aaba 7993 b8bb
00000350: ad27 063c 74db 833a 4e2a 01bc 13aa b038
00000360: 7577 0fbc eb0c cd3b 8430 d639 f815 ca3b
00000370: 9650 e13b 068e f1bb 5552 f83b 480d fd3b
00000380: 020f b53b 8218 40bb c216 cb3b 34b4 f93b
00000390: 232e f53b 82ac c5bb 7a05 993b 48f8 803b
000003a0: 8f21 debb 9a98 b9bb 11ce aabb b24c a43b
000003b0: 7e13 b33b ac2f 9b3b 1be8 4c3b 5673 1639
000003c0: 6127 093c 06cb ca3b d8be 093c 887b 18ba
000003d0: 6459 993b 7fc1 fc3b e732 eabb 535a 543b
000003e0: fffb b53b c201 b43b e534 8d3b 2179 b2bb
000003f0: 37d4 343b 1613 19bb 78d3 f6ba 86f2 e33b
0.0065127537 0.0020002483 0.0084486585 0.010078761 0.0040911254 0.008546622 -0.005343867 -0.0038318436
0.00919341 -0.0031904574 -0.008175676 0.0041604363 -0.002683279 -0.0071474626 -0.0057269894 0.00759741
0.00067654584 -0.003997676 -0.0041562957 -0.008728334 0.0034913078 -0.0064072073 -0.0062506534 -0.0064675375
-0.004312658 0.00084736274 0.0010668401 -0.0016876512 -0.005418168 -0.0058742454 -0.0013111484 -0.0068051936
0.003774006 0.006109363 0.004072334 0.0081797615 0.0050869924 0.011940621 0.005304257 -0.007486971
0.0033887639 -0.006172323 0.0053131958 0.0031169944 0.0077010794 0.0076871114 0.00455433 -0.003075138
0.005024403 -0.002959684 -0.0015896428 0.0073738075 -0.0022680173 -0.0034486584 -0.0067607407 5.395097e-05
-0.0070406063 -0.0044213617 0.0068463422 0.0059139184 0.0067527266 -0.007132279 -0.005441556 -0.0031687762
0.0023130593 -0.010930814 -0.01154181 0.00491147 0.0056603504 0.005892161 -0.0064260014 0.0075284382
-0.014553581 -0.0069696656 0.00929637 -0.0078160735 -0.0010740678 -0.008254039 0.0020103883 0.005954201
-0.0012539595 -0.0061143762 -0.005988045 0.0048922584 -0.00019607515 0.004925757 -0.006798113 0.007628186
0.008089054 -0.0046423622 0.002347294 0.008259476 -0.010420832 -0.0002940685 0.000583089 0.003558288
-0.0011554958 -0.008928563 -0.0064686933 0.012987512 0.006125381 -0.007992748 -0.008019109 0.003248033
-0.0012467833 0.008322851 -0.007676623 -0.004542518 -0.0055093034 -0.0071650497 0.007785086 0.00797729
-0.007860399 0.008396799 0.00807268 -0.0062260022 -0.0037704806 0.0040449393 -0.0025961106 0.005955489
-0.008587435 -0.010997538 -0.0018980145 -0.005240313 0.0047638398 0.0066763707 -0.007681399 -0.00382564
-0.0045168335 0.0063734343 -0.009419972 -0.002522217 0.010060844 0.0058745835 0.004952235 0.009750944
-0.009094783 0.0023979412 -0.0064101852 -0.008213466 -0.0035627382 -0.0018341956 0.006429075 -0.0067427643
-0.0065200133 -0.0074679754 -0.008236309 0.0019481815 -0.00793704 0.0013036061 0.0082907425 -0.0057998565
-0.0070114657 -0.007207987 0.0058069522 -0.00094074075 0.0063718157 -0.008921485 -0.0031266198 -0.007023867
-0.0057846154 0.0006840589 -0.00015423502 0.0047157463 0.00718448 0.008737232 0.0076740165 0.0049776514
0.0065496806 0.002044452 -0.0045044147 0.004217778 -0.0033565564 3.835789e-05 -0.0051253624 0.0035343075
0.0036928623 -0.007873037 -0.0072499276 -0.006907109 0.010208727 -0.0070964796 0.0014988948 -0.0038170768
-0.0062255184 -0.00043142872 0.0016868773 -0.0015360286 0.0034360043 -0.0057651447 0.0030699035 -0.0043102084
0.0023547641 0.0016326556 0.0010747188 -0.005853156 0.011201654 -0.011582718 -0.007502582 0.00864901
-0.0029914577 -0.0014905094 0.0009369361 -0.004633306 0.010170413 0.004098713 0.0023232077 0.006304948
0.006568963 -0.010574025 -0.0013045205 -0.0056328145 0.00818817 0.0010059909 -0.007883621 8.424013e-05
-0.008756508 0.0062576435 0.00040853408 0.0061671697 0.0068760617 -0.007371667 0.007578174 0.0077225305
0.0055254707 -0.0029311483 0.0061977813 0.007620359 0.0074823066 -0.0060325274 0.0046698423 0.0039358474
-0.006778903 -0.0056639435 -0.0052125533 0.0050140256 0.00546497 0.0047359075 0.0031266275 0.00014348081
0.008371205 0.006188753 0.008407317 -0.00058167474 0.0046798456 0.007713496 -0.0071471813 0.003240247
0.005553722 0.0054933736 0.004309284 -0.0054465686 0.002759231 -0.0023357323 -0.0018831333 0.0069564013

4.weight f4 [256, 256]
00000000: 6936 80bd 5335 5cbd 653f f83c bcbb 833d
00000010: 0fc4 48bd 5281 233d f628 423c 197e 383d
00000020: e03c 823c a785 803d f8df 293d dfae 1a3c
00000030: fb90 25bd b574 7a3d a3ea 4cbd c4df 8fbc
00000040: 4b4a 4e3c 837c 28bd 2e16 6cbc 5f02 ce3c
00000050: b2c8 0b3d 7077 3bbd 3627 803d 1759 403d
00000060: 9bee 8dbc 316a c8bc 07f7 03bd b5fd 093d
00000070: 9888 f53c 2070 27bc 6a43 b03c 2d6a 42bc
00000080: 630e 403d 407c b9bc 3328 223d 458b e1ba
00000090: 8d50 473d 1ef0 5e3d 4466 86bd 79fc 9c3c
000000a0: 966f 77bd ba86 6b3d 4f69 cfbc fd43 193d
000000b0: f561 49bd 21ef 1ebd fcc2 4bbd d23f 603d
000000c0: 0c67 c3bc bdb5 93bc 7795 e93c 0eeb 823d
000000d0: ab8b b13a 8de2 5e3c a5b7 bcbc 71e3 61bc
000000e0: 68ba e9bc f9eb fdbc b2ce fd3c 723d 91bc
000000f0: ee10 1abd ae08 0fbd 9731 e03c 1325 ed3a
00000100: 80ad a53c d246 7f3d 1b2d dbbc 2d4c 5bbc
00000110: be25 12bd 3191 ba3b e73d ad3c 4406 603d
00000120: a10d 3cbc 42dc 573b 31ac cd3c bc93 cc3c
00000130: 30ff 5a3d dfe6 4e3d 75c9 b0bc 1a52 64bd
00000140: 7756 ec3c 01cf 463c 4658 65bd 9f52 88bc
00000150: 66cf 31ba 32f9 edbc 478e b23c 91d1 973c
00000160: 9822 f23c 0b71 483d fd8b 63bd f834 103d
00000170: 5b13 833d 53ac 96bc 52c0 693d 200e 91bb
00000180: e013 6cbb a3bc 2bbb d218 0f3d a5e4 a5ba
00000190: 18e1 f1bb f766 ddbc c312 5ebd 2201 3ebc
000001a0: 5aef 103d c8c6 54bb 2e57 1d3b f457 7b3c
000001b0: 87c0 b1bc 5c7b e7bc a0ab 413c adb6 153d
000001c0: c8c9 b2bb e15d 02bd c6ee 75bc 42d7 6fbd
000001d0: 8375 34b9 f530 ddbc 8a03 7d3c 2005 063d
000001e0: 473d 3b3d d384 27bc 7889 65bc 319a 58bd
000001f0: 7e47 63bc a612 053c 9dff d93c 536f b73c
00000200: a05d dbbc 5192 b13c ecee 6d3c 732f 253d
00000210: 4112 42bc ad44 57bc bcb5 343d bc3b 18bd
00000220: 582b e8bc 6bed 29bd e817 a7bc 9438 31bd
00000230: cd02 4ebd 1083 1ebd 79a9 283d 4e24 7abd
00000240: 452c 8abd e3ba 57bc 33d1 4a3d 9576 8abc
00000250: f800 103d 5afe 02bd 8148 433d 462f 6f3c
00000260: a328 b7bc 29f0 f13c 5325 7d3d e85b 84bc
00000270: a267 7cbd e144 f0bc 7196 0e3d 4556 fe3b
00000280: 20a1 36bb b4b2 083d 16b4 813d 2076 c4bc
00000290: df1b 31bb 1769 60bc 9aab f63c 8da4 05bd
000002a0: 49fb 83bd 3fb2 3fbb 8933 9bbb c867 503d
000002b0: 2ae3 3d3d b4e9 4e3d 3e22 57bd 9c8f 123d
000002c0: 6fdb c53c b4a8 73ba adab 243d 7d28 4e3d
000002d0: ce3c b9bc 624c 143d 98eb a8bc 6fd7 15bd
000002e0: 64ab e43c 90f4 4c3d 4ac5 87bd 5465 93bc
000002f0: 73b8 25bd 9df5 22bd bcfc 003d 09af 33bc
00000300: cd46 6d3a d5d3 5b3c dd89 94ba 13a8 863d
00000310: e069 1e3c d3e9 893d 02a0 dd3c c147 3dbd
00000320: 845f 6cbc f926 19bd 50a5 f1bc e26b 8abd
00000330: f83e 3a3d 869d f5bb 9526 82bc a443 aa3c
00000340: 394b 2dbd a60a 7fbc 29e3 c53c 12e9 203d
00000350: f13b 5ebd cc55 27bd 3219 7fbd e1ce 15bd
00000360: 3b3b fa3c c389 303b 28b9 033d 3e96 7a3d
00000370: 4380 c53c f19f bc3c 485b 783c 1718 6e3c
00000380: bbcf 9bbc e15f 39bd 89ba 2ebd 3d94 bebc
00000390: a84a 48bd a238 79bd bc43 3a3d 646c 1cbd
000003a0: 4154 0a3d d9ac 623d 67be 65bd cb00 873d
000003b0: 773f b3bc a80a 513d 57aa 5d3c 5fd6 5d3d
000003c0: 9e58 54bc 7713 cd3c f6c8 c33c ef4e 6a3d
000003d0: bc81 3dbd ee1e 1e3d 06cf 633c 92d5 033d
000003e0: 0221 89bc 595e 50bd dd6a 35bc e055 ad3c
000003f0: 360b 80bd c431 b2bc 4001 083b 01e3 193d
-0.06260378 -0.05376179 0.030303666 0.06432292 -0.0490151 0.03991825 0.011850586 0.04504213
0.015898168 0.06275492 0.04147336 0.009441107 -0.040421467 0.061146457 -0.050028455 -0.017562754
0.012590955 -0.04113437 -0.014409585 0.025147615 0.034126945 -0.0457682 0.06257479 0.046959963
-0.01732569 -0.024464699 -0.032218006 0.03368922 0.02997236 -0.010219604 0.02151652 -0.011866135
0.04688872 -0.022642255 0.03958912 -0.0017207643 0.048660804 0.054428212 -0.06562474 0.019163357
-0.06040915 0.057501532 -0.02531877 0.037418354 -0.049165685 -0.03880227 -0.0497465 0.054748364
-0.023852848 -0.018030996 0.028513653 0.063924894 0.0013545653 0.013603819 -0.023036787 -0.013787136
-0.028531268 -0.03099631 0.030982349 -0.017729495 -0.0376138 -0.034920387 0.027367396 0.0018092714
0.020224333 0.0623234 -0.026754906 -0.013384861 -0.035680525 0.0056935777 0.021147681 0.054693475
-0.011477859 0.003293768 0.025106521 0.024972789 0.053466022 0.050513145 -0.021580437 -0.05574236
0.028849823 0.0121343145 -0.055992387 -0.01664096 -0.0006782919 -0.02904949 0.021796359 0.018532546
0.029557511 0.04893593 -0.055553425 0.035206765 0.06400176 -0.018392717 0.057068177 -0.0044267327
-0.0036022589 -0.0026204966 0.03493578 -0.0012656642 -0.0073815696 -0.027026637 -0.05421711 -0.01159695
0.035384513 -0.0032467116 0.0024008262 0.015340794 -0.02169825 -0.028257065 0.011820704 0.036551166
-0.005456183 -0.03182781 -0.015010541 -0.058554895 -0.00017209914 -0.027000884 0.015442738 0.03271973
0.045712736 -0.010224539 -0.014009826 -0.052881423 -0.013872026 0.008122122 0.026611144 0.02239195
-0.026778042 0.021676214 0.014522295 0.040328454 -0.011845172 -0.013138932 0.044118628 -0.037166342
-0.02834098 -0.041486185 -0.020397142 -0.043266848 -0.05029564 -0.03869921 0.041177247 -0.06106978
-0.06746725 -0.013167116 0.049515914 -0.016902247 0.035157174 -0.03198085 0.047676567 0.014598673
-0.022358244 0.029533463 0.061803173 -0.016157106 -0.06162227 -0.029329719 0.03481144 0.007761749
-0.0027867034 0.03337355 0.06333177 -0.023982108 -0.002702467 -0.01369693 0.030111123 -0.03262763
-0.06444413 -0.002925053 -0.004736368 0.050880224 0.04635922 0.050515845 -0.05252289 0.035781488
0.024152486 -0.0009294853 0.040202785 0.05033158 -0.022612002 0.036205657 -0.020620152 -0.036582407
0.027913757 0.05003792 -0.06629427 -0.017992653 -0.040459108 -0.039785016 0.031491026 -0.010967025
0.00090513827 0.013417204 -0.001133259 0.06575026 0.009668797 0.067340516 0.027053837 -0.046211008
-0.01442707 -0.037390683 -0.029497772 -0.06758858 0.045470208 -0.007495585 -0.015887538 0.020784207
-0.042308066 -0.015566504 0.02415617 0.039284773 -0.054256383 -0.040853307 -0.062279887 -0.03657425
0.030545821 0.002693758 0.032159 0.06117844 0.024109012 0.023025485 0.015158482 0.014532111
-0.019019952 -0.045257453 -0.042658363 -0.023264045 -0.048899323 -0.060845025 0.045474753 -0.038189307
0.033771757 0.05534062 -0.056089785 0.06591948 -0.021880848 0.051035553 0.013529382 0.05415952
-0.012960581 0.025033696 0.023899537 0.057204183 -0.046266302 0.038603716 0.013904339 0.0321861
-0.016739372 -0.050871227 -0.0110728415 0.021159112 -0.06252138 -0.021752246 0.0020752698 0.037570003

4.bias f4 [256]
00000000: fd02 073d 5325 01bd 9ce5 36bd 0bd7 3f3d
00000010: 8d52 e5bb 01db 063d 0fb1 13bd f2fd aabc
00000020: 4e2a dc3b 3a62 cabc 144e f63c 4228 493d
00000030: b047 9e3b ca3c 173c d160 e3bb 5ba9 4b3c
00000040: 5390 d33c ccad 5d3d 1987 123d 60a5 3abc
00000050: ed90 61bc 0689 7cbd 556a f6bc f505 8fbc
00000060: 1bae de3b ec59 65bc ac1e 26bd b3c1 59bb
00000070: c88b 17bd aa40 8d3c cc23 60bd f091 c6bc
00000080: d412 82bd 629d ea3c 8a10 f23c 7dcb f73c
00000090: d70a ac3c 5b8e 1cbc 1802 88bd 4c51 213d
000000a0: f131 55bd e665 4fbc f457 c3bc 9dfb 2cbd
000000b0: 7380 f23c 764d 2abd c253 763c 513a bc3c
000000c0: c982 093c 5624 e83c afc0 78bc edf5 92bd
000000d0: bf93 503d b6de 993c dbfa 1d3d a9e3 8bbc
000000e0: 3cb9 49bc a955 6a3d 1a84 bb3b db42 36bc
000000f0: 2faf 25bd 8a59 9fbc 63cb 493d 86d4 88bd
00000100: 886b 653d 17ba a8bc 2050 5c3d a7b0 2e3d
00000110: e5fb 2d3d bc33 153c 544b 183d f085 473d
00000120: ee69 173d 2198 fbb9 07dd c83c 5c94 38bd
00000130: 566d 3b3d 379f 6dbd b4bc c4bc e5d4 7bbd
00000140: a004 98bc 0b6a 613d 5169 5dbc 4d57 273d
00000150: 4a72 e6bc a614 6d3d 1ba1 fe3c 79f8 55bc
00000160: 9a55 17bd 923b 80bc 2bef 393d 6a45 673d
00000170: 37e9 713d 655e a9bc 10a7 4abd dfb1 88bd
00000180: c34a 5e3d bab1 5fbd 0bc8 07bd 1a1f 343c
00000190: 9c9a e93b e2cc 213d f745 80bd 8b6a c03c
000001a0: eae9 fd3c 1b2b 25bd 9202 84bd 432a 693d
000001b0: 21bc a9bb 6321 eabc 4e26 50bd 3cc8 6cbc
000001c0: 33d4 48bd 3144 02bd f16a 7cbd df1a 7f3d
000001d0: 7f2a 183d 7d70 43bd 3148 373b c5c8 453d
000001e0: abaf 0fbd 68ab b43c 3da8 6f3d a082 293d
000001f0: 1a92 203d 7f34 e7bc 0a0e 0d3d affb 753c
00000200: 2535 313c 04b3 213c 2429 213b 654e 883c
00000210: 736e 5e3d 3f2e d53c 1c68 05bd ffd1 3abd
00000220: 70a1 1b3d 085d 56bd 3e68 6eba 146b 28bd
00000230: 0b5b 013d 3d0d 033d 0a07 083b bcc5 56bd
00000240: 8e97 48bb 6bd9 fe39 95bf abbc 6ed2 89ba
00000250: 1d80 00bd d9eb 493d ca03 b23a e04a 6f3d
00000260: 3228 afbc 9883 d43c 73ec 773d 5960 ddbc
00000270: 11be 68bd 0071 e63c 52ba ed3b 16f7 4fbd
00000280: 8088 97bc 3a83 a53c 25b2 26bd a078 63bc
00000290: 74da 6dbd eefe 293d d893 673d ba00 353d
000002a0: 8400 413d 56c6 56bd 14df 803d 14bd 88bd
000002b0: 9ad5 c0bc 6124 6cbd 481e 1fbd ed27 50bd
000002c0: c601 e33c 0752 93bc 93ff 7b3d aa94 c43c
000002d0: d665 9c3c 113d 423d 5eaa b4bc 0608 793c
000002e0: 8233 02bc 86b0 c3bc 0cc0 393c 01eb 073d
000002f0: 02eb 7cbc 92a5 33bc 0742 18bd 18d1 70bc
00000300: cf6c 3cbd 6cc8 3abd cfbf 8b3d b237 093d
00000310: 3938 713c 631a 22bb 1fcf 03bc ec60 66bc
00000320: 0776 67bd 3397 103d 6861 bfbc 0576 0ebd
00000330: 2613 0c3d eb1a 78bc 84ea 423d 1dad 4d3d
00000340: 5730 3c3d 73e1 f9bc a989 c53c 5ac7 24bd
00000350: c663 04bb b7b0 90bc dd00 583d 2b35 443d
00000360: 13c6 1abb e7d4 70bd 7f05 613b 36c5 ea3c
00000370: 6767 5ebd 3ad7 8cbd ceaf 1abd 64db e1bc
00000380: 10d1 20bd 90e6 73bd 8657 f23c df40 e2bc
00000390: 381d c03c 2333 c33a e78e 1fbc 2a33 dbbb
000003a0: cd40 72bc 1a43 79bd 49cf 583d 7db5 e8bc
000003b0: 531a ac3c 7223 46bd 98a2 163c d15a 39bd
000003c0: 5732 99bc d607 283d e15b 74bd 7d7a caba
000003d0: d748 4a3d 831e 32bd c758 5cbd 841f adbc
000003e0: 9203 963b 36fb c53c 5a08 c3bb ec86 d93c
000003f0: 9c16 88bc 5340 403c 28a5 313c 6e55 843b
0.032961834 -0.031529736 -0.044652566 0.04683594 -0.006998366 0.032923702 -0.036057528 -0.020873044
0.0067189103 -0.024705041 0.030066527 0.04911066 0.004830323 0.009230802 -0.0069390316 0.012430514
0.025825655 0.054120824 0.03577337 -0.011391968 -0.013767463 -0.061654113 -0.03008 -0.017458895
0.0067956573 -0.01399849 -0.040556595 -0.0033227026 -0.03699854 0.017242748 -0.05472164 -0.02423951
-0.063512474 0.0286395 0.029548902 0.030248398 0.021001263 -0.009555425 -0.06641024 0.03938417
-0.05204958 -0.012658572 -0.02384565 -0.042232145 0.029602265 -0.04157778 0.015034618 0.022977026
0.008392998 0.028337639 -0.015182658 -0.07175813 0.05092215 0.018782955 0.038569313 -0.01707633
-0.01231223 0.0572106 0.005722535 -0.011124338 -0.04045027 -0.019451875 0.04926623 -0.06681161
0.056010753 -0.020596547 0.05378735 0.042648938 0.042476553 0.009106573 0.037181213 0.048711717
0.036966257 -0.00047987796 0.024519457 -0.04506336 0.045758568 -0.058013167 -0.024015762 -0.06148233
-0.018556893 0.05503277 -0.013513879 0.04085474 -0.02813067 0.05788102 0.03108268 -0.013059729
-0.03694687 -0.015653405 0.045394104 0.056462683 0.0590603 -0.020674894 -0.04947573 -0.06674551
0.054270517 -0.054612853 -0.03314976 0.010993743 0.0071290266 0.039502032 -0.06263345 0.023488304
0.030995328 -0.04032431 -0.06445803 0.05692507 -0.0051798974 -0.028580373 -0.05081778 -0.0144520365
-0.049030494 -0.031803314 -0.061625425 0.062281486 0.037149902 -0.0477147 0.0027966613 0.048287172
-0.03507964 0.02205439 0.058510054 0.04138434 0.039201833 -0.028223274 0.034437217 0.015013619
0.010815893 0.009869341 0.0024591172 0.016638944 0.05430455 0.026023028 -0.03256999 -0.045610424
0.037995756 -0.052334815 -0.0009094513 -0.041117743 0.031580966 0.031995047 0.0020756149 -0.052434668
-0.0030607912 0.00048608644 -0.020965377 -0.0010514983 -0.03137218 0.049297187 0.0013581451 0.058421016
-0.021381471 0.025941655 0.06052823 -0.027023481 -0.056821886 0.028130054 0.007254877 -0.05077275
-0.018497705 0.020204175 -0.040697236 -0.01388374 -0.05806966 0.041502886 0.05653748 0.044190146
0.047119632 -0.05243524 0.06292549 -0.06676689 -0.023539353 -0.05765188 -0.038847238 -0.050819326
0.027710807 -0.01798345 0.06152303 0.02399667 0.019091528 0.04742152 -0.022053894 0.015199667
-0.007946851 -0.023887884 0.011337291 0.0331831 -0.01543689 -0.010964768 -0.037172344 -0.014698289
-0.046002205 -0.045601293 0.06823694 0.03350038 0.014722877 -0.0024734966 -0.008044987 -0.014061194
-0.056509044 0.035300445 -0.023361877 -0.03478052 0.03419795 -0.0151431365 0.047586933 0.05021392
0.045944538 -0.03050301 0.024113493 -0.04022918 -0.0020201071 -0.01766239 0.0527352 0.047902267
-0.0023616597 -0.05879679 0.0034335551 0.02865849 -0.05429783 -0.06876989 -0.037765317 -0.027570434
-0.039261878 -0.059546053 0.02958275 -0.027618824 0.023451433 0.0014892559 -0.00973866 -0.006689449
-0.0147859575 -0.06085501 0.052932058 -0.028406853 0.021008646 -0.048373647 0.009194039 -0.045252625
-0.018700762 0.041023098 -0.059657935 -0.0015447881 0.04938587 -0.04348613 -0.053795602 -0.021133192
0.0045780623 0.024167638 -0.0059519233 0.026553594 -0.016612343 0.011734086 0.010842599 0.0040385043

5.weight f4 [256]
00000000: cade 803f 9cf6 7e3f f837 813f d3e9 7c3f
00000010: 1756 813f 388a 803f a160 803f 53ea 803f
00000020: c4da 7d3f c445 7f3f c541 813f 5638 813f
00000030: 28f5 803f f492 803f 7daa 7c3f 3bce 7f3f
00000040: 245d 7f3f 9ca2 803f da69 7e3f 9778 7e3f
00000050: fc51 7e3f f938 803f f07f 803f ed49 803f
00000060: e178 7f3f 7f70 813f 0201 803f 6794 803f
00000070: 1d69 803f abfa 7c3f c7ac 7e3f 9dd1 7c3f
00000080: 57e2 7e3f 5fc3 803f ead8 7e3f dccc 7d3f
00000090: 0b5c 7e3f abe4 803f ff36 813f ca60 803f
000000a0: dbf3 803f ebdf 803f 9f74 7e3f 6977 7f3f
000000b0: 0706 803f ff9c 803f 19d4 7f3f 0f31 803f
000000c0: c6c9 803f d000 7e3f f880 7e3f 1619 813f
000000d0: 6962 7e3f fa7f 7f3f ce0a 7e3f f748 7e3f
000000e0: cc42 803f f0cd 803f b6de 803f 6a13 803f
000000f0: 20d4 7e3f 000f 7f3f 80d6 803f 4ac7 7e3f
00000100: 8822 7d3f e008 803f 4634 813f 35d7 7f3f
00000110: 664f 7f3f f5ee 7c3f 8867 7e3f e839 7e3f
00000120: f3fe 7d3f 34e2 7f3f f37a 803f b036 813f
00000130: 2018 7d3f 1225 813f 9a76 7d3f 9446 7f3f
00000140: e17a 7d3f c3b7 7e3f 676f 7e3f 50f3 803f
00000150: 4d95 813f 196c 7c3f 4589 7f3f 960b 803f
00000160: 7981 803f 72aa 7e3f b774 7e3f 85a5 7e3f
00000170: b647 7c3f 1bec 7d3f dbc9 7e3f e2e9 803f
00000180: 5b8b 7d3f 01eb 7e3f d853 7f3f a84f 7f3f
00000190: 930c 803f b7ed 803f 7898 7e3f ae1e 7e3f
000001a0: ef5f 813f d881 7e3f 1603 7f3f b064 7c3f
000001b0: 1fad 803f e7bc 7f3f ae85 803f da26 7d3f
000001c0: 0b40 803f 491b 803f a4f5 7d3f d1f3 7f3f
000001d0: c5c0 803f eb96 7f3f ef61 7e3f 91b6 7e3f
000001e0: 0a06 7e3f d76c 7f3f 5a6b 803f 7587 803f
000001f0: 6d7e 7d3f 4002 7f3f 9520 7e3f 4243 7e3f
00000200: f104 813f 9753 7f3f a044 803f 2b65 813f
00000210: f787 803f a0e5 7e3f 0fa5 7f3f 2b98 803f
00000220: 41b0 7e3f a21f 7e3f 6751 803f dc76 7e3f
00000230: 3538 803f 7667 7e3f 45c0 7c3f 9524 7e3f
00000240: b6bc 7e3f 5179 7d3f f036 7f3f 7f34 7e3f
00000250: cf76 7c3f f2e7 7e3f 3956 7f3f 8eff 803f
00000260: 2a8c 803f 3fcf 803f 3f1d 803f 5d3c 7c3f
00000270: eb2a 7d3f 0b92 7e3f 2079 7f3f 5725 803f
00000280: 0290 803f d584 803f 549f 7d3f 9ea9 7e3f
00000290: b843 803f de6c 7c3f 27a2 7e3f 0e90 7d3f
000002a0: 3b4b 7f3f 8289 803f 17e5 7f3f 7f7b 7d3f
000002b0: 2bc6 803f eb13 7e3f 6aff 7e3f 8fac 7e3f
000002c0: 85b1 7e3f 1430 803f de48 7f3f 831e 823f
000002d0: 1070 803f e1da 803f a373 803f 37c3 7d3f
000002e0: 289d 803f 6637 803f 99bc 803f 10fe 7c3f
000002f0: 5b9b 7f3f b160 7b3f 8c92 803f 4cc0 803f
00000300: ef40 7e3f 176e 7e3f 015f 813f 257d 7f3f
00000310: bf1f 7e3f be51 7d3f 9bdd 803f abc0 803f
00000320: 3bbb 7e3f b0e3 803f 13a4 7e3f 56f1 7b3f
00000330: 569a 7e3f 2795 803f 6dde 7d3f fb13 803f
00000340: 9b06 7e3f 23a2 803f d01b 803f 705c 7e3f
00000350: 2105 7f3f c88b 813f 6e2b 7e3f 27a7 7e3f
00000360: 1322 813f 4fc4 7c3f 8994 7e3f e3e3 803f
00000370: 854e 813f d93a 7e3f a674 813f 9d09 7f3f
00000380: bb74 7f3f b23c 813f fff2 7e3f c365 7e3f
00000390: c5ea 803f 21ed 7e3f 6205 803f 1195 7f3f
000003a0: 3e77 803f a0c2 803f 01a2 803f e596 7d3f
000003b0: bf65 803f 66cc 803f aa79 7f3f a583 7e3f
000003c0: 5276 7c3f 2a7f 813f c655 7e3f e6a4 7e3f
000003d0: 2897 7e3f 8b23 813f f272 803f a033 813f
000003e0: 2971 7f3f 8778 7c3f e422 803f cfae 803f
000003f0: b820 813f 8064 7e3f f60f 7f3f 0524 813f
1.006799 0.99595046 1.0095205 0.9879429 1.0104398 1.0042181 1.0029489 1.007151
0.99161935 0.9971583 1.0098196 1.0095317 1.0074816 1.0044847 0.98697644 0.9992406
0.99751496 1.0049624 0.99380267 0.99402755 0.9934385 1.0017387 1.0039043 1.002256
0.9979382 1.0112456 1.0000308 1.0045289 1.0032078 0.9881999 0.9948239 0.98757344
0.9956412 1.0059623 0.99549735 0.99140716 0.99359196 1.0069784 1.0094908 1.0029538
1.0074419 1.0068334 0.993967 0.9979158 1.0001839 1.0047911 0.9993301 1.0014971
1.0061576 0.9921999 0.9941554 1.0085781 0.9936891 0.9980465 0.99235237 0.99330086
1.0020385 1.0062847 1.0067966 1.0005925 0.9954243 0.99632263 1.006546 0.9952284
0.98880816 1.0002708 1.0094078 0.99937755 0.9973053 0.9880212 0.99376726 0.9930711
0.99217147 0.99954534 1.0037521 1.0094814 0.98864937 1.0089438 0.99009097 0.9971707
0.99015623 0.9949915 0.99388736 1.0074253 1.0123688 0.98602444 0.9981883 1.0003536
1.0039512 0.9947883 0.9939684 0.9947131 0.9854692 0.99188393 0.99526757 1.0071375
0.99040765 0.9957734 0.9973731 0.9973092 1.0003837 1.0072545 0.994514 0.99265563
1.0107402 0.99416876 0.99614084 0.98591137 1.0052832 0.9989762 1.0040796 0.9888741
1.0019544 1.0008327 0.9920294 0.9998141 1.0058829 0.9983966 0.99368185 0.99497324
0.99227965 0.9977545 1.0032761 1.0041338 0.99021035 0.9961281 0.99268466 0.9932138
1.0079633 0.9973692 1.0020943 1.0108999 1.0041493 0.9956913 0.99861234 1.0046438
0.9948769 0.9926702 1.0024842 0.99400115 1.0017153 0.9937662 0.9873088 0.9927457
0.995067 0.9901324 0.996932 0.9929885 0.9861879 0.9957267 0.9974094 1.0077989
1.0042775 1.0063246 1.0008925 0.9852961 0.9889361 0.99441594 0.997942 1.0011395
1.0043948 1.0040537 0.9907124 0.99477565 1.0020666 0.9860362 0.99466175 0.99047935
0.9972417 1.0041964 0.9995894 0.99016565 1.0060476 0.9924914 0.9960848 0.99482054
0.99489623 1.0014672 0.9972056 1.0165561 1.0034199 1.0066797 1.003529 0.99126
1.004796 1.0016906 1.0057555 0.9882517 0.9984643 0.98194414 1.0044723 1.0058684
0.9931783 0.99386734 1.0107118 0.9980033 0.9926719 0.98952854 1.0067629 1.0058798
0.9950444 1.0069485 0.9946911 0.98415124 0.9945425 1.0045518 0.9916752 1.0006098
0.9922883 1.004948 1.0008488 0.993598 0.996172 1.0120783 0.9928502 0.99473804
1.0088524 0.98737043 0.99445397 1.0069546 1.0102087 0.99308544 1.0113723 0.99624044
0.9978749 1.0096648 0.9958953 0.99374026 1.0071646 0.9958058 1.0001643 0.9983683
1.003639 1.0059395 1.004944 0.9905837 1.003105 1.0062377 0.9979502 0.99419624
0.9861804 1.0116932 0.9934963 0.99470365 0.99449396 1.0088972 1.0035079 1.009388
0.99782044 0.9862141 1.0010648 1.0053347 1.008811 0.993721 0.9963373 1.0089117

5.bias f4 [256]
00000000: 0227 cbbb 610c b2b9 673d 233c fd82 b93a
00000010: fe99 233c 0f05 b8bb df60 b43b 15a6 d3bb
00000020: 6d24 91bb 007f 38ba 0029 04bc 6b99 e5bb
00000030: 941c 08bc 2ba6 c83b b2b9 a83b 3169 9d3a
00000040: 2547 39bb efb1 cf3b 5eee 79bb 0cba b5bb
00000050: 74ff b3bb 07db 82bb 11f2 bb3b 56aa 58bb
00000060: e34b c43a 02be 0dbc 94ec 05b9 ad78 8cbb
00000070: 1624 c4bb 8666 b23b 3d1c 3ebb ee34 fc3b
00000080: 11a6 2dbb 8442 d33b 4771 55bb 54d9 c2ba
00000090: 2d72 cfbb c176 d7bb b4a4 edbb 1894 923b
000000a0: 660f 0a3c 3b90 05bc ac5c d7bb b0b4 dcbb
000000b0: a4d0 803b ec10 bf3b f566 6b3a 3ed9 033c
000000c0: a045 b9bb 7d46 7e3b b12f c8bb 7dcb 0cbc
000000d0: 09d5 443b f842 d53b a317 85bb 8e84 02bb
000000e0: d3cf a9bb e313 d03b bac8 0fbc 2a57 f9bb
000000f0: 2ade 4ebb bbee 3d3a 9833 cabb 749b c8bb
00000100: fd53 9bb9 2b83 76bb 3ac9 fdbb b52b c2bb
00000110: ce22 a639 8953 d7ba a2b7 9ebb a834 e1ba
00000120: 740d 84bb 3489 92bb 2a7c 9d3b 482b eebb
00000130: d2ea a9ba 06e8 01bc 188e e43b 952e b1bb
00000140: a100 833b 6aab c7ba 737b 9abb c97f fa3b
00000150: ad2c 0ebc 7078 37bb 5299 4e3b 08c9 593b
00000160: 9ee4 043c f39e 5abb ee0a d1ba 3d23 7c3a
00000170: baf2 90ba c55a 59bb 930d af3b 68f1 d0bb
00000180: e4bd 83ba dafc 6539 a2a9 f33b 09a0 1d3b
00000190: ee70 273b 67ec eabb 5fcf dfbb 7d30 08bc
000001a0: 3606 153c 9f70 debb c76f aabb b639 58bb
000001b0: 5d53 a8bb ffb1 923a a14c 89bb 7307 af3a
000001c0: f8a2 8dbb 23dc 593b 07e6 07bb 6c94 6b3b
000001d0: 68a1 b2bb bc8f be3a 68b6 b2bb dd2c 47bb
000001e0: 22d4 043b de07 82bb 81f1 993b f3f5 b8bb
000001f0: 0024 f2ba b9f7 9aba 5ff2 58bb 1aff a8ba
00000200: 496f 193c a2e2 08bc 18c1 9c3b d188 323c
00000210: 17ca 453c c8da 96ba 8ae3 02bc fc38 b7bb
00000220: 4adc 44bb a34a 02bc d392 623b 1351 d5bb
00000230: 942e c9bb 25a9 d2bb ec7d a4b7 3620 413b
00000240: 79cc 413b 76f7 b03b 4da4 093b 5b33 c1bb
00000250: 798b 0e3b 441c bc37 86e1 343b 6a66 063c
00000260: d9d9 dabb c033 2a3c 2420 bc3b ffed 5e3b
00000270: c889 473b c33f aabb 7110 e2b9 6c37 703b
00000280: 135d b33b 8707 12bc 2d9e 6bba 563b 9ebb
00000290: 0f2c 473b 162a 9c38 1d4e 99bb f7a9 9eb9
000002a0: 27f9 333a 6950 b2bb 6c88 983b 80c6 4836
000002b0: 7cf6 de3b 0e36 03bc f497 173a 1c04 45bb
000002c0: e357 b7bb a0a4 f6bb 7b70 b33b 8102 363c
000002d0: 7822 ac3b a7b8 2abc 4c80 aa3b 7079 c23b
000002e0: b041 083c 8b50 133c 8c3e 033c 4fa2 513b
000002f0: dd0d e6ba ce48 be3b 0e3b adbb 913c b3bb
00000300: 4594 f7bb 8b2f 3fbb 164b 2a3c 6258 0e3c
00000310: c800 78bb a086 cb3b b2c3 033c 81df dd3b
00000320: d640 b03b 1dfd d1bb 3771 edbb a098 f3b9
00000330: 1481 cfbb 6640 d83b 605d 683b e03f 1cbb
00000340: 4d3d 00bc 8d1e a4bb f53b 04bc 2330 5b3b
00000350: 5a55 7cbb 4c11 46bc 7bcd 45bb 76f5 0fbc
00000360: cf3b 183c aa15 623a f127 b23b 0a2a f43b
00000370: 5786 08bc a4cb eabb 13f9 43bc 49c9 00bc
00000380: 8937 253c 3aea 29bc 4d0c 703b 6ef6 9abb
00000390: 192e ebbb 7aab 0b3b 6427 553b a11e 0b3c
000003a0: 4c97 12bc 0073 0fbc 7766 c83b d587 023c
000003b0: bab9 963b 8ac9 cbbb a0e4 ab3a db70 50bb
000003c0: 4d00 2cbb bed0 1c3c 13c1 c43a ae3f 8fbb
000003d0: 831c 8bbb e91d e6bb 2f75 08bc 499a dcbb
000003e0: ad61 d839 5f66 ef3b 0d61 81bb aa16 e23b
000003f0: 9257 ffbb 7ab5 b8bb a33e 823b da01 febb
-0.0061997185 -0.0003396003 0.00996337 0.0014153417 0.009985445 -0.0056158374 0.005504712 -0.0064590075
-0.004429391 -0.00070379674 -0.008066416 -0.0070068142 -0.008307595 0.0061233244 0.0051490897 0.0012009499
-0.0028271165 0.00633835 -0.0038136463 -0.00554586 -0.005493099 -0.0039933953 0.0057356437 -0.0033060513
0.0014976229 -0.008651258 -0.00012772 -0.0042868466 -0.005985747 0.0054443507 -0.002900853 0.0076967394
-0.0026496688 0.0064471383 -0.003256874 -0.0014865794 -0.0063307495 -0.006575436 -0.0072523 0.0044732206
0.008426523 -0.008152063 -0.0065723266 -0.006735407 0.003931122 0.0058308747 0.00089798804 0.0080474
-0.005654052 0.0038799339 -0.006109201 -0.008593437 0.0030034205 0.0065082274 -0.0040616556 -0.0019915435
-0.0051822453 0.006350027 -0.008775884 -0.0076092677 -0.0031565526 0.00072453514 -0.0061707012 -0.006122047
-0.0002962648 -0.0037614803 -0.0077449353 -0.0059256204 0.0003168792 -0.0016428094 -0.004843668 -0.001718183
-0.004029924 -0.0044719223 0.0048060613 -0.007268343 -0.0012963659 -0.007928854 0.0069749467 -0.0054071643
0.0039978777 -0.001523358 -0.0047144233 0.0076446277 -0.008677644 -0.002799537 0.0031524491 0.0033231396
0.008111147 -0.0033358901 -0.0015948692 0.0009618288 -0.0011058666 -0.0033165675 0.0053421943 -0.006376434
-0.0010051099 0.00021933336 0.0074359933 0.0024051687 0.002554949 -0.0071692946 -0.0068301405 -0.008312342
0.009095719 -0.006788328 -0.005201313 -0.0032993383 -0.005136891 0.0011191963 -0.004190043 0.001335366
-0.004322406 0.0033242784 -0.0020736472 0.003594662 -0.00545137 0.0014538686 -0.0054538734 -0.003039173
0.0020268043 -0.003968223 0.004697979 -0.005644554 -0.0018473864 -0.0011823095 -0.0033103449 -0.0012893409
0.009364911 -0.008354815 0.0047837608 0.010896877 0.012072108 -0.0011509294 -0.00798882 -0.00559151
-0.003003853 -0.007952365 0.0034572377 -0.006509909 -0.0061395857 -0.006428855 -1.960896e-05 0.0029468662
0.0029571338 0.0054005934 0.0021002472 -0.0058960146 0.0021750613 2.2424509e-05 0.0027600243 0.008203128
-0.0066788015 0.010388315 0.005741136 0.0034016368 0.0030447114 -0.0051955893 -0.0004311833 0.0036654128
0.005473742 -0.0089129275 -0.00089881086 -0.0048288507 0.0030391251 7.446499e-05 -0.0046785013 -0.00030262742
0.00068654347 -0.0054417145 0.0046549346 2.9917865e-06 0.0068042856 -0.008008493 0.00057828357 -0.0030062264
-0.0055951937 -0.007526949 0.005476055 0.011108995 0.0052531324 -0.010420001 0.0052032825 0.0059348866
0.008316442 0.008991371 0.008010518 0.0031987613 -0.0017551739 0.005807019 -0.005286581 -0.0054698666
-0.007555517 -0.0029172625 0.010393878 0.008688064 -0.0037842263 0.006211117 0.008042263 0.0067710285
0.005378823 -0.0064083473 -0.0072461623 -0.00046462286 -0.006332526 0.0065994738 0.0035456046 -0.0023841783
-0.007827115 -0.0050085247 -0.0080709355 0.003344544 -0.0038503022 -0.012089085 -0.003018229 -0.00878655
0.009291603 0.0008624444 0.0054368903 0.0074513005 -0.00833281 -0.007165389 -0.011961239 -0.00786049
0.010084041 -0.010370785 0.0036628426 -0.0047290837 -0.007177126 0.0021311925 0.00325247 0.008491189
-0.008947205 -0.0087554455 0.0061157304 0.007966955 0.004599777 -0.0062190937 0.00131144 -0.0031805548
-0.0026245296 0.009571252 0.0015011154 -0.004371605 -0.004245342 -0.0070226085 -0.00832872 -0.0067322594
0.00041271505 0.0073059048 -0.003948337 0.0068996744 -0.0077924216 -0.005636868 0.003974752 -0.0077516856
