MACHINE_LEARNING/checkpoints/o3_model_epoch7.pt (torch, 419225 bytes, 13 tensors)

0.weight f4 [256, 12]
00000000: 7169 183e 03ce 303e 1743 20bd 0fbd 19bd
00000010: b569 89bd a11b f73b 718f 2c3d 772a 003b
00000020: b450 413e c7e1 443e d717 853c 1baa e13d
00000030: 26ea 503e 5a60 653e 2abe 0abe 3099 f3bd
00000040: 0a25 933d 0863 84be 6e4f f13d 8143 93bc
00000050: e338 0ebe 7f34 97bd 8457 41be 59dd cabd
00000060: bd9b 703c d7f8 593e 40b6 1c3d b45f 293e
00000070: d586 7dbe e344 113d 3be7 083e d614 553e
00000080: 953f d9bd 7964 89be 9165 3fbe bb64 44be
00000090: e918 37be 56dd 07be a6e1 77be 6312 5d3e
000000a0: b10c d33d bb58 213e 722b 903e 223c 0abe
000000b0: 7fff b3bd 8a67 34bd d0ca 79be b536 5fbe
000000c0: f660 2d3d f9cb 1fbe 0b90 8e3e 227a 8fbe
000000d0: 0e81 373e ff3b fcbc 7268 6dbe 1365 e43d
000000e0: 2673 1b3e e1e7 1d3a 9bad 733e dc6d 67bc
000000f0: 970d abbb 826f 02be 032c a03d 6cec fbbd
00000100: ad5c 8b3d d0ed 643e f596 2ebe 1889 103e
00000110: 953f 7f3e b7bd 5f3c 478e 50be 4cdf 3dbe
00000120: 0e93 0c3d 78bb 08be f75f 2c3e 13d9 a8bd
00000130: 26e2 51be f901 5e3e 7e5f d5bd cc2b 13bd
00000140: 3ba4 d2ba ee32 e23c 22d7 88bd ebe1 793e
00000150: d110 4dbe 5cf5 f9bd 3afe 08be bd41 e43b
00000160: 984b 5abe 257e 81be f2c9 7abe 8630 84be
00000170: 024c 973d 00f9 8f3e 0ae7 973d a167 25be
00000180: 57e1 623e 1103 5a3e 9898 c2bd 6084 4b3e
00000190: 3151 1b3e 14e3 393e a462 873d 61c3 81be
000001a0: 70eb b4ba ecfa d93d deab 623e e82d 0e3e
000001b0: 4efa 34be 041a 72be 2f45 05bd a7bb 0c3c
000001c0: e2c5 883e a0de 93be 3c8f 823e 4dd2 87bd
000001d0: a263 78be d46b 81be 8fea 343d 4e0f ce3d
000001e0: aba6 883e 15af b6bc 95ce 503d 9bc0 3b3e
000001f0: a006 52be 80dc d43d 4f97 6d3d ebb4 c8bb
00000200: 7440 863d f83e 00be b69d 40be fd10 cfbd
00000210: ba5c 68be d818 8c3e 8adc 1fbe 901f 843e
00000220: b496 8f3e 6d6f 553e 7f3e 3abd 5907 643e
00000230: 89c9 55be 0f9a 813d 58ae 0ebd a88c 25bd
00000240: 4422 30be a74e 8e3e f57f 0bbe d62f f53d
00000250: 8e68 3abe 164a 473e cda5 3d3d 2bb3 4d3e
00000260: 6b5a d9bd 63f3 05be eaa5 803e 3ae2 7bbe
00000270: c7f6 c0bd 0e4a 23bc f9d0 91be d9a4 873e
00000280: 307e 07be 3f86 1b3d 5791 063e ecd5 47be
00000290: 2487 38be 22e4 7d3e 1f57 0fbe 9547 383d
000002a0: df9d 4cbd 3e2f 3dbe d7a7 32be 77a1 553e
000002b0: ed08 d03b deee 05be 2c15 96bc 1608 6fbe
000002c0: 8a91 89be 4f47 7abc 16cd 8ebd 97ec a13d
000002d0: 56ac 9c3d 5141 0f3e 5990 093e 273a 5fbd
000002e0: 95a4 953d 5133 ae3d 11a2 03be 9958 1b3c
000002f0: 60f4 bdbd c462 2e3e a313 883e dd92 763e
00000300: 8b46 303e 15ac cabb 9a26 78bc b136 c53d
00000310: a760 703e fa23 91bd 81bf 5d3e 51cc 16be
00000320: 4404 cfbc b96b 203e 8b84 733e f9f2 2d3d
00000330: a5ce 6abd fbca 8c3e 3cbb a3bd 8bbc 093e
00000340: a2c1 2a3e e8f6 033d 159e 893e 3453 e3bd
00000350: 1b09 81be e786 a7bd 748a 613e 1311 40bd
00000360: 37a6 b63d 2ede 343e fd2c e2bc b78a 673e
00000370: 33ea 153d 016c 84be 7fa1 13bd 1501 873e
00000380: 22a9 4cbe 69be 263e 4dc7 09be 69ec c83d
00000390: e4d4 69be 7f46 f13d 2e16 78bd 0f10 84bd
000003a0: 0a04 433d 806f 853e fd26 f7bd e1a3 563d
000003b0: f474 30ba 37d3 63be 7188 4bbd 0666 3fbe
000003c0: 0d76 e63b ae08 71be 6e14 693e cc2c 50bc
000003d0: 8277 28be b30a bcbc 0b8c 1fbe f511 dc3d
000003e0: cceb 82bd 60f4 4ebd 0a1b 8abe e287 81bd
000003f0: 044b 603e 4078 7cbe d998 93be 44f1 debd
0.14883973 0.17266087 -0.03912648 -0.037533816 -0.06709615 0.0075411354 0.042128984 0.001955656
0.18878442 0.19226752 0.01624672 0.11018773 0.2040182 0.22400036 -0.13549104 -0.118944526
0.07184799 -0.25856805 0.11782728 -0.017976524 -0.13888888 -0.0738306 -0.18881041 -0.099055
0.014685568 0.21286331 0.038259745 0.16540414 -0.24758466 0.035466086 0.13369457 0.2080873
-0.106078304 -0.26834467 -0.18691088 -0.1917905 -0.17880596 -0.13268027 -0.24207172 0.21589045
0.10305155 0.15756504 0.28158146 -0.13499501 -0.087889664 -0.044044055 -0.24393773 -0.21798213
0.042328797 -0.15605153 0.2784427 -0.28022867 0.17920324 -0.030790327 -0.23184374 0.11152091
0.15180644 0.00060236274 0.23796694 -0.014125314 -0.005220126 -0.1273785 0.078208946 -0.12300953
0.06804786 0.22356343 -0.17049773 0.14114797 0.24926598 0.013656071 -0.20366774 -0.18542212
0.03431993 -0.13352764 0.16833483 -0.082445286 -0.20496425 0.2168044 -0.10418604 -0.03593044
-0.0016070673 0.027612176 -0.06681658 0.24402587 -0.20025946 -0.12205002 -0.1337823 0.0069658444
-0.21317899 -0.25291553 -0.24491099 -0.2581827 0.07387544 0.2811966 0.07417114 -0.16152813
0.22156273 0.21290232 -0.09501761 0.19874716 0.15167691 0.1815303 0.06610611 -0.25344375
-0.0013803076 0.10643563 0.22135875 0.138847 -0.17673609 -0.23642737 -0.03253668 0.008589662
0.26713473 -0.28880787 0.25499904 -0.066319086 -0.24256757 -0.2527758 0.044169005 0.10061513
0.26689658 -0.022300282 0.050978262 0.18335192 -0.2051034 0.103936195 0.058005627 -0.0061250827
0.06555262 -0.1252402 -0.18810162 -0.10110662 -0.22691622 0.27362704 -0.15611473 0.2580533
0.28044665 0.20843287 -0.045469757 0.22268428 -0.20877661 0.063282125 -0.034834236 -0.040417343
-0.17200571 0.27794382 -0.1362303 0.119720146 -0.18203947 0.19461855 0.046300698 0.20087878
-0.10612949 -0.13081126 0.25126582 -0.24598017 -0.09422069 -0.0099663865 -0.28479746 0.26492956
-0.1323173 0.037969824 0.1314138 -0.19515198 -0.18020302 0.24794057 -0.13998078 0.04499014
-0.049955245 -0.18475053 -0.17446838 0.20862375 0.0063487203 -0.13079402 -0.018320642 -0.23342928
-0.2686885 -0.01527579 -0.06972711 0.07906454 0.07650058 0.1398976 0.1343397 -0.054498818
0.07306782 0.085058816 -0.12854792 0.009481573 -0.092751265 0.17029864 0.26577482 0.24079461
0.1721441 -0.0061850646 -0.015145922 0.09629572 0.2347437 -0.0708694 0.21655084 -0.14726378
-0.025270589 0.15666093 0.2378103 0.042468045 -0.057325978 0.27498612 -0.079946965 0.1345083
0.16675428 0.03221789 0.2687842 -0.11099854 -0.2520226 -0.081800275 0.22025472 -0.046891283
0.08918422 0.1766288 -0.027609343 0.2261151 0.036600303 -0.2586365 -0.036042687 0.26368013
-0.19986394 0.16283573 -0.13454933 0.09810717 -0.22835118 0.11781024 -0.060568027 -0.064483754
0.047611274 0.2606163 -0.12067983 0.05240238 -0.00067312946 -0.22248541 -0.049690668 -0.18691263
0.0070331157 -0.23538467 0.227617 -0.012705993 -0.16451839 -0.02295432 -0.15580766 0.107456125
-0.06392631 -0.050526023 -0.26973754 -0.06324746 0.21903616 -0.24655247 -0.2882755 -0.108858615

0.bias f4 [256]
00000000: 24a5 c5bd fda2 823e 78be bfbd 884a ddbc
00000010: 291f 83bd 6a6c 58be 8799 723e 9ad1 823e
00000020: ea82 67be 6807 96bd 19ed 003e 107c 943d
00000030: ad41 1ebe 1d88 29be 11e8 01be cba3 263d
00000040: 6709 92be bd51 fe3c 5599 20be 7458 93be
00000050: a965 563e bbc3 45bd 23a0 ab3d b869 59be
00000060: 6101 35be 818a 8abe 046a e63d 39b4 d43d
00000070: 6be2 893d 1c43 87be e14a 713e 965e 8abd
00000080: a1e6 363d 6d8e bbbd aff6 e43c f81a b43d
00000090: 9d5d 8abe 8270 683e 392f 9bbd ef2f 323d
000000a0: ecca 423d e80f 90bb 3146 333e 5796 853e
000000b0: 0844 483e 84e3 163e 1499 883e 080d 9abc
000000c0: 2c5b 203b d9d4 5c3e f83d 7e3e 614e ca3c
000000d0: 3e72 923d 3512 8ebe 08d0 3fbe d292 1a3e
000000e0: 3590 403e cc44 e2bd 143b 17be 5c27 4b3e
000000f0: 9d04 8fbe 8bc5 613e de04 8d3e e55c 43be
00000100: b171 153e 82ce aabd 9f70 4c3e 8f8b 43be
00000110: eaa4 4f3e 7c6f 21be 3c25 fabd 1f81 2abe
00000120: 6ea3 123e b5fa 753d 5c83 52bc b2c2 79be
00000130: 988a 8cbe 87eb 053e d73d 7ebe 1104 1abd
00000140: 999c 803d 434b 133d 0f07 7d3e 7b99 163e
00000150: da31 98bc d3af 883d b145 edbd cd4b ec3d
00000160: 4f87 4dbe 6e40 f2bd d372 7f3e ad66 903d
00000170: 6a35 593d d75a 3c3e 1503 6ebe 06fb b93c
00000180: ce61 8cbe 3fc0 4abe f049 203e 3d4d dbbd
00000190: 0cf5 48be 8439 90bd d904 443e b42a 6d3e
000001a0: af27 76bd 5ad4 00be 7213 6b3e afc9 4a3e
000001b0: d546 fabd e2ba 2d3e 45e0 72be e0f5 9a3d
000001c0: eaa6 80be 59d2 6fbe b20b 35be 1637 87be
000001d0: 0b7a d03c 3ba5 8c3d 0c02 043e 4d00 653e
000001e0: 0e6b 91be 47ed dfbd 75bc 96bd 383f 2f3c
000001f0: 1ee8 73be fb5b acbd ac8e 3a3c 6293 4b3c
00000200: 6e3b 78be f8a9 edbd ad8e 77be 8ba9 0a3e
00000210: 9b4b 803e 2efa 6c3e d728 c8bc eeee 443e
00000220: eb31 1cbe d6c0 9d3d 74f7 823e 4beb 063e
00000230: 04a7 17be 05d1 3cbe b88c 70be 2068 bdbc
00000240: b5c8 7f3c df3e d3bb 9374 9d3d 69b0 88be
00000250: b44e 4e3e ed2c 6f3e 4dc6 133e e234 48bc
00000260: ad86 8b3e a43a 55bd 4297 90bd 3c4e 943c
00000270: 0850 8c3b c195 ac3d 626f 663d 0210 a2bd
00000280: cfb5 643d af3b 1fbe 6121 7abe e2bf 64be
00000290: 078d a7bd 3d6f f3bd b749 693d e7ba f23d
000002a0: 6cef 6f3e 861c 893e 6be0 88be de34 52be
000002b0: 14f5 7d3e ef0f fabd e79e 1bbe f0eb 6fbd
000002c0: 53c4 613e a4e8 49be 2048 213e b6a7 8bbe
000002d0: 2cdc 573e 0b76 48be 2211 77be 8edd 3b3e
000002e0: 3da8 6e3e 7e70 54be 0255 1c3e c2c3 423e
000002f0: 79f3 88be 759a 16be b8af abbd e781 a43d
00000300: d7c3 473e 9402 f13c d331 f03c 8ddd fc3c
00000310: b6d2 7a3e f4fc 253e bf3d d03d a2c9 29be
00000320: 2152 82bd 563f 88be 382a 113e f8b9 473e
00000330: 3fb5 ebbd 911e 70be 10e6 8ebe 9564 343d
00000340: d4b7 0abe 330a 7abc b1ef 303c cbef 53be
00000350: ea82 233e 9ae6 903e 7c08 39be 2410 863d
00000360: 1184 283e 7e91 39be 0526 9d3d d580 86be
00000370: 5daf 7abd 1050 8b3e 12c5 4ebc 6958 89be
00000380: 451d 9c3c 743c a4bd 512a 4e3e 7626 d93d
00000390: 1a34 5d3e dde7 ce3c 1c81 39be ed60 683e
000003a0: 6657 083d 67c1 8dbe f8d5 603e 6ceb 8dbe
000003b0: b05f 9e3d 3a55 6bbd 6c29 62be 8200 6f3d
000003c0: 5718 c1bc 154b 58be 8b9b 0cbe 9095 513d
000003d0: 73c7 82be 23d8 573e 2cc1 1bbd 12ff 3a3e
000003e0: ee99 f63d 950e 63be f05d 873e 6dc7 91be
000003f0: 56de d13d eefc 3d3e e8ac a9bd dd91 3dbe
-0.09650639 0.25514975 -0.09362501 -0.027013078 -0.06402428 -0.21135107 0.23691379 0.25550538
-0.22608534 -0.073256314 0.12590446 0.072502255 -0.15454741 -0.1655583 -0.12686183 0.04068355
-0.28522798 0.031044835 -0.15683492 -0.28778422 0.20937218 -0.048282366 0.08380153 -0.21231735
-0.17676307 -0.27058795 0.112506896 0.10385937 0.06732639 -0.26418388 0.2356372 -0.06756322
0.04465354 -0.09158025 0.02794966 0.087942064 -0.27024546 0.22699168 -0.075773664 0.043502744
0.047556803 -0.0043964274 0.17507245 0.26091263 0.19557202 0.14735228 0.2667929 -0.018805042
0.0024468405 0.2156557 0.24828327 0.024695577 0.07150696 -0.27748266 -0.18731701 0.1509507
0.1880501 -0.11048278 -0.1476863 0.19839233 -0.27933207 0.22048013 0.27542776 -0.19078405
0.14594151 -0.083401695 0.19964837 -0.19096206 0.20277753 -0.15765184 -0.12214133 -0.16650818
0.14320156 0.060053546 -0.012848701 -0.24390677 -0.2744949 0.13078128 -0.24828278 -0.037601534
0.06279869 0.035960447 0.24709724 0.14706986 -0.018578459 0.06674161 -0.11585558 0.11537895
-0.20071147 -0.11828695 0.24946146 0.07050834 0.053029455 0.18394028 -0.23243363 0.022702705
-0.2741837 -0.19799899 0.15653205 -0.107080914 -0.19624728 -0.0704222 0.19142474 0.23160821
-0.06009644 -0.12581006 0.22956637 0.19803499 -0.122205414 0.16965821 -0.23718365 0.07566428
-0.25127345 -0.23420085 -0.17680243 -0.26409215 0.02544882 0.06867453 0.12891406 0.22363396
-0.2840199 -0.10933929 -0.07360164 0.010696225 -0.23819014 -0.084159814 0.011386555 0.0124252755
-0.2424142 -0.116046846 -0.2417552 0.13541238 0.25057682 0.23142311 -0.024433536 0.1923177
-0.15253417 0.07702796 0.25579417 0.13175695 -0.14809805 -0.1843911 -0.2349118 -0.02312094
0.015611817 -0.006446704 0.076882504 -0.2669709 0.2014721 0.23356982 0.14431114 -0.0122196395
0.27251187 -0.052057877 -0.070601 0.018103711 0.0042820014 0.08427001 0.056258567 -0.079132095
0.05583745 -0.15550111 -0.24426796 -0.22338822 -0.08181196 -0.118864514 0.056955066 0.11852055
0.23431176 0.26779574 -0.26733717 -0.2052798 0.24800521 -0.1221007 -0.15197335 -0.058574617
0.22047548 -0.19717652 0.1575017 -0.2727639 0.21080083 -0.1957628 -0.2412763 0.18346235
0.23306365 -0.20746037 0.15266803 0.19019988 -0.26748255 -0.14707358 -0.08383125 0.080325894
0.195083 0.029420175 0.029320633 0.030867362 0.24494442 0.16209775 0.10168027 -0.16580823
-0.06363321 -0.2661082 0.14176261 0.19504535 -0.11509179 -0.2344916 -0.279099 0.044041235
-0.13546687 -0.015261221 0.010799334 -0.20696943 0.15967909 0.28300935 -0.18069643 0.06546047
0.1645663 -0.18121907 0.07673267 -0.26270166 -0.061202396 0.2720952 -0.012620227 -0.26825264
0.019056926 -0.08019343 0.2013333 0.10603039 0.21601906 0.025257045 -0.18115658 0.22693224
0.033286475 -0.27686617 0.21956623 -0.27718675 0.07733095 -0.057454325 -0.22086114 0.058350094
-0.023571176 -0.21122392 -0.1373121 0.051168025 -0.25542793 0.21078543 -0.03802602 0.18261364
0.120410785 -0.22173531 0.26438856 -0.28472462 0.10247485 0.18553516 -0.082849324 -0.18512674

1.weight f4 [256]
00000000: 7fe5 803f b01d 803f 8625 813f 4a37 7d3f
00000010: 4fc2 803f 7af4 803f 4873 7e3f 2c5d 803f
00000020: 6e38 813f 5b81 803f 28b4 7d3f f0cc 7e3f
00000030: 4d51 803f ace6 803f 76d2 803f 080a 813f
00000040: a0fc 7f3f 59ac 803f 2afe 7e3f 6f1d 813f
00000050: 7ebf 803f 932d 7e3f 51cf 803f 5bd6 7c3f
00000060: cdb3 803f 460b 803f 4a4a 7f3f 8977 7f3f
00000070: 85b4 803f 7670 7e3f 48b1 7f3f a5f8 803f
00000080: eb29 7f3f 497a 7e3f be60 803f a330 813f
00000090: 8ca8 7e3f 23ec 7c3f 91b4 803f 77fc 803f
000000a0: 3475 803f 850f 7f3f 7f67 803f 6aea 803f
000000b0: 9ef7 803f 3380 803f 918e 803f da64 803f
000000c0: b8e4 7e3f 80a3 7e3f 953c 803f bd6c 7e3f
000000d0: 5831 7f3f 950a 7f3f 754e 7e3f 7bcd 7f3f
000000e0: 4421 7e3f 8104 7e3f 6f04 813f 289e 7e3f
000000f0: 9733 7e3f 7336 7e3f dc86 7e3f 2c73 803f
00000100: 2d7b 803f 598c 813f bb83 813f f394 7e3f
00000110: 1fa9 803f c373 7f3f 8779 803f 7e16 7e3f
00000120: 9ed4 7b3f e921 7e3f 6462 813f 141c 813f
00000130: dc21 803f d230 813f ed78 7f3f bf11 803f
00000140: eac9 7f3f 5f2f 7e3f 8f36 7e3f 8774 7f3f
00000150: 9376 7f3f 459c 803f 8f2a 7e3f bd29 7e3f
00000160: 8c0d 813f bad1 7e3f 3d17 803f 7d6c 803f
00000170: 718d 813f 6ce9 7f3f cbce 7f3f 8f94 7f3f
00000180: ca7e 7f3f 7f2b 813f eee3 803f df4b 7c3f
00000190: ad5f 7e3f defd 803f a8e8 7d3f 1338 7f3f
000001a0: 6156 803f 4993 7c3f cc07 813f deb3 7e3f
000001b0: fb91 803f f72b 7e3f adf4 7d3f 6309 813f
000001c0: 1e9c 803f 671c 813f 7cf2 7c3f bba4 7d3f
000001d0: dc69 803f 8eae 803f 520f 7e3f 34bd 803f
000001e0: e3b6 7d3f 5e60 813f b34c 803f b3b4 803f
000001f0: 42c2 7e3f 5cd3 803f 8cd3 803f dd80 7d3f
00000200: edc1 7e3f baf9 803f 0a52 813f 01ba 7e3f
00000210: 592b 813f 5a64 7e3f 78a3 803f a4c7 803f
00000220: 26b9 7d3f ba40 803f 70de 803f 4aea 7d3f
00000230: 7d38 7f3f 4381 7f3f e2b4 803f 1980 7e3f
00000240: 1543 7e3f 4280 7e3f 0423 813f 42d8 7f3f
00000250: c5d0 7d3f 6f83 7f3f 6d18 813f 93c1 803f
00000260: 6d40 7e3f 4da2 803f c72e 7c3f 782e 803f
00000270: d5c9 803f c81a 813f 3788 7d3f f5eb 803f
00000280: b683 7d3f a9d4 7f3f a2ef 7f3f 706a 7e3f
00000290: f4e7 803f e2ef 803f 9b0f 813f 5b44 803f
000002a0: 0dc3 803f 35b5 7f3f fedc 7e3f 30a7 803f
000002b0: 4b25 7f3f 99e8 7f3f 8f9d 803f 3953 803f
000002c0: 8e23 7f3f 73d5 803f bcda 803f 32c1 803f
000002d0: 1b6f 813f 311b 7e3f 9ec8 7f3f afd7 7e3f
000002e0: 3f78 803f 15ce 7f3f 1520 803f 1760 803f
000002f0: c91a 7f3f 42a7 803f ae19 803f 55a3 803f
00000300: 636d 7f3f 1459 7f3f 3639 803f 98ad 803f
00000310: d465 813f 6095 813f 3ec5 803f 3a95 7d3f
00000320: 2d01 7e3f 84ee 7f3f 141f 803f 7f62 7e3f
00000330: 5e4f 813f 636e 803f a3be 803f c82e 7e3f
00000340: ae4b 7e3f 2774 7d3f 7223 803f 433a 7e3f
00000350: b6ab 7d3f 84ca 7f3f a6e5 7d3f ad6a 7f3f
00000360: 172f 813f b0c1 803f a203 803f 575a 7d3f
00000370: 9bb7 803f 383b 7e3f b4ec 803f 0e05 813f
00000380: d655 7e3f 4852 803f c8ec 7d3f ec1d 813f
00000390: 7a16 7e3f 734a 7e3f f5de 7e3f bcc7 803f
000003a0: b94a 803f fbc1 7e3f 8c93 7e3f f922 7f3f
000003b0: 1c86 7e3f 0758 7f3f 6d62 7f3f 85f1 7f3f
000003c0: b4c7 803f 35cf 803f 901d 7c3f 99e0 7f3f
000003d0: 07b6 7e3f 7c07 813f afdc 803f df75 803f
000003e0: 80a0 7e3f 2cc2 7e3f f062 7e3f 3778 7e3f
000003f0: 944d 803f 6e22 7f3f 416d 7f3f 223a 7e3f
1.0070037 1.000906 1.0089576 0.9891249 1.0059298 1.0074608 0.99394655 1.0028434
1.0095346 1.0039476 0.9910302 0.9953146 1.0024811 1.0070395 1.0064228 1.0081186
0.9999485 1.0052596 0.99606574 1.0087107 1.0058439 0.9928829 1.0063268 0.9876458
1.0054871 1.000344 0.9972273 0.9979177 1.005509 0.9939035 0.99879885 1.007588
0.99673337 0.9940534 1.0029523 1.0092968 0.9947593 0.98797816 1.0055104 1.0077046
1.0035768 0.99633056 1.0031585 1.0071537 1.0075567 1.0039123 1.0043508 1.0030777
0.9956775 0.9946823 1.0018488 0.9938467 0.9968467 0.9962552 0.99338466 0.99922913
0.9926951 0.9922562 1.0079478 0.9946008 0.9929747 0.9930183 0.9942453 1.0035148
1.003759 1.0120956 1.0118326 0.9944603 1.0051612 0.99786013 1.0037087 0.9925307
0.98371303 0.9927049 1.0108151 1.0086694 1.0010333 1.0093024 0.99793893 1.0005416
0.9991747 0.9929103 0.99302 0.9978718 0.99790305 1.004769 0.9928369 0.9928244
1.0082259 0.9953877 1.0007092 1.0033108 1.012129 0.9996555 0.99924916 0.9983606
0.9980284 1.0091399 1.0069559 0.9855327 0.9936474 1.0077474 0.9918313 0.9969494
1.0026361 0.9866224 1.0080504 0.99493206 1.004455 0.99285835 0.9920147 1.008099
1.0047643 1.0086793 0.988075 0.99079484 1.0032306 1.005327 0.99242127 1.005774
0.9910719 1.0107534 1.0023407 1.0055145 0.99515164 1.0064502 1.0064559 0.99024755
0.9951466 1.007621 1.0103161 0.9950257 1.0091354 0.99371874 1.0049887 1.0060925
0.9911064 1.0019753 1.0067883 0.9918562 0.9969557 0.9980661 1.0055201 0.9941421
0.9932111 0.99414456 1.0088811 0.9993936 0.9914668 0.99809927 1.0085579 1.0059074
0.99317056 1.004953 0.98508877 1.0014181 1.0061594 1.0086298 0.9903597 1.0072008
0.990291 0.9993387 0.99975026 0.9938116 1.0070786 1.0073206 1.0082887 1.002086
1.0059525 0.99885875 0.9955596 1.0051022 0.9966628 0.9996429 1.0048083 1.0025398
0.9966363 1.006514 1.0066752 1.0058959 1.0112032 0.9926024 0.9991549 0.9954786
1.0036696 0.9992383 1.0009791 1.0029324 0.99650246 1.0051043 1.0007837 1.0049845
0.99776286 0.997453 1.0017459 1.0052977 1.01092 1.0123711 1.0060194 0.99055827
0.99220544 0.9997332 1.0009484 0.99369043 1.0102346 1.0033687 1.0058178 0.9929013
0.9933423 0.9900536 1.0010817 0.9930765 0.99090135 0.9991839 0.9917854 0.9977215
1.0092496 1.0059109 1.0001109 0.9896597 1.0056032 0.9930911 1.0072236 1.0079668
0.99349725 1.002511 0.99189425 1.0087256 0.99253047 0.9933235 0.99558955 1.0060954
1.0022804 0.9951474 0.9944389 0.9966274 0.99423385 0.99743694 0.9975956 0.99977905
1.0060945 1.0063235 0.9848261 0.99952084 0.994965 1.0080409 1.0067347 1.0035971
0.99463654 0.9951503 0.99369717 0.99402183 1.0023675 0.9966191 0.99776083 0.99307454

1.bias f4 [256]
00000000: cf2d ea3b a7a8 133b e3e5 113c 26b2 2f3c
00000010: 3856 ca3b 2ce2 153c cbc6 b3bb bf72 3dbb
00000020: d6c4 1a3c 93fe 7cbb 2444 16bc 873e 973b
00000030: df83 24bb c88d f1bb 6e1b d2bb 2041 093c
00000040: e144 2539 68c7 afbb 780d 7abb 2d69 10bc
00000050: bf84 943b 823c d2bb c933 dabb a9c7 eabb
00000060: e024 a6bb f4d6 92ba f8e9 143b 30bf 0bbb
00000070: 492a b6bb 960a c7bb 3eed 94ba f24d 01bc
00000080: f0f1 5f3b a9d6 c53b a071 6c3b 544e 073c
00000090: 86ae a73b 9693 4b3c 038c b53b dff7 fbbb
000000a0: 3bee 813b e7fb d5bb f1b7 aa3b e633 623b
000000b0: c9d8 fe3b 7bcc f83b ccf2 8e3b 633f 6dbb
000000c0: 6bc4 9b3b 3388 8ebb 198a faba 9e75 ee3b
000000d0: 60ca 38bb bc59 72bb 32bc d6bb 1e4f 65ba
000000e0: 1941 ecbb 7c64 a0bb 98a3 e33b b3c5 a73b
000000f0: b6ab e43b e4db e0bb c9ff b0bb 68bc 62bb
00000100: 3ef0 4f3b b80a 41bc c5e4 41bc 8c75 993b
00000110: ddc8 a93b a9f9 903b de3a e4bb f756 f13b
00000120: 096c 82bc 2dea edbb 084b 203c 6627 09bc
00000130: 6010 90ba e842 17bc 89a5 1e3b 5ede b63b
00000140: 277e 7aba 2c94 cbbb 6be1 cdbb 42c3 3f3b
00000150: 9a4f c8b9 370d ac3b 7bcf d8bb 8a7a e63b
00000160: eddf 063c b397 95bb 35cb 553b c288 203c
00000170: ea36 41bc 3c5a 3fb9 f446 fa39 4167 353b
00000180: 312b 07bb 0b09 15bc caaa e6bb 1bd9 673c
00000190: a7b5 ca3b 4a4b fdbb ac48 06bc 5851 443b
000001a0: 1884 d439 3d40 0b3c 3490 03bc ecae 9ebb
000001b0: 1a41 a8bb 8d92 e7bb 636b 033c 1bc6 073c
000001c0: 5c53 22bc dc6e 123c b33e 023c 6ff0 cebb
000001d0: 3907 5ebb 95b8 8f3b c2b5 42bb 369c b93b
000001e0: d7f7 07bc 4723 3ebc 14af 1bbb d026 b4bb
000001f0: 949e 8b3b eecd 083c 2d68 01bc 5def 71bb
00000200: 66e5 99bb 42bd cf3b ad8b 22bc 52b0 20bb
00000210: 66cc 1b3c cc2d c53b 245a a53b 319f 263c
00000220: 764c 12bc 2778 183b 907b d8bb 0c4d 01bc
00000230: 55fb 3fbb 5dc8 d8ba ffef d13b 358b d0bb
00000240: 7ba0 ddbb f0e2 02bc 7f9e 0dbc 2aa0 493b
00000250: 6cd6 0bbc e45b dd3a 5aee 0e3c bfca c0bb
00000260: 1f64 debb b3e6 ebbb 8bbd ae3b 72e3 c9ba
00000270: 9261 db3b 332f 10bc f9a5 49bb f3c1 ecbb
00000280: 0702 0dbc 6edb 853a 570a 8a39 8441 c93b
00000290: 53bf e73b f1cd 0e3c b060 fc3b 34b9 ae3b
000002a0: 5f44 e83b c948 8e3a 5611 91bb 2723 9d3b
000002b0: c23d 42bb eaf3 043a f9a8 a0bb e483 703b
000002c0: e2ff 2e3b 4bb8 d4bb f0f2 f6bb c94f f2bb
000002d0: 81ae 323c e66a e0bb bfc2 663a 0488 4ebb
000002e0: 9856 b8bb 87fe 243a be2a c23a ab58 38bb
000002f0: 352d 5f3b ae82 aabb 44e6 843b 5770 99bb
00000300: eea5 123b 7a04 c73a 9a7f 113b 0425 a0bb
00000310: 0703 343c 292f 49bc 251c febb e742 1b3c
00000320: 72dc 98bb aad6 9039 950d 833a ac8d 82bb
00000330: bf52 283c ff57 813b 6232 1b3b eab2 bf3b
00000340: 94ae db3b 4069 21bc 0210 16bb 89a7 c5bb
00000350: b588 003c cabb 6b39 8edd 08bc 107e c3b8
00000360: 36d6 15bc d62a c73b 5b81 4c39 59dc cd3b
00000370: 872e ee3b 1e61 e5bb 60e7 ee3b 9e2a 053c
00000380: 72e7 af3b ae78 18bb f2b4 cb3b 5698 093c
00000390: ae71 f23b 934d d4bb 468b 903b b889 923b
000003a0: 5cc7 c8bb ead2 bdbb 9ddb a5bb 848e a43b
000003b0: 7979 bd3b d5eb af3b 3c50 473b dcd1 d938
000003c0: dcc2 113c 1a0a ce3b d0ea 093c afa2 4cba
000003d0: 64b4 933b 4106 033c 06b4 01bc cb72 733b
000003e0: 46f9 a73b f472 9c3b c69e 973b 1924 b7bb
000003f0: fe56 233b 3356 54bb 8113 9fba 52d8 e33b
0.007146574 0.0022530945 0.008904907 0.010723626 0.006174829 0.009148162 -0.0054863445 -0.0028907505
0.009446343 -0.0038603886 -0.009171519 0.004615608 -0.0025103015 -0.007371638 -0.0064119613 0.008377343
0.00015761286 -0.0053643472 -0.0038155 -0.008814138 0.004532426 -0.0064159045 -0.0066590053 -0.0071649146
-0.005070314 -0.0011202977 0.0022722464 -0.0021323673 -0.00555924 -0.00607426 -0.0011362208 -0.007892119
0.0034171306 0.0060375524 0.0036078468 0.008258421 0.0051172404 0.012425324 0.0055403723 -0.0076894606
0.003965167 -0.0065302732 0.005209916 0.0034515797 0.0077773076 0.0075927353 0.0043624397 -0.0036201112
0.0047536395 -0.0043497323 -0.0019114643 0.0072772047 -0.0028196797 -0.0036979755 -0.0065531963 -0.0008747446
-0.0072099087 -0.004894791 0.006946992 0.005120003 0.0069784774 -0.0068621505 -0.0054015857 -0.0034597162
0.003172889 -0.011782341 -0.011834328 0.004683202 0.0051814155 0.004424293 -0.0069650253 0.0073651033
-0.015920656 -0.007260582 0.009783514 -0.00837121 -0.0010991208 -0.00923226 0.0024207553 0.0055807075
-0.00095555413 -0.006212732 -0.0062829754 0.002926067 -0.0003820628 0.005250599 -0.0066165305 0.0070336508
0.008232099 -0.004565203 0.0032622342 0.009798231 -0.011792878 -0.00018248794 0.0004773658 0.0027679952
-0.002062511 -0.009096394 -0.0070394026 0.014150883 0.0061862054 -0.0077299224 -0.008196037 0.0029955711
0.00040534209 0.008499202 -0.008029986 -0.0048426297 -0.005134714 -0.0070670308 0.008021208 0.008286978
-0.00990757 0.008937564 0.007949519 -0.006315283 -0.0033878817 0.0043860176 -0.0029710387 0.0056643737
-0.008298836 -0.01160509 -0.0023755478 -0.005497791 0.0042608473 0.008349879 -0.007898373 -0.0036916353
-0.004696536 0.0063397 -0.009920997 -0.0024519158 0.009509182 0.0060174223 0.005046146 0.01016979
-0.0089293625 0.0023264976 -0.0066065267 -0.007891905 -0.0029294093 -0.0016539205 0.0064067836 -0.006364251
-0.0067635155 -0.007988676 -0.008643745 0.0030765631 -0.008535009 0.0016888347 0.00872382 -0.005883544
-0.0067868377 -0.0071991323 0.005332654 -0.0015402867 0.006694981 -0.008800316 -0.0030769093 -0.007225269
-0.00860644 0.001021249 0.00026329115 0.0061418433 0.007072368 0.008716092 0.0077019557 0.0053321365
0.0070882286 0.0010855432 -0.0044271154 0.0047954503 -0.0029638861 0.00050717464 -0.0049029556 0.0036699707
0.002670281 -0.006491696 -0.0075362846 -0.007394765 0.010905863 -0.006848681 0.0008802823 -0.0031514177
-0.005625557 0.0006294031 0.0014813764 -0.0028129022 0.0034054045 -0.0052035665 0.00405577 -0.0046825814
0.0022376734 0.0015183829 0.00222013 -0.004887225 0.01098705 -0.01227931 -0.00775482 0.0094764
-0.004664951 0.00027625758 0.0009998555 -0.0039841738 0.010273634 0.0039472575 0.0023681154 0.0058501856
0.006704161 -0.009851754 -0.0022897725 -0.0060319346 0.0078450935 0.00022481303 -0.008353604 -9.3218056e-05
-0.00914531 0.0060781045 0.00019503145 0.006282371 0.00726873 -0.0070001027 0.0072907656 0.0081278365
0.0053681666 -0.002326529 0.0062166387 0.008398136 0.0073988056 -0.006478974 0.004411134 0.0044719838
-0.006127281 -0.005792965 -0.0050615803 0.005021872 0.005782303 0.0053686895 0.0030412814 0.00010386456
0.008896556 0.0062878253 0.0084178 -0.0007806224 0.004507588 0.0079970965 -0.007916456 0.003714728
0.0051261513 0.0047744457 0.0046270816 -0.00558902 0.0024923678 -0.0032400012 -0.001213655 0.0069532776

4.weight f4 [256, 256]
00000000: 94b2 81bd 0d3d 5fbd 1515 f13c 8101 853d
00000010: 81f0 4abd 5c6c 203d c173 3a3c 97fd 3a3d
00000020: 7f49 783c 5dc9 813d 3390 273d ceee 243c
00000030: 9319 23bd ecf4 7c3d ac6b 4abd 26d5 94bc
00000040: f39a 433c dbea 25bd a4bd 75bc 230f d33c
00000050: 7099 093d a687 3ebd 1d6d 813d a15a 4d3d
00000060: 552c 88bc b1f2 c2bc 974a 01bd b7a2 0d3d
00000070: a0b0 fa3c e4a4 30bc bf72 ab3c a2ba 38bc
00000080: 0344 423d 2285 b4bc e000 1f3d b9ee 16bb
00000090: 7fc3 493d 4e5b 613d 2bb7 87bd ad08 a23c
000000a0: 6211 7abd eb0c 803d f010 d7bc 0562 1c3d
000000b0: 3c54 4cbd 05bc 21bd d426 4ebd c9df 623d
000000c0: 106b bebc 611e 98bc 949d ee3c 9005 843d
000000d0: 083a 4d3a 055d 553c 4234 c1bc 1d64 6fbc
000000e0: 400f eebc 60a5 00bd 9684 f73c f038 8cbc
000000f0: 0a6d 17bd e755 11bd 47fd db3c 23d9 1e3b
00000100: 998b a53c a714 813d 0850 d5bc 281b 43bc
00000110: 18f9 14bd fd16 bb3b a409 b53c d591 623d
00000120: 5cd1 46bc 7cd4 343b f933 b43c d2a0 d13c
00000130: 217f 5d3d 4a7e 513d 1edc b6bc 0c74 5fbd
00000140: 9162 f13c 6ce2 403c 8154 68bd 24c0 83bc
00000150: 15d8 b4ba ba4c f4bc 4d97 ad3c 6a54 9c3c
00000160: fa12 ed3c af35 463d 48e8 66bd 9bae 0c3d
00000170: 1e66 843d c4bc 9bbc 8032 6c3d b679 80bb
00000180: f8a7 8bbb 68c2 03bb 6dff 113d 2fb2 2fba
00000190: 4b26 ddbb e56f d8bc 1d4a 60bd 6ce7 34bc
000001a0: c37e 133d 5260 2cbb 2ea4 453b bf51 6f3c
000001b0: d3d3 acbc 2ca7 ecbc 7e2b 4c3c 5199 133d
000001c0: cbe4 87bb 2331 05bd 570a 65bc 6b77 71bd
000001d0: 85ab ed39 be15 dfbc c0bc 6d3c bfeb 023d
000001e0: 3736 393d a5ad 1dbc af8e 5bbc 841e 56bd
000001f0: 717b 58bc 7ec1 ec3b ad9e e03c 2887 c43c
00000200: d6f8 dfbc 5c8f b93c c473 783c 7f42 233d
00000210: 9c49 51bc 4438 4dbc 0eaf 313d df5f 1abd
00000220: 9a0b ecbc 093e 2cbd 4525 a2bc e9e4 33bd
00000230: af71 50bd 51c9 20bd 129c 263d 30ba 7bbd
00000240: 7a5d 8bbd b40a 5abc d5aa 4d3d 580f 91bc
00000250: 0fb5 0d3d 2f97 00bd 6f44 403d 96e2 783c
00000260: 56ba bcbc ded7 f93c 4f8c 7c3d b3dd 7ebc
00000270: 83bd 7fbd 9349 ebbc 4143 0a3d acb2 093c
00000280: 6dd4 5bbb c93f 0b3d 5000 833d 9374 bfbc
00000290: c372 5abb a082 69bc fa95 ef3c cf46 09bd
000002a0: 427c 85bd 9ab9 24bb 3f13 aebb 9608 4a3d
000002b0: d3b4 3b3d 538c 513d f89d 54bd 469b 0f3d
000002c0: 7ee7 ca3c fd7d afb9 fb95 263d 8c5b 5a3d
000002d0: 82dc c0bc bef0 113d d855 a4bc 94e6 18bd
000002e0: 3aca ea3c 4169 4f3d b937 89bd eb3d 8ebc
000002f0: 973c 23bd 496a 20bd 48b0 fb3c aaa0 29bc
00000300: 53e3 bb3a 3932 4e3c 690a ebba f8ef 873d
00000310: 91d5 123c 0a37 8b3d 2e82 e53c cfbd 3abd
00000320: 990f 74bc 62a9 16bd 60a5 f6bc 393f 8cbd
00000330: 85c0 373d e894 06bc d9ac 90bc 5afa af3c
00000340: 90bb 2abd 426d 83bc 5ba5 ca3c 7845 1f3d
00000350: 5d30 5cbd 12ba 29bd 44a2 80bd 2a40 13bd
00000360: 422a ff3c 2590 fa3a 0609 063d efb0 7d3d
00000370: 4479 c23c c575 b73c 2226 6e3c 89e9 633c
00000380: 4be0 96bc 51d5 36bd b855 2ebd 83c9 c4bc
00000390: 0ec9 45bd 818a 7cbd cfc3 3c3d 7fc3 1dbd
000003a0: 24d3 0c3d 2c52 613d a1c7 67bd ad1c 883d
000003b0: 776c aebc f293 533d afc2 673c 1e4e 603d
000003c0: be26 5dbc 0593 c73c 78f4 c13c 35d5 6d3d
000003d0: f200 3bbd e033 193d 0845 6e3c 1d48 013d
000003e0: 1954 83bc 52ec 4dbd 9197 2abc 72ea a73c
000003f0: 5621 81bd 6b8a b7bc 59ed ae3a 3d3e 1c3d
-0.06332889 -0.054501582 0.029428998 0.064944275 -0.04954577 0.03916584 0.011380137 0.045652
0.015154242 0.06337235 0.040909003 0.010066701 -0.03981931 0.061757013 -0.04941909 -0.018168043
0.011938798 -0.04050718 -0.014998827 0.025764054 0.033593595 -0.046516083 0.0631964 0.05013526
-0.016622702 -0.023797365 -0.031565275 0.034579005 0.0306018 -0.0107815005 0.020928739 -0.0112749655
0.047428142 -0.022036139 0.038819194 -0.0023030473 0.049258705 0.055018716 -0.066267334 0.019779528
-0.061051734 0.06252464 -0.026253194 0.038179416 -0.04988502 -0.03948595 -0.050329998 0.0553892
-0.02324441 -0.018569173 0.029127873 0.064463735 0.0007828777 0.013022666 -0.023584489 -0.014611271
-0.029060006 -0.031407714 0.03021459 -0.017116994 -0.036969222 -0.035482313 0.02685417 0.002423831
0.020208167 0.06302767 -0.026039138 -0.01190833 -0.036370367 0.0057095275 0.022099324 0.055314858
-0.012134876 0.002759247 0.021997439 0.02558938 0.054076318 0.05114583 -0.022321757 -0.05455403
0.029465945 0.011772733 -0.056721214 -0.01608283 -0.0013797308 -0.029821742 0.02119031 0.01908322
0.028939713 0.04839104 -0.056373864 0.034346204 0.0646479 -0.019010909 0.057665348 -0.003920759
-0.004261967 -0.0020104889 0.035643984 -0.00067022716 -0.0067489496 -0.026420543 -0.05475818 -0.011041503
0.03600956 -0.0026302529 0.0030157673 0.014606892 -0.0210971 -0.028888308 0.012461541 0.036034886
-0.0041471473 -0.032517564 -0.013979516 -0.058951776 0.00045331955 -0.027232047 0.014510334 0.031963106
0.04521772 -0.00962392 -0.013400718 -0.052275196 -0.0132130245 0.0072252145 0.027419413 0.023990229
-0.027340334 0.022651367 0.015164319 0.039858337 -0.0127738975 -0.012525622 0.043379836 -0.037689086
-0.028814126 -0.04205135 -0.019793162 -0.043919478 -0.050889667 -0.03925449 0.040676184 -0.06145686
-0.068049386 -0.013308216 0.050211746 -0.017707512 0.0345965 -0.03139418 0.046940263 0.015190741
-0.02303807 0.030498441 0.061657246 -0.015555787 -0.06243659 -0.028721606 0.033755545 0.008404415
-0.0033543364 0.033996377 0.06396544 -0.023371017 -0.0033332563 -0.014252335 0.02924632 -0.033514794
-0.06517841 -0.0025135041 -0.005312353 0.049324594 0.045826744 0.051159214 -0.051908463 0.03506019
0.024768587 -0.0003347247 0.040670376 0.053309962 -0.023542646 0.03562998 -0.020060465 -0.03732927
0.028660882 0.050637487 -0.067000814 -0.01736351 -0.039852705 -0.03916386 0.030723706 -0.010353247
0.0014334716 0.012585216 -0.001793218 0.06637567 0.008962051 0.06797607 0.028016176 -0.04559117
-0.014896297 -0.03678263 -0.030108154 -0.06847996 0.044861335 -0.008214213 -0.017660545 0.021481682
-0.04168278 -0.01604331 0.02473705 0.03888461 -0.05375706 -0.041437216 -0.0628095 -0.035949863
0.03114808 0.0019116445 0.03272345 0.061936315 0.023739465 0.022395024 0.014535459 0.01391066
-0.018417498 -0.044637028 -0.042562217 -0.02402187 -0.048287444 -0.061655525 0.046085175 -0.038516518
0.034381047 0.055010006 -0.056586865 0.066460945 -0.021291954 0.051654764 0.014145537 0.054762
-0.013498006 0.024362097 0.023676142 0.05806466 -0.0456552 0.037402987 0.0145428255 0.031562913
-0.016031312 -0.0502742 -0.010412113 0.020497534 -0.063051865 -0.02240487 0.0013345882 0.038145293

4.bias f4 [256]
00000000: b381 043d 7c67 00bd b8a7 35bd ac7b 413d
00000010: cea1 d5bb 78d8 ff3c 3db5 13bd e5fa aebc
00000020: d643 da3b 3860 d7bc 35b4 f03c 818e 473d
00000030: 2451 8e3b 5457 1f3c f1b8 edbb ea43 443c
00000040: 1d9e c23c 7ce2 5f3d cce6 123d ad44 3dbc
00000050: e91c 62bc 63a1 80bd 6db3 f0bc 7c28 9fbc
00000060: e685 f23b cce0 75bc 1029 2ebd c567 9abb
00000070: 92be 1cbd c7d4 913c ab97 5ebd f4a5 c7bc
00000080: 0220 82bd 7446 e63c dd6c f53c b668 f53c
00000090: c110 ac3c 7d46 26bc 241d 89bd c044 223d
000000a0: 6696 54bd 6c34 57bc 2737 c4bc cdec 2ebd
000000b0: bf6f f63c 35b4 28bd 9db0 593c 369c c43c
000000c0: db0c 003c b4a8 d83c 91fc 77bc a943 94bd
000000d0: d874 533d f4a4 993c 8899 1f3d baa8 8cbc
000000e0: 2ef8 5ebc b9bb 693d 6f5e a53b 4d66 3bbc
000000f0: eea1 26bd 5b29 b5bc a252 453d 230c 89bd
00000100: e7cd 653d de5c abbc 22ca 5a3d ef5b 2c3d
00000110: 4d7a 303d a33d 273c b241 183d 8764 433d
00000120: 699d 173d fae3 43ba 3cd5 bb3c 2458 3abd
00000130: 420c 3c3d a27d 70bd d0bd bebc 80ac 80bd
00000140: f559 93bc d1f3 613d cc3c 61bc f8a8 273d
00000150: aca4 edbc c9f7 6a3d f179 fd3c c990 58bc
00000160: 0e70 16bd af90 7ebc ada3 3b3d 57a1 6a3d
00000170: bcd1 723d d42b a7bc 3510 4abd d57a 89bd
00000180: 8cc2 5b3d 36a0 68bd 0f1a 07bd 06b0 0b3c
00000190: db51 f03b 9c98 203d c173 80bd eb07 bf3c
000001a0: 2dae 003d 5755 25bd f898 84bd b5aa 693d
000001b0: dafb cdbb a5c7 e8bc 23bc 56bd 63c9 66bc
000001c0: 8573 4abd fd5f 01bd 0250 7bbd 2650 803d
000001d0: d149 153d 08ed 42bd baa2 303b 13f3 463d
000001e0: 5577 0dbd 97f1 a73c a7f8 6f3d cd8f 273d
000001f0: 8039 1f3d a458 f2bc df28 0a3d 3c88 763c
00000200: ef82 383c 6d26 1d3c 3adb 133b ba46 8a3c
00000210: 57b1 623d dd03 d93c 76a3 07bd 57b3 3bbd
00000220: 96a8 183d 494a 56bd 9e79 dbba 7424 28bd
00000230: a134 f93c b98b 023d b918 153b d3c1 59bd
00000240: 982e bcbb 9780 5a3a 8c96 bfbc 7fdc a5ba
00000250: 7f0d 06bd 2f48 453d b180 0d3b c020 6f3d
00000260: c93e b2bc c977 d33c f4a1 783d a33b dfbc
00000270: 3dbe 66bd 9a9e e43c 32fd cd3b 3ffc 4dbd
00000280: e304 95bc 9058 a13c 9ac8 2abd f9ec 62bc
00000290: 7b0d 6fbd bf96 2f3d c18d 673d bca8 3b3d
000002a0: 6f5f 413d 420e 5bbd 188d 813d 6bf7 8cbd
000002b0: 01af c0bc 3485 6cbd 3f37 26bd 61f6 4ebd
000002c0: 2872 e03c 785b 97bc 1e1b 833d f95f c93c
000002d0: c47c 9c3c bb60 403d b549 b2bc c330 723c
000002e0: 24e6 f3bb 1f87 c0bc 0b9d 423c bc6d 063d
000002f0: 9fb2 89bc 206d 52bc e82b 1cbd c6f2 78bc
00000300: a7e3 3bbd dc00 3dbd d4ea 8c3d c866 093d
00000310: a64b 6c3c 5102 5cbb f549 0bbc eeac 62bc
00000320: 7e97 6dbd bdc7 0c3d f8be bfbc 3282 11bd
00000330: 0c8a 0b3d 972e 6ebc 61d1 443d 56e0 483d
00000340: aee9 3c3d 1e98 febc 383a c03c 6604 22bd
00000350: a451 49bb 8119 9bbc 601f 593d 766d 433d
00000360: 20b1 13bb 599f 71bd 9bc0 3d3a f629 e93c
00000370: 0947 60bd 5232 8dbd 587d 24bd 8f3e e4bc
00000380: 9fbb 1ebd 76d2 76bd 20c7 c13c c8e8 e9bc
00000390: 5369 b83c 98dc 243b 3c09 1cbc 8a39 cdbb
000003a0: 7ba2 78bc 2c9d 7abd 6b03 593d 374b f1bc
000003b0: b9b0 ac3c d55e 48bd 2324 d93b 1af2 37bd
000003c0: 107f a8bc 78e8 283d 0c5b 73bd 81a8 bbba
000003d0: e615 4a3d 50aa 33bd 5661 61bd 48b0 b1bc
000003e0: 59a0 9f3b 058f c63c 017e e8bb e09b d93c
000003f0: c4ec 8ebc ee18 403c f40e 1d3c 795f 513b
0.032350253 -0.03134869 -0.044349402 0.047237083 -0.0065195328 0.03123115 -0.036061514 -0.02135987
0.0066609187 -0.026290998 0.029382804 0.048719887 0.004343169 0.0097254105 -0.0072547127 0.011979083
0.023757035 0.05465935 0.035864636 -0.011552018 -0.013800838 -0.06280782 -0.029382432 -0.019428484
0.007401216 -0.015007209 -0.04251963 -0.0047120773 -0.03826768 0.017801655 -0.05434386 -0.024371125
-0.06353761 0.028109767 0.029959137 0.029957157 0.021004083 -0.010148642 -0.06695011 0.039616346
-0.051901244 -0.013135057 -0.02395208 -0.0427063 0.030082582 -0.041187484 0.013286737 0.024000268
0.007815565 0.026447631 -0.0151359 -0.07239468 0.051625103 0.018755414 0.03896478 -0.017170299
-0.013608975 0.057063792 0.0050466578 -0.011437965 -0.040681772 -0.022114446 0.048174508 -0.06691768
0.056104567 -0.020918306 0.053415425 0.042079862 0.043085385 0.010207566 0.037172027 0.047703292
0.037015352 -0.0007472631 0.022928827 -0.045494214 0.045910127 -0.058713563 -0.023283869 -0.06282902
-0.01798723 0.055164162 -0.013747405 0.040932626 -0.029009186 0.057365213 0.030941935 -0.013218113
-0.036727957 -0.015537425 0.04581039 0.057282772 0.05928205 -0.020406641 -0.049331862 -0.067128815
0.05365233 -0.056793414 -0.032983836 0.008525854 0.0073339767 0.03920804 -0.06272078 0.023319205
0.031416107 -0.04036459 -0.06474489 0.057047565 -0.0062861266 -0.02841551 -0.052425515 -0.0140861
-0.049426574 -0.031585682 -0.0613556 0.06265287 0.03644735 -0.047589332 0.0026952461 0.048571657
-0.034537632 0.020500941 0.058586743 0.040908623 0.038873196 -0.029583283 0.033730384 0.015047129
0.011261686 0.009591681 0.002256109 0.016879428 0.055344906 0.0264911 -0.033114873 -0.04582533
0.03727015 -0.052316938 -0.0016744619 -0.04105039 0.030420603 0.03187153 0.0022750332 -0.05316336
-0.005742859 0.00083352014 -0.023387216 -0.0012654214 -0.032727715 0.048164543 0.0021591599 0.058380842
-0.021758454 0.025813954 0.060701326 -0.027250117 -0.05633377 0.027907658 0.0062862867 -0.05028939
-0.018190807 0.01969555 -0.041695215 -0.013850444 -0.058362465 0.042868372 0.05653167 0.045815215
0.047210153 -0.053480394 0.063257396 -0.06883129 -0.023520948 -0.05774422 -0.04058003 -0.050527934
0.027398184 -0.018476233 0.064016566 0.024581896 0.019102462 0.04696725 -0.021763662 0.0147821335
-0.0074432064 -0.02350193 0.011878262 0.032819495 -0.016808806 -0.0128434 -0.03812781 -0.0151946
-0.045871403 -0.046143398 0.068807274 0.033545285 0.014422333 -0.0033570717 -0.008501519 -0.013835175
-0.058005802 0.034370173 -0.02340649 -0.035524555 0.0340672 -0.014537475 0.04805124 0.04904207
0.04612129 -0.031078395 0.02346526 -0.039554976 -0.0030718828 -0.01893306 0.053008437 0.047711812
-0.0022535995 -0.058989856 0.0007238478 0.028462391 -0.054755244 -0.068943635 -0.0401586 -0.027861862
-0.03875315 -0.060259305 0.02365452 -0.028553382 0.02251116 0.0025155898 -0.009523686 -0.0062629627
-0.015175457 -0.061185047 0.052981775 -0.02945481 0.021080362 -0.048918564 0.0066266223 -0.04490862
-0.0205684 0.041237324 -0.059413 -0.0014317186 0.04933729 -0.043863595 -0.055024467 -0.021690503
0.00487141 0.024238119 -0.007095099 0.026563585 -0.017446883 0.011724694 0.009586085 0.0031947775

5.weight f4 [256]
00000000: 4504 813f dfdd 7e3f 8936 813f 70cd 7c3f
00000010: ed6d 813f 4718 803f 5a3c 803f 030c 813f
00000020: 24be 7d3f 2f76 7e3f c26a 813f da6a 813f
00000030: 563c 813f f2a3 803f 0979 7b3f 9e8b 7f3f
00000040: ec1f 7e3f ecbb 803f f253 7e3f fa75 7e3f
00000050: 0946 7e3f b057 803f c7ac 803f 7153 803f
00000060: c478 7f3f 8499 813f 0c02 803f f77b 803f
00000070: b16c 803f 3de6 7c3f c797 7e3f 43f9 7b3f
00000080: e4c3 7e3f a791 803f 7bd7 7e3f 271a 7d3f
00000090: b04f 7e3f 65fe 803f 5172 813f ad5a 803f
000000a0: 7e9e 803f 82fe 803f 3c70 7e3f 40fc 7f3f
000000b0: ffc9 7f3f 4ea5 803f 2673 7f3f 4f62 803f
000000c0: 34e8 803f 7b0e 7c3f 4b7a 7e3f e60d 813f
000000d0: 696f 7e3f f7c5 7e3f ebd6 7d3f a7fa 7d3f
000000e0: 7f2b 7f3f 20ae 803f 0f4b 813f 9e41 803f
000000f0: dbb6 7e3f 8498 7e3f 06ee 803f 14c8 7e3f
00000100: e4d2 7c3f e716 803f f34c 813f 2637 803f
00000110: 8a69 7f3f dec4 7c3f b45b 7e3f c437 7e3f
00000120: 5dce 7d3f 45e9 7f3f 70ef 7f3f 3872 813f
00000130: 67b8 7c3f 2843 813f ac1c 7d3f ee38 803f
00000140: ec32 7d3f 49a2 7e3f a140 7e3f 32e8 803f
00000150: 02de 813f a249 7c3f ab27 7f3f b0d3 7f3f
00000160: ad5e 803f 6b9e 7e3f 6e5c 7e3f fcae 7e3f
00000170: f7fe 7b3f 3ab4 7d3f 3027 7e3f 7f07 813f
00000180: 2835 7d3f bdf2 7e3f eef8 7e3f e8ae 7f3f
00000190: 2afa 7f3f 7824 813f 0c8d 7e3f b616 7e3f
000001a0: d182 813f 127e 7e3f 142a 7f3f 631e 7c3f
000001b0: 68ec 803f efb8 7f3f 0149 803f 5ae4 7c3f
000001c0: 3953 803f 081c 803f cfc7 7d3f ec03 803f
000001d0: ece9 803f 6f6e 7f3f 8c45 7e3f 3aa7 7e3f
000001e0: 12fc 7d3f 8566 7e3f e160 803f e6e9 803f
000001f0: 38ab 7d3f 4873 7f3f 31a5 7e3f bc1d 7e3f
00000200: bc07 813f 4a8f 7f3f ab1f 803f 4854 813f
00000210: e7de 803f 25d4 7e3f 640c 803f 93b3 803f
00000220: e32d 7f3f 9319 7e3f da21 803f 3d5b 7e3f
00000230: aaac 803f 0165 7e3f be91 7c3f e612 7e3f
00000240: 79f9 7d3f d70e 7d3f e47f 7f3f cc3a 7e3f
00000250: 626d 7c3f 1600 7f3f a967 7f3f b7da 803f
00000260: 6fd2 803f 9d8c 803f 6f02 803f 85c1 7b3f
00000270: 64ef 7c3f b5a3 7e3f ac83 7f3f 4a1c 803f
00000280: ee95 803f 00b4 803f 9c50 7d3f 84a2 7e3f
00000290: 4226 803f 4706 7c3f 559a 7e3f 8581 7d3f
000002a0: 0003 7f3f 00d2 803f fca4 7f3f 0202 7c3f
000002b0: 4bb5 803f bf0c 7e3f 5b23 7f3f ad89 7e3f
000002c0: 84e6 7e3f 5980 803f 432c 803f c01d 823f
000002d0: 8e59 803f 18eb 803f e86c 803f 0cd0 7c3f
000002e0: e066 803f 8d59 803f 66ba 803f b642 7c3f
000002f0: 41ab 7e3f 76de 793f 3ad0 803f 83d6 803f
00000300: 3339 7e3f fb41 7e3f a678 813f c3ce 7e3f
00000310: 5ef7 7d3f 9a7b 7c3f 2d86 803f cdb5 803f
00000320: df87 7d3f 9119 813f 7d8e 7e3f 8a00 7c3f
00000330: 4099 7e3f cda0 803f 9fd4 7d3f 490e 803f
00000340: 8ae6 7d3f 61c7 803f 5375 803f 9097 7e3f
00000350: fbb1 7f3f 0b90 813f 9ce9 7d3f 39af 7e3f
00000360: 0307 813f eca2 7c3f 9c5f 7e3f d3c5 803f
00000370: 5780 813f a22f 7e3f 4a80 813f 3218 7f3f
00000380: 1d8e 7f3f ec18 813f c9fd 7a3f 776c 7e3f
00000390: 31e2 803f 1000 7f3f 9bff 7f3f e481 7f3f
000003a0: ba9b 803f f5f3 803f 808e 803f d656 7c3f
000003b0: a254 803f 281a 813f bdea 7f3f 056e 7e3f
000003c0: 2fd6 7b3f 8247 813f e31f 7e3f 0b9b 7e3f
000003d0: 287b 7e3f 2050 813f 8cc7 803f 4d7f 813f
000003e0: eb67 7f3f bc16 7c3f 1d49 803f c867 803f
000003f0: 764a 813f 9f33 7e3f 7fc0 7e3f 0f67 813f
1.0079428 0.995573 1.0094768 0.9875097 1.0111672 1.0007409 1.0018418 1.0081791
0.99118257 0.99399084 1.0110705 1.0110734 1.0096538 1.0050032 0.9823156 0.99822414
0.9926746 1.0057349 0.9934684 0.9939877 0.99325615 1.002676 1.0052727 1.0025464
0.9979365 1.0124974 1.0000625 1.0037831 1.003317 0.98788816 0.99450344 0.9842722
0.99517655 1.004445 0.9954755 0.9886803 0.99340343 1.0077635 1.0113012 1.0027672
1.0048368 1.007767 0.99390006 0.9999428 0.99917597 1.0050447 0.9978508 1.0030001
1.0070863 0.98459595 0.99405354 1.0082366 0.9938875 0.9952082 0.99156064 0.9921059
0.99675745 1.0053139 1.0101031 1.0020025 0.99497765 0.9945147 1.0072639 0.99524045
0.98759294 1.0006989 1.0101608 1.001683 0.99770415 0.98737895 0.9935868 0.9930384
0.9914301 0.99965316 0.9997473 1.0112982 0.98718876 1.009862 0.98871875 1.0017374
0.98905826 0.9946638 0.99317366 1.007086 1.0145876 0.98549855 0.99669904 0.99932384
1.0028893 0.99460477 0.99359787 0.99485755 0.9843592 0.9910313 0.99278545 1.0080413
0.98909235 0.9958914 0.99598587 0.9987626 0.99991095 1.0089254 0.9943397 0.99253404
1.0118047 0.9941112 0.9967358 0.98483866 1.0072145 0.9989156 1.0022279 0.98785937
1.0025398 1.0008554 0.9913301 1.0001197 1.0071387 0.99777883 0.9932487 0.9947392
0.99212754 0.9937518 1.0029565 1.007138 0.99089384 0.9978528 0.9947081 0.9926412
1.0080485 0.99828017 1.0009664 1.0103846 1.0068024 0.99542457 1.0003781 1.0054802
0.9967939 0.99257773 1.0010331 0.9935797 1.0052693 0.9937287 0.98659885 0.99247587
0.9920879 0.9885077 0.9980452 0.99308467 0.98604405 0.99609506 0.9976755 1.0066746
1.0064219 1.0042912 1.0000743 0.9834216 0.9880278 0.9946855 0.9981029 1.0008633
1.0045755 1.0054932 0.98951125 0.9946673 1.0011675 0.9844708 0.9945424 0.99025756
0.9961395 1.0064087 0.9986112 0.98440564 1.0055326 0.992382 0.99663323 0.99428827
0.9957049 1.0039169 1.0013508 1.0165329 1.002733 1.0071745 1.0033236 0.98754954
1.0031395 1.0027329 1.0056884 0.9853929 0.9948006 0.97605073 1.0063546 1.0065464
0.9930603 0.9931943 1.0114944 0.99534243 0.9920558 0.986261 1.0040947 1.0055481
0.9903545 1.0085927 0.9943617 0.9843832 0.9945259 1.0049073 0.9915256 1.000436
0.991799 1.0060846 1.0035805 0.99450016 0.9988095 1.0122083 0.99184585 0.9948612
1.0080265 0.986861 0.9936464 1.0060371 1.0117291 0.9929143 1.0117276 0.99646294
0.9982622 1.008573 0.98043495 0.99384254 1.0069028 0.9960947 0.999994 0.9980757
1.0047524 1.007445 1.0043488 0.9857 1.0025828 1.0086107 0.9996756 0.99386626
0.98373693 1.0099947 0.99267405 0.99455327 0.9940667 1.0102577 1.0060897 1.0116974
0.9976794 0.9847219 1.0022312 1.0031672 1.0100849 0.9929752 0.99512476 1.0109576

5.bias f4 [256]
00000000: f7b6 e5bb a822 11b8 bd6c 273c 09f6 073b
00000010: 1a3f 2e3c 04d1 3bbb c631 ac3b 00dc ebbb
00000020: 69c2 90bb e4c7 b03a 28ea 10bc cb3c fcbb
00000030: 3fda 13bc bafd e33b ae6c 863b 1487 dab6
00000040: 84cd db39 7691 ed3b 5405 6bbb fd8a c0bb
00000050: eadf b4bb e8cb a3bb a445 e73b 004d 6ebb
00000060: df4a 213b a327 17bc f665 f5b9 1f8f 4dbb
00000070: 4ac3 c9bb 2b10 c63b 9ba4 12bb 4600 ea3b
00000080: 08a4 3bbb 0053 9e3b 1056 25bb 13ea 05bb
00000090: 5e9c ccbb fc6d e9bb 3c6c 06bc 8c6c 983b
000000a0: 9737 033c b99f 0ebc aaba ddbb 9a3b fbbb
000000b0: d6c0 7f3b 04ed d03b 5ed3 133b 0d36 213c
000000c0: d85f cfbb f594 503c bcc2 c3bb 29a6 06bc
000000d0: 3bc0 893b ec85 bb3b 4369 53bb 86fc 23bb
000000e0: 3598 56bb 6709 bd3b 1158 1ebc 0698 06bc
000000f0: 1459 78bb bea1 1e3b 4988 dabb cdf6 ccbb
00000100: 2ecc beb9 8b55 91bb 0673 04bc 5545 dbbb
00000110: 5511 c13a 0261 7b39 ea9c 9fbb bba5 77bb
00000120: 7bef 83bb 0365 a3bb ccfd 303a 8250 03bc
00000130: 44b5 c0ba e2ad 0abc 111e 013c c3d8 e5bb
00000140: 98b5 943b 1e64 b1ba 8a35 aebb 7914 f73b
00000150: be38 1fbc c035 77bb a320 2e3b 7f06 293b
00000160: a05d 023c 8ed4 4fbb b60f 61ba 8e04 163b
00000170: 799a 52ba e5c0 40bb 6d45 ae3b 1065 e3bb
00000180: d8f5 efba 955c 8cb9 370b f53b 55d5 59b9
00000190: b182 2d3b 8fa8 f9bb ed9e e1bb 66e4 0dbc
000001a0: 0ab7 203c 8362 dfbb 9275 bebb 0462 4dbb
000001b0: 37cf d4bb 2219 b63a fcc6 51bb c110 f13a
000001c0: c453 9cbb 20a5 6f3b baf1 c3ba 1ff3 8a3b
000001d0: 748b cbbb 55a1 c73a 6f33 bebb c5c9 22bb
000001e0: ec5b 353b ed04 1cbb 7dc9 993b 3b96 d9bb
000001f0: ca1a 1cbb 28f6 66bb 527c 99bb 8fe3 adba
00000200: 4f2c 1f3c a20d 11bc c9ab 863b bf89 313c
00000210: 2a57 5f3c 5485 fdb9 5a2e 0ebc 108e c3bb
00000220: 06fb 8cbb 8f2a 01bc 67c4 e63a 19a6 ccbb
00000230: dfa7 09bc 7188 d9bb 28cd 5b39 15e2 393b
00000240: 747f a53b 7def bb3b 0a17 78ba 15d3 cdbb
00000250: c066 8139 955d c0ba 3a42 853b a762 fb3b
00000260: 789c f2bb 75e6 193c b6db bd3b 2fe0 343b
00000270: d504 6f3b ed4d b6bb 8793 e5ba 9b33 873b
00000280: ee13 c23b 14bc 1abc 5472 36bb f709 9bbb
00000290: 9f38 113b 1411 153b 4a81 99bb a5f7 173b
000002a0: 102f 013a a8e1 d9bb b3a9 a63b 50ee 8e3b
000002b0: 78a2 d43b 53a8 05bc fe0b 05ba 6594 1ebb
000002c0: 7613 cbbb 59ae 08bc e5bd 1a3c 5753 403c
000002d0: f1f2 a13b d1b3 2fbc 8f7d b23b 3cdd 963b
000002e0: ad2a 093c 9daa 1c3c 7ec0 0e3c 4217 0b3b
000002f0: 1e03 cc3a 51ea 0c3b df49 e1bb 042c c4bb
00000300: 6d12 edbb 6110 8abb 933b 373c 8825 063c
00000310: 62b0 92bb b7c9 913b d9c2 d23b 8d51 e33b
00000320: 2348 2d3c f02d f6bb 10d2 ecbb da1c adba
00000330: 1ffd d6bb 3f0d f43b 5edd 8a3b 0c50 17bb
00000340: f1aa f0bb c738 c1bb d388 17bc bb3e 963b
00000350: e554 bfbb 034d 48bc 14e0 44bb f0e8 12bc
00000360: cac2 153c effb d239 56a6 cf3b 775f db3b
00000370: e135 13bc 3a08 f7bb 86b3 4abc a608 07bc
00000380: 0b4f 2f3c 8aa5 23bc 4abb 383c f28c e0bb
00000390: 210f eabb 06fe 5c3b 44d5 683b cec8 133c
000003a0: c5ed 1abc d127 18bc 25ea c13b fee7 b33b
000003b0: 89f3 933b fd71 ebbb 52c7 2bbb 127e 23bb
000003c0: ea98 d7bb 7d6c 1c3c 7501 f23a 3fe4 85bb
000003d0: 252b 91bb 687e fabb 0175 1cbc 0039 f9bb
000003e0: 28ee 4e3a 7c0e ea3b d6cf afbb e58e d23b
000003f0: 23d7 0bbc 1644 b1bb f02a b83b 5eca 11bc
-0.0070103365 -3.460297e-05 0.010218796 0.0020746014 0.010635162 -0.0028658519 0.005254957 -0.007197857
-0.0044177067 0.0013487306 -0.00884489 -0.007697677 -0.009024202 0.006957737 0.004102311 -6.5126314e-06
0.00041924056 0.0072500063 -0.003586133 -0.0058759437 -0.0055198567 -0.0049986728 0.0070578624 -0.0036361814
0.0024611277 -0.009225759 -0.00046806008 -0.0031365824 -0.0061573135 0.006044408 -0.0022375945 0.007141146
-0.0028631706 0.0048316717 -0.00252283 -0.0020433709 -0.0062442264 -0.007123707 -0.008204516 0.0046516117
0.008008859 -0.008705073 -0.006766637 -0.007667017 0.0039024851 0.0063759107 0.0022556405 0.009839547
-0.006328564 0.012730827 -0.005974142 -0.008218327 0.004203824 0.005722752 -0.0032258786 -0.0025022342
-0.003274453 0.005768943 -0.009664551 -0.008214956 -0.0037894892 0.0024205293 -0.0066690785 -0.006255007
-0.0003639175 -0.0044352463 -0.008084064 -0.0066916146 0.0014729897 0.00023973364 -0.0048710005 -0.0037787992
-0.004026351 -0.004986407 0.0006751686 -0.0080148 -0.0014702459 -0.008464308 0.007880704 -0.0070143654
0.004538249 -0.0013533866 -0.005316441 0.0075402823 -0.009718118 -0.0037721246 0.0026569746 0.0025791225
0.007956892 -0.0031712386 -0.000858541 0.0022890898 -0.00080338825 -0.002941185 0.005318335 -0.006939538
-0.001830752 -0.0002677186 0.0074781436 -0.00020774205 0.0026475603 -0.0076189707 -0.0068854005 -0.008660411
0.009809265 -0.0068171634 -0.0058123553 -0.003133894 -0.0064944285 0.0013892988 -0.0032009473 0.0018391834
-0.004770728 0.0036566928 -0.001494936 0.004240408 -0.0062116925 0.0015230576 -0.005804471 -0.0024839502
0.0027673198 -0.0023806647 0.0046932087 -0.0066402233 -0.0023819678 -0.0035241935 -0.0046840096 -0.001326667
0.009715154 -0.008853348 0.004109834 0.010836064 0.013631621 -0.00048355258 -0.008678043 -0.005967863
-0.0043023853 -0.007883682 0.001760614 -0.0062453863 -0.00840184 -0.0066385795 0.00020961894 0.0028363515
0.005050594 0.0057353363 -0.00094638823 -0.0062812665 0.00024681352 -0.0014676327 0.0040667327 0.0076716724
-0.0074039064 0.009393324 0.005794014 0.0027599444 0.0036471386 -0.0055634887 -0.001751528 0.004126025
0.005922786 -0.009444255 -0.002783914 -0.0047314125 0.0022158993 0.0022745775 -0.004684602 0.002318838
0.00049279723 -0.006649215 0.0050861477 0.004361905 0.0064890943 -0.008157807 -0.00050753343 -0.0024197337
-0.0061973883 -0.008342349 0.009444688 0.01173862 0.004942291 -0.010724024 0.0054470967 0.00460401
0.008371991 0.009562162 0.008712886 0.002122358 0.0015564894 0.0021501968 -0.006875261 -0.0059866924
-0.0072348625 -0.0042133783 0.011183637 0.008187659 -0.004476593 0.004449095 0.006431919 0.006937212
0.010576281 -0.0075128004 -0.00722719 -0.0013207451 -0.006560936 0.007447868 0.004237815 -0.0023088483
-0.0073445966 -0.005896661 -0.00924893 0.004585115 -0.0058389776 -0.012225392 -0.0030040788 -0.008966669
0.00914068 0.00040242026 0.0063369675 0.00669473 -0.008985014 -0.0075388225 -0.012371903 -0.008241808
0.010699998 -0.009988198 0.011275122 -0.0068527395 -0.007142917 0.0033720746 0.0035527507 0.009020044
-0.009456103 -0.009286837 0.005917805 0.005490302 0.0045151156 -0.0071852193 -0.0026211333 -0.002494697
-0.006579508 0.00954735 0.0018463569 -0.004086047 -0.004430192 -0.0076444633 -0.00954938 -0.007605672
0.00078937644 0.00714284 -0.005365352 0.0064257258 -0.008535179 -0.005409728 0.005620353 -0.008898346
