MACHINE_LEARNING/checkpoints/o3_model_epoch6.pt (torch, 419225 bytes, 13 tensors)

0.weight f4 [256, 12]
0.14863613 0.17245771 -0.03937701 -0.037533913 -0.066893965 0.0073400047 0.04195828 0.0017472669
0.18875515 0.19224833 0.016213337 0.110250615 0.20390077 0.22388366 -0.13563667 -0.11894462
0.07196499 -0.25868472 0.117738076 -0.018095238 -0.13894163 -0.07382324 -0.18881981 -0.09903305
0.01454559 0.21272187 0.038141847 0.16540433 -0.2474455 0.03532737 0.13356063 0.20793404
-0.10605548 -0.26835448 -0.18691051 -0.19167913 -0.17864807 -0.13253088 -0.24198051 0.21589065
0.10292233 0.1576778 0.28164497 -0.1348437 -0.087890536 -0.04404456 -0.24393561 -0.2179847
0.04171008 -0.15667248 0.2781034 -0.28022906 0.17981002 -0.0313862 -0.23237063 0.11089797
0.1517933 0.0006625898 0.23797876 -0.014036716 -0.0054095415 -0.12756817 0.07810836 -0.12300963
0.06823497 0.22337854 -0.17070723 0.14096247 0.249294 0.013681207 -0.20369269 -0.18539247
0.03437078 -0.13347946 0.16844676 -0.08244538 -0.20501474 0.21685468 -0.10413052 -0.03590031
-0.0015893426 0.027619883 -0.06675276 0.24409692 -0.20010346 -0.1218986 -0.1336495 0.0069658505
-0.21331926 -0.25278664 -0.24482436 -0.25803325 0.07387818 0.28119826 0.074173935 -0.16153076
0.22152893 0.2128702 -0.0951646 0.19874735 0.15171066 0.18149707 0.066063106 -0.25346762
-0.0014036095 0.106526725 0.22134681 0.13881609 -0.17652361 -0.2362193 -0.032298613 0.008589674
0.26694185 -0.2886284 0.25513855 -0.06611042 -0.24257281 -0.25277472 0.044171967 0.10060729
0.26715985 -0.02203926 0.051297348 0.18335211 -0.2053647 0.10419604 0.058247868 -0.005852263
0.06555501 -0.1251643 -0.18806462 -0.10109222 -0.2267977 0.27374268 -0.15595292 0.2580537
0.28033897 0.2085337 -0.04538587 0.2227745 -0.20878084 0.063285746 -0.034828715 -0.040419202
-0.17186067 0.2780858 -0.1360579 0.11972024 -0.1821729 0.19474354 0.0463965 0.20101738
-0.106131 -0.13080996 0.25126886 -0.24598257 -0.09409143 -0.009838811 -0.28465667 0.26492995
-0.1324409 0.038088974 0.13151437 -0.19502044 -0.18020739 0.24794795 -0.13998036 0.04498094
-0.049745515 -0.18454179 -0.17425139 0.20862395 0.006142669 -0.1305911 -0.018132674 -0.2332185
-0.268683 -0.015273626 -0.06971382 0.07903079 0.07629385 0.13968872 0.13419817 -0.054498915
0.073273435 0.08485464 -0.12873624 0.009266512 -0.09275578 0.17028484 0.26576087 0.24092594
0.1722496 -0.0060779173 -0.015078711 0.09629582 0.23463996 -0.07076655 0.21667059 -0.1471499
-0.0252643 0.15659772 0.23781602 0.04239091 -0.056988955 0.27532318 -0.079558894 0.13450849
0.16642815 0.032535248 0.26909906 -0.11062807 -0.2520336 -0.081788026 0.2202621 -0.046931934
0.089124195 0.17656894 -0.027710253 0.22611529 0.036660165 -0.25869647 -0.036108118 0.26361865
-0.19987957 0.1628787 -0.1345437 0.09813197 -0.22816513 0.11799162 -0.06035126 -0.06448385
0.047440615 0.26077652 -0.120550044 0.05257137 -0.0006780175 -0.22248384 -0.049684912 -0.18691638
0.0066978135 -0.23571835 0.22721995 -0.012706026 -0.16418745 -0.023281965 -0.15618163 0.10713209
-0.063867055 -0.05061696 -0.26981166 -0.06320553 0.21904829 -0.24654007 -0.28832075 -0.10885871
00000000: 1234 183e c198 303e ca49 21bd 29bd 19bd
00000010: b4ff 88bd 6c84 f03b 72dc 2b3d 8c04 e53a
00000020: 0849 413e bfdc 443e d5d1 843c 13cb e13d
00000030: 5dcb 503e c241 653e 57e4 0abe 3d99 f3bd
00000040: 6162 933d 5372 84be a920 f13d 773c 94bc
00000050: b746 0ebe a430 97bd fb59 41be d7d1 cabd
00000060: a050 6e3c c3d3 593e a03a 1c3d c15f 293e
00000070: 5a62 7dbe 6fb3 103d 1ec4 083e a9ec 543e
00000080: 9e33 d9bd c265 89be 7865 3fbe 8947 44be
00000090: 85ef 36be 2db6 07be bdc9 77be 7012 5d3e
000000a0: f1c8 d23d 4a76 213e c533 903e 7814 0abe
000000b0: f4ff b3bd 1268 34bd 42ca 79be 6237 5fbe
000000c0: 30d8 2a3d c06e 20be 9263 8e3e 2f7a 8fbe
000000d0: 1e20 383e d18e 00bd 91f2 6dbe 7a1e e33d
000000e0: b46f 1b3e a6b1 2d3a b4b0 733e 41fa 65bc
000000f0: 8642 b1bb 3ba1 02be 47f7 9f3d 79ec fbbd
00000100: c7be 8b3d 58bd 643e e0cd 2ebe 7758 103e
00000110: ed46 7f3e 2427 603c d194 50be 86d7 3dbe
00000120: 60c8 0c3d d7ae 08be 4f7d 2c3e 20d9 a8bd
00000130: 62ef 51be 270f 5e3e 6242 d5bd 340c 13bd
00000140: 7d51 d0ba 1843 e23c acb5 88bd 8bf4 793e
00000150: ece7 4cbe f9a5 f9bd 6adb 08be ca41 e43b
00000160: 5d70 5abe 406d 81be 3db3 7abe ef1c 84be
00000170: 714d 973d 38f9 8f3e 81e8 973d 5268 25be
00000180: 7bd8 623e a5fa 593e a8e5 c2bd 6d84 4b3e
00000190: 0a5a 1b3e 5eda 393e 184c 873d 82c6 81be
000001a0: 52f9 b7ba af2a da3d bda8 623e ce25 0e3e
000001b0: 9bc2 34be 79e3 71be 8d4b 04bd b4bb 0c3c
000001c0: 9aac 883e 1ac7 93be 85a1 823e e664 87bd
000001d0: 0265 78be b06b 81be aaed 343d 320b ce3d
000001e0: 2dc9 883e ae8b b4bc 2b1d 523d a8c0 3b3e
000001f0: 204b 52be bc64 d53d 5195 6e3d 57c4 bfbb
00000200: b541 863d 122b 00be 0394 40be 7009 cfbd
00000210: a83d 68be 0028 8c3e 1fb2 1fbe 9d1f 843e
00000220: 9788 8f3e dc89 553e 89e6 39bd 001f 643e
00000230: a5ca 55be f59b 813d 8ea8 0ebd 9b8e 25bd
00000240: 3efc 2fbe 4361 8e3e c352 0bbe e32f f53d
00000250: 888b 3abe da6a 473e 420a 3e3d 80d7 4d3e
00000260: 365b d9bd 0cf3 05be 50a6 803e dbe2 7bbe
00000270: 02b3 c0bd f732 21bc 85be 91be e6a4 873e
00000280: 969e 07be 2f03 1c3d b4ab 063e 70b3 47be
00000290: 4988 38be 11e6 7d3e 0357 0fbe ef3d 383d
000002a0: f4c1 4bbd 86f8 3cbe f56e 32be 84a1 553e
000002b0: 7148 c93b acb9 05be f98a 94bc d5d0 6ebe
000002c0: d190 89be 3b3e 7abc 1fc6 8ebd e5da a13d
000002d0: f33f 9c3d 8f0a 0f3e 3f6b 093e 413a 5fbd
000002e0: 6210 963d 45c8 ad3d 6fd3 03be 91d2 173c
000002f0: bef6 bdbd 265f 2e3e cf11 883e 4ab5 763e
00000300: 3362 303e 4429 c7bb b30c 77bc be36 c53d
00000310: 7545 703e 0eee 90bd e5de 5d3e 77ae 16be
00000320: 14f7 cebc 275b 203e 0b86 733e 17a2 2d3d
00000330: 406d 69bd 29f7 8c3e c6ef a2bd 98bc 093e
00000340: 246c 2a3e ae43 053d 5ac7 893e f890 e2bd
00000350: 8c0a 81be 7b80 a7bd 638c 613e b33b 40bd
00000360: bf86 b63d 7dce 343e 9d00 e3bc c48a 673e
00000370: f828 163d dd73 84be 1be6 13bd 06f9 863e
00000380: 3bad 4cbe adc9 263e d3c5 09be 6af9 c83d
00000390: 1fa4 69be 97a5 f13d e232 77bd 1c10 84bd
000003a0: 1751 423d 8084 853e f1e2 f6bd 1455 573d
000003b0: fcbc 31ba ced2 63be 6882 4bbd 0267 3fbe
000003c0: 5579 db3b 2760 71be 59ac 683e f02c 50bc
000003d0: c120 28be d2b9 bebc 14ee 1fbe 1268 db3d
000003e0: bbcc 82bd bb53 4fbd c124 8abe e771 81bd
000003f0: 324e 603e 0075 7cbe c79e 93be 51f1 debd

0.bias f4 [256]
-0.096640915 0.2550703 -0.09372464 -0.027003972 -0.06425783 -0.2114486 0.23695087 0.2555225
-0.226108 -0.07323099 0.12608308 0.072516605 -0.1545285 -0.16552906 -0.12677181 0.040549744
-0.285172 0.031137656 -0.15687937 -0.28776032 0.20920196 -0.048274003 0.08382222 -0.21221244
-0.17670406 -0.27050832 0.11243927 0.103970945 0.06735709 -0.26417306 0.23552613 -0.0674223
0.04469946 -0.09155445 0.028027775 0.08794288 -0.27024156 0.227005 -0.07587941 0.043529987
0.04742589 -0.004332434 0.17509633 0.2608702 0.19557066 0.14737043 0.26680773 -0.018776018
0.0024628814 0.21583316 0.24832292 0.024734931 0.07158618 -0.2773693 -0.1873647 0.1510782
0.18814631 -0.11037644 -0.1477429 0.19842775 -0.27933112 0.22037141 0.2754111 -0.19075945
0.14578515 -0.08331512 0.19966836 -0.19095391 0.2028486 -0.15754782 -0.122048035 -0.16646461
0.14333719 0.0600738 -0.012966394 -0.24382652 -0.27446663 0.13080762 -0.24838111 -0.037569955
0.062815055 0.035952576 0.24716395 0.14714068 -0.018508181 0.066642396 -0.11588534 0.11549986
-0.20073415 -0.11829808 0.24928898 0.07031017 0.053081747 0.1839243 -0.23242432 0.022809498
-0.27401203 -0.19797672 0.1566126 -0.10706541 -0.19622776 -0.07040021 0.19142735 0.23164746
-0.060097445 -0.1258317 0.22959036 0.19809821 -0.122192025 0.16963995 -0.23715769 0.07557499
-0.25111565 -0.23431146 -0.17680296 -0.26408654 0.025432823 0.06861946 0.12889943 0.22371763
-0.2841039 -0.10931072 -0.0735697 0.010721477 -0.23814033 -0.08438354 0.011430147 0.0123876715
-0.24236467 -0.116072476 -0.2417223 0.135355 0.25068212 0.2314505 -0.024466986 0.19224636
-0.15260512 0.07699891 0.25582567 0.1317483 -0.14820325 -0.18438654 -0.23487926 -0.023215601
0.015685687 -0.006382637 0.07695401 -0.26714775 0.20159985 0.23356423 0.14420427 -0.012184874
0.2724404 -0.052055255 -0.07051512 0.018181143 0.0041571357 0.084290825 0.056235343 -0.07911227
0.056215044 -0.15551385 -0.2442707 -0.22338142 -0.08179123 -0.11889656 0.057004873 0.11842994
0.23419711 0.2679326 -0.26738968 -0.20543037 0.24791476 -0.12213619 -0.15195289 -0.058584914
0.22052635 -0.19717246 0.1575543 -0.2726954 0.21069658 -0.19588256 -0.24124706 0.18340783
0.23300692 -0.20744936 0.15268852 0.19028327 -0.26746327 -0.14706278 -0.0839654 0.08036997
0.1951087 0.029414322 0.029113479 0.030879345 0.24503967 0.16215304 0.10169334 -0.16578446
-0.063484184 -0.26608434 0.1417517 0.19491287 -0.11509828 -0.234479 -0.27907413 0.044107858
-0.13547082 -0.015393721 0.010873372 -0.20691508 0.15973186 0.28313315 -0.180601 0.065485746
0.16459604 -0.18117912 0.076766975 -0.26270905 -0.061281234 0.27204683 -0.012478812 -0.26836124
0.019081995 -0.080181904 0.20132919 0.105858766 0.21604756 0.025357794 -0.18112226 0.22683549
0.033301417 -0.2768543 0.2195019 -0.27714086 0.07731898 -0.057504054 -0.22086844 0.058374256
-0.023660583 -0.21125875 -0.13729545 0.051191796 -0.2553856 0.21077164 -0.037926152 0.18253209
0.12047721 -0.2216978 0.26439553 -0.2846948 0.10251749 0.18568784 -0.082970396 -0.18510775
00000000: aceb c5bd 9398 823e b4f2 bfbd 6f37 ddbc
00000010: 9c99 83bd fb85 58be 40a3 723e d8d3 823e
00000020: db88 67be 21fa 95bd ec1b 013e 9683 943d
00000030: b83c 1ebe 7380 29be 78d0 01be 7d17 263d
00000040: 1002 92be 6614 ff3c fca4 20be 5255 93be
00000050: 0a39 563e f6ba 45bd fcaa ab3d 384e 59be
00000060: e9f1 34be 1180 8abe 8f46 e63d b8ee d43d
00000070: 84f2 893d b141 87be c32d 713e b414 8abd
00000080: c816 373d e680 bbbd 819a e53c 661b b43d
00000090: 1a5d 8abe 0074 683e aa66 9bbd 804c 323d
000000a0: a641 423d 17f7 8dbb 744c 333e c790 853e
000000b0: ad43 483e 46e8 163e 069b 883e 2ad0 99bc
000000c0: 4b68 213b 5e03 5d3e 5d48 7e3e e9a0 ca3c
000000d0: c69b 923d 5903 8ebe 88dc 3fbe 3eb4 1a3e
000000e0: 6da9 403e 0b0d e2bd ea49 17be a530 4b3e
000000f0: 7d04 8fbe 0ba9 613e af02 8d3e 7256 43be
00000100: b448 153e 1ea1 aabd dd75 4c3e 6c89 43be
00000110: 8bb7 4f3e 3754 21be 52f4 f9bd b375 2abe
00000120: fcc6 123e f20f 763d 0071 54bc a9ad 79be
00000130: e486 8cbe 6ff2 053e 9e57 7ebe f4e2 19bd
00000140: 2ea5 803d 0243 133d 8c18 7d3e 0cac 163e
00000150: 789e 97bc cf7b 883d 4b55 edbd 318b ec3d
00000160: 418d 4dbe 4446 f2bd 9c45 7f3e c7fe 8f3d
00000170: 3f6c 593d a756 3c3e a400 6ebe fcda ba3c
00000180: 4e4b 8cbe 69ba 4abe 0e5f 203e 1c45 dbbd
00000190: eeef 48be fc2d 90bd 8805 443e fe34 6d3e
000001a0: bd28 76bd 06da 00be bc19 6b3e 42da 4a3e
000001b0: d03f fabd 18b6 2d3e 77d9 72be 0fc7 9a3d
000001c0: 3b92 80be 58ef 6fbe d60b 35be 5a36 87be
000001d0: 7f58 d03c 5c88 8c3d 36fe 033e 3c16 653e
000001e0: 1176 91be 4cde dfbd b6ab 96bd 22a9 2f3c
000001f0: 0fdb 73be 47d1 acbd 8345 3b3c a9f5 4a3c
00000200: 722e 78be 68b7 edbd 0d86 77be 809a 0a3e
00000210: 6859 803e 5c01 6d3e fd6e c8bc 3bdc 443e
00000220: 8444 1cbe 9bb1 9d3d 95fb 823e 07e9 063e
00000230: 98c2 17be d3cf 3cbe 3084 70be a52e bebc
00000240: 457f 803c 7125 d1bb 109a 9d3d 97c7 88be
00000250: 3170 4e3e 762b 6f3e 49aa 133e 11a3 47bc
00000260: 4f7d 8b3e e437 55bd 3b6a 90bd 9ff0 943c
00000270: 9538 883b aba0 ac3d 0857 663d 9d05 a2bd
00000280: bf41 663d 063f 1fbe 1922 7abe 19be 64be
00000290: 2982 a7bd 0a80 f3bd f17d 693d 658b f23d
000002a0: 5ed1 6f3e 762e 893e 4de7 88be 575c 52be
000002b0: 5edd 7d3e 8a22 fabd 8a99 1bbe bcf6 6fbd
000002c0: a9d1 613e 94e7 49be ea55 213e bb9e 8bbe
000002d0: d8c0 573e 7095 48be 7809 77be 43cf 3b3e
000002e0: 5e99 6e3e 9b6d 54be 615a 1c3e 9ed9 423e
000002f0: f2f0 88be a097 16be 0df6 abbd 0399 a43d
00000300: 93ca 473e 4ef6 f03c 647f ee3c aef6 fc3c
00000310: aeeb 7a3e 720b 263e 9944 d03d 67c3 29be
00000320: ff03 82bd 353c 88be 5c27 113e 3d97 473e
00000330: a6b8 ebbd 431b 70be cee2 8ebe 71aa 343d
00000340: ddb8 0abe f235 7cbc 3a26 323c 8ce1 53be
00000350: c090 233e d4f6 903e 78ef 38be 641d 863d
00000360: dd8b 283e 0587 39be 0138 9d3d cd81 86be
00000370: 0802 7bbd b949 8b3e ee73 4cbc a566 89be
00000380: d851 9c3c 6936 a4bd 3d29 4e3e 7bcc d83d
00000390: 923b 5d3e 26bb cf3c 1d78 39be 9047 683e
000003a0: 1167 083d d9bf 8dbe 1bc5 603e 68e5 8dbe
000003b0: 6a59 9e3d 5f89 6bbd 562b 62be d819 6f3d
000003c0: d7d3 c1bc 3754 58be 2e97 0cbe 7dae 513d
000003d0: e7c1 82be 85d4 573e 7458 1bbd b1e9 3a3e
000003e0: c1bc f63d c004 63be da5e 873e 84c3 91be
000003f0: b1f4 d13d f424 3e3e 62ec a9bd e38c 3dbe

1.weight f4 [256]
1.0068004 1.0008079 1.0087819 0.989327 1.0055654 1.0073638 0.9940471 1.0033367
1.0095335 1.0038294 0.9913074 0.99542296 1.0025165 1.0069959 1.0062001 1.0079458
1.0000833 1.004882 0.9960147 1.0086977 1.005441 0.9929436 1.0062977 0.9878207
1.0052859 0.9999717 0.9976595 0.9977951 1.0054346 0.9939266 0.9986099 1.0072638
0.99668807 0.9938753 1.0033925 1.0092111 0.99475974 0.98800826 1.0053853 1.007639
1.0033836 0.99628085 1.0032691 1.0074881 1.0075644 1.0041275 1.0043937 1.0030167
0.9956933 0.99515516 1.0017675 0.9937492 0.99699074 0.9964215 0.99332994 0.9995885
0.9929242 0.99267685 1.0078759 0.9943126 0.9930525 0.992876 0.9942405 1.0035352
1.0034546 1.0117809 1.011796 0.99460196 1.0053086 0.99796176 1.0035975 0.9924141
0.9841388 0.99276495 1.0103858 1.0084965 1.0010908 1.0091417 0.99785393 1.000272
0.9993428 0.9929292 0.993142 0.9973348 0.99806833 1.004648 0.992823 0.9926101
1.0081972 0.99540025 1.0003701 1.0030847 1.0118738 0.99964875 0.9992358 0.99793094
0.99830467 1.0091051 1.0067564 0.9859284 0.9935747 1.0078212 0.99184495 0.9968932
1.0031643 0.9867766 1.0079918 0.995043 1.0046421 0.9928529 0.9920366 1.0080132
1.0050031 1.0085049 0.9884303 0.9910332 1.0033227 1.0055845 0.9922926 1.0059224
0.9910155 1.0107579 1.0021567 1.0054123 0.9950096 1.0058603 1.0064312 0.99049157
0.9952138 1.0076946 1.0101886 0.9949588 1.0094491 0.99373573 1.0049572 1.0059339
0.9910167 1.001967 1.0067148 0.9918721 0.996795 0.9980995 1.0056485 0.9939262
0.9933224 0.9943627 1.0087632 0.99898 0.9916761 0.9982388 1.0084343 1.0058414
0.99308753 1.0051367 0.985346 1.0011425 1.0060443 1.0086926 0.9906068 1.0071688
0.9911906 0.99939436 0.99988633 0.9942578 1.0071121 1.0074356 1.0085015 1.002079
1.0057954 0.99842227 0.9954827 1.0044898 0.99653566 0.9997834 1.0047777 1.0025314
0.9963762 1.0068676 1.0066786 1.0059253 1.0110568 0.99242294 0.9990928 0.99543655
1.0038513 0.9994693 1.0010283 1.002543 0.9964908 1.0053601 1.0006617 1.0048683
0.9977123 0.9975453 1.0013614 1.0056804 1.0110735 1.0122185 1.0059338 0.990709
0.99265015 0.99975353 1.00095 0.9934697 1.0102626 1.0034218 1.0057262 0.9928826
0.99337316 0.98969907 1.0007802 0.9931697 0.9907957 0.9994799 0.9919236 0.997562
1.0091442 1.0059618 1.000055 0.9901195 1.005602 0.9930313 1.007466 1.0078179
0.99355227 1.0026884 0.9921355 1.0083029 0.9924758 0.99350685 0.99546003 1.0061094
1.0028814 0.9950315 0.9943991 0.9963692 0.9943703 0.9975908 0.9976012 0.99974024
1.0060172 1.0062929 0.9855349 0.9995716 0.99483556 1.0079875 1.006417 1.0034674
0.9945604 0.99491704 0.993708 0.99407643 1.0024444 0.9968692 0.99761474 0.9930522
00000000: d6de 803f 791a 803f c41f 813f 8944 7d3f
00000010: 5eb6 803f 4cf1 803f df79 7e3f 566d 803f
00000020: 6538 813f 7b7d 803f 52c6 7d3f 0ad4 7e3f
00000030: 7652 803f 3ee5 803f 2acb 803f 5e04 813f
00000040: bb02 803f f99f 803f d2fa 7e3f 021d 813f
00000050: 4ab2 803f 8d31 7e3f 5dce 803f d1e1 7c3f
00000060: 35ad 803f 25fe 7f3f 9d66 7f3f 806f 7f3f
00000070: 15b2 803f f971 7e3f e6a4 7f3f 05ee 803f
00000080: f326 7f3f 9d6e 7e3f 2a6f 803f d42d 813f
00000090: 93a8 7e3f 1cee 7c3f 77b0 803f 51fa 803f
000000a0: e06e 803f 430c 7f3f 1f6b 803f 5ff5 803f
000000b0: dff7 803f 4087 803f f98f 803f da62 803f
000000c0: c2e5 7e3f 7dc2 7e3f eb39 803f 5966 7e3f
000000d0: c93a 7f3f 7b15 7f3f df4a 7e3f 08e5 7f3f
000000e0: 4830 7e3f 1220 7e3f 1402 813f 458b 7e3f
000000f0: b038 7e3f 1f2d 7e3f 8c86 7e3f d773 803f
00000100: 3371 803f 0982 813f 8882 813f 3c9e 7e3f
00000110: f4ad 803f 6c7a 7f3f e275 803f da0e 7e3f
00000120: 85f0 7b3f d825 7e3f 5254 813f 6a16 813f
00000130: be23 803f 8e2b 813f 5b73 7f3f ea08 803f
00000140: eed4 7f3f 9c30 7e3f 8e3e 7e3f 5551 7f3f
00000150: 6881 7f3f 4e98 803f a629 7e3f b21b 7e3f
00000160: 9b0c 813f 8dd2 7e3f 210c 803f 1465 803f
00000170: 1585 813f fbe8 7f3f ebcd 7f3f 6778 7f3f
00000180: e590 7f3f 5b2a 813f 65dd 803f ce65 7c3f
00000190: e95a 7e3f 4900 813f 8de9 7d3f 6534 7f3f
000001a0: b067 803f 649d 7c3f e005 813f 23bb 7e3f
000001b0: 1d98 803f 9c2b 7e3f 1cf6 7d3f 9406 813f
000001c0: f1a3 803f b016 813f c509 7d3f 5ab4 7d3f
000001d0: e16c 803f feb6 803f e306 7e3f 11c2 803f
000001e0: 31b3 7d3f 8460 813f ac46 803f 5ab1 803f
000001f0: f3b8 7e3f 08c0 803f bdd2 803f db90 7d3f
00000200: 55c6 7e3f 23fc 803f dc4d 813f 9fb5 7e3f
00000210: a135 813f 7765 7e3f 70a2 803f 71c2 803f
00000220: 45b3 7d3f 7440 803f 08dc 803f 54eb 7d3f
00000230: f52d 7f3f 7383 7f3f 17b9 803f f371 7e3f
00000240: 604a 7e3f 8e8e 7e3f 271f 813f 27bd 7f3f
00000250: 7cde 7d3f 948c 7f3f 6014 813f 69bf 803f
00000260: fc3a 7e3f 52a8 803f a33f 7c3f 7025 803f
00000270: 0fc6 803f d71c 813f 6898 7d3f e8ea 803f
00000280: abbe 7d3f 4fd8 7f3f 8df8 7f3f ae87 7e3f
00000290: 0de9 803f a6f3 803f 9416 813f 2044 803f
000002a0: e7bd 803f 9a98 7f3f f4d7 7e3f 1f93 803f
000002b0: f61c 7f3f cef1 7f3f 8e9c 803f f352 803f
000002c0: 8312 7f3f 0ae1 803f d8da 803f 29c2 803f
000002d0: 4f6a 813f 6e0f 7e3f 8cc4 7f3f eed4 7e3f
000002e0: 337e 803f 38dd 7f3f b221 803f 5453 803f
000002f0: 051a 7f3f a4af 803f af15 803f 869f 803f
00000300: 136a 7f3f 215f 7f3f 9c2c 803f 23ba 803f
00000310: db6a 813f 6090 813f 70c2 803f 1b9f 7d3f
00000320: 521e 7e3f d9ef 7f3f 211f 803f 0854 7e3f
00000330: 4950 813f 2070 803f a3bb 803f 8e2d 7e3f
00000340: b44d 7e3f eb5c 7d3f 9119 803f 5f40 7e3f
00000350: c9a4 7d3f eadd 7f3f b4ee 7d3f 3960 7f3f
00000360: a32b 813f 5bc3 803f cd01 803f 7978 7d3f
00000370: 91b7 803f 4d37 7e3f a5f4 803f 2d00 813f
00000380: 7159 7e3f 1858 803f 98fc 7d3f 1210 813f
00000390: e512 7e3f 7756 7e3f 78d6 7e3f 31c8 803f
000003a0: 6b5e 803f 62ba 7e3f f090 7e3f 0d12 7f3f
000003b0: 0d8f 7e3f 1c62 7f3f cb62 7f3f faee 7f3f
000003c0: 2cc5 803f 35ce 803f 044c 7c3f ede3 7f3f
000003d0: 8bad 7e3f bc05 813f 46d2 803f 9f71 803f
000003e0: 839b 7e3f e2b2 7e3f a663 7e3f cb7b 7e3f
000003f0: 1950 803f d232 7f3f ae63 7f3f ab38 7e3f

1.bias f4 [256]
0.006943737 0.0021390242 0.00877288 0.010528037 0.005657863 0.008988629 -0.0054157847 -0.0033689572
0.009409633 -0.003739139 -0.0088767465 0.004506789 -0.002543556 -0.00729799 -0.0061977045 0.008192374
0.00028815528 -0.0050164834 -0.0038791774 -0.008798446 0.004197948 -0.0064036194 -0.0066322503 -0.0068910946
-0.004873348 -0.0006486208 0.0018135889 -0.0018456466 -0.0054867594 -0.006050735 -0.0013313508 -0.0075431257
0.0035524673 0.006179617 0.003777769 0.008258745 0.00510988 0.012372242 0.005411296 -0.0076245386
0.003765143 -0.0064113927 0.005243704 0.003394803 0.0077851573 0.007648241 0.004395933 -0.0035044902
0.0047678323 -0.003886862 -0.0018262642 0.007374141 -0.0026767864 -0.003526638 -0.006617125 -0.00041795737
-0.0069723655 -0.004571413 0.0068455855 0.0053789 0.0069005396 -0.0070150164 -0.005410036 -0.0034916804
0.0027074974 -0.011506335 -0.0117851375 0.0047030407 0.0053230855 0.0049754637 -0.006738975 0.007474343
-0.015477213 -0.0072042407 0.009616823 -0.008211191 -0.0011741841 -0.009077288 0.0022391593 0.005640579
-0.0010929118 -0.006214051 -0.0061904145 0.0035545335 -0.0002496357 0.0051355306 -0.006668269 0.0072662295
0.008208474 -0.0045591453 0.0029549426 0.009412109 -0.011431998 -0.00019084322 0.00048635682 0.0031382646
-0.0017911078 -0.009062343 -0.0068595675 0.013854109 0.006204397 -0.00780307 -0.008180345 0.0030742337
-3.7242007e-05 0.008445884 -0.007970802 -0.0047694533 -0.005242928 -0.00708785 0.008003621 0.008189299
-0.009372022 0.0087435795 0.00797536 -0.0062495503 -0.0034772074 0.004289953 -0.002983556 0.005796729
-0.008393666 -0.011606349 -0.00219476 -0.005394853 0.0044675437 0.007886968 -0.007805757 -0.003803654
-0.0046306155 0.006308391 -0.009795132 -0.0025343045 0.009706983 0.005984012 0.005008871 0.010068021
-0.0090336725 0.002301216 -0.006544386 -0.007895205 -0.0030946375 -0.0016246623 0.0064734505 -0.0065342747
-0.006649736 -0.007790319 -0.008526167 0.0027305756 -0.008324915 0.001547142 0.008585883 -0.00581661
-0.006883994 -0.007160453 0.0054869074 -0.0012605259 0.0065203565 -0.00880744 -0.0031410197 -0.007187005
-0.007674046 0.0009358129 0.00013545826 0.00569933 0.007102631 0.0087209465 0.0078867 0.005150755
0.0069244048 0.0015433565 -0.004509721 0.004502917 -0.0031110328 0.0003100506 -0.0048622102 0.003669999
0.0029416722 -0.0068460894 -0.007457522 -0.0072785765 0.010725186 -0.0070487843 0.00094027846 -0.0032864579
-0.0058445185 0.00040837142 0.0015105639 -0.0024356053 0.003416723 -0.0054536327 0.0037978424 -0.0045679677
0.0022929334 0.0015065671 0.0018311613 -0.0052501564 0.011126502 -0.012099062 -0.0077376487 0.009330025
-0.004141552 0.00022094781 0.000999591 -0.00421946 0.010291023 0.0039826236 0.002427863 0.0060428125
0.006677512 -0.010266988 -0.0019653789 -0.0059410185 0.00807112 0.0005358265 -0.008207564 1.9703131e-05
-0.009036758 0.0061533297 0.00025948219 0.0062836963 0.0071492125 -0.007061237 0.0075239013 0.007983775
0.0053668385 -0.0025000558 0.006224331 0.008067192 0.007454385 -0.006356199 0.004546836 0.004309301
-0.0063110753 -0.005772118 -0.005123563 0.005234577 0.005629783 0.0051742834 0.0030178505 0.00015675211
0.008768946 0.006255373 0.0084376065 -0.00071117416 0.004635775 0.0079863835 -0.0077008447 0.0035671333
0.005271865 0.005005129 0.0046328492 -0.005546738 0.0025652582 -0.0030049023 -0.0014059497 0.006978949
00000000: 4a88 e33b df2e 0c3b 20bc 0f3c ca7d 2c3c
00000010: 9865 b93b 0b45 133c e576 b1bb b9c9 5cbb
00000020: dd2a 1a3c 580c 75bb c66f 11bc b0ad 933b
00000030: cab1 26bb fa23 efbb 1d16 cbbb 4f39 063c
00000040: 8c13 9739 5061 a4bb cc39 7ebb 5b27 10bc
00000050: f18e 893b 74d5 d1bb 5953 d9bb b1ce e1bb
00000060: 9bb0 9fbb 3408 2aba f2b5 ed3a a0e9 f1ba
00000070: 46ca b3bb 3e45 c6bb b880 aeba 532c f7bb
00000080: 83d0 683b 627e ca3b 7294 773b b04f 073c
00000090: c870 a73b f2b4 4a3c 3e51 b13b 44d7 f9bb
000000a0: 9ec0 763b a916 d2bb 61d3 ab3b 587b 5e3b
000000b0: a21a ff3b 189e fa3b c20b 903b 97ab 65bb
000000c0: 7a3b 9c3b b9ba 7ebb 425f efba c7a2 f13b
000000d0: 066d 2fbb 2b1f 67bb 78d4 d8bb 4a21 dbb9
000000e0: 7178 e4bb cbcb 95bb ef50 e03b 7c41 b03b
000000f0: ec1d e23b 39de e5bb ac46 b1bb add4 64bb
00000100: 4570 313b 1185 3cbc 7316 41bc f71b 9a3b
00000110: 476d ae3b 3709 a33b 9fd2 dcbb 55eb f43b
00000120: 2394 7dbc 8d11 ecbb e18f 1d3c 3b88 06bc
00000130: 15e7 99ba e8b8 14bc dcbe 123b 9bd4 b83b
00000140: 0940 8fba 3d9f cbbb f6d8 cabb 2df3 683b
00000150: 89e1 82b9 f447 a83b 7f81 dabb 8d19 ee3b
00000160: d67c 063c e264 95bb b6a7 413b 3f35 1a3c
00000170: 464d 3bbc 161d 48b9 b5fd fe39 58ab 4d3b
00000180: 9bc3 eaba 397a 14bc 39c6 e0bb 58fc 623c
00000190: 414e cb3b e5b0 ffbb db06 06bc 1579 493b
000001a0: 4d34 1cb8 9b60 0a3c f797 02bc 1349 9cbb
000001b0: decc abbb 3241 e8bb 9f21 033c 692c 063c
000001c0: 1c8d 19bc 3b41 0f3c 16ab 023c 07c9 ccbb
000001d0: dce1 63bb bc92 8c3b c387 43bb 7df2 bd3b
000001e0: 9685 09bc 8e28 3ebc f6d5 0fbb 4fc7 b0bb
000001f0: 7964 923b 5738 013c 70c7 ffbb ba46 79bb
00000200: 6bbc 97bb 9fb6 ce3b c37b 20bc 9316 26bb
00000210: 0a0a 1f3c 8815 c43b 7521 a43b 57f4 243c
00000220: f801 14bc ffcf 163b 4a72 d6bb e45a 01bc
00000230: 67cf 4abb 9ff2 d4ba 3d1f d43b 781d d6bb
00000240: 07e6 d9bb ef45 ffbb 56b1 0bbc 75f3 323b
00000250: 3965 08bc 79c9 ca3a ceab 0c3c 4399 bebb
00000260: 2193 e1bb 3ca2 eabb 84cb b33b 3b38 a5ba
00000270: b7a8 d53b 154d 10bc 91d9 4dbb f880 ebbb
00000280: 9076 fbbb 5751 753a cd09 0e39 72c1 ba3b
00000290: 30bd e83b 4de2 0e3c 3837 013c aac7 a83b
000002a0: 1ee6 e23b 734a ca3a 48c6 93bb 358d 933b
000002b0: 78e2 4bbb 498e a239 2d53 9fbb 5e84 703b
000002c0: 12c9 403b 2955 e0bb 3b5e f4bb 2081 eebb
000002d0: b1b8 2f3c 7df9 e6bb 057d 763a 9d61 57bb
000002e0: 6083 bfbb af1a d639 1dfe c53a ad9e 1fbb
000002f0: 1aeb 5f3b 63b4 b2bb 39e5 783b e4ae 95bb
00000300: 0a45 163b 0178 c53a 9403 f03a 8109 acbb
00000310: ef4b 363c 253b 46bc 1a8c fdbb f6dc 183c
00000320: dbb5 87bb 3aae 6739 b504 833a 6543 8abb
00000330: ae9b 283c ab80 823b c81c 1f3b c902 c63b
00000340: 08cf da3b de36 28bc 96cd 00bb e0ac c2bb
00000350: bb3c 043c b576 0c3a 0579 06bc 2748 a537
00000360: e90e 14bc dfa1 c93b 1c0b 8839 77e7 cd3b
00000370: f143 ea3b f361 e7bb 0f8b f63b 61ce 023c
00000380: 4edc af3b fad7 23bb 79f5 cb3b 412c 043c
00000390: ea43 f43b a947 d0bb a0fd 943b 0935 8d3b
000003a0: 23cd cebb 0924 bdbb 90e3 a7bb d186 ab3b
000003b0: 0b7a b83b 098d a93b 21c7 453b d35d 2439
000003c0: a0ab 0f3c dff9 cc3b e33d 0a3c 176e 3aba
000003d0: b3e7 973b 52d9 023c 5e57 fcbb 91c6 693b
000003e0: 9cbf ac3b 1102 a43b 28cf 973b 69c1 b5bb
000003f0: e41d 283b e5ed 44bb d847 b8ba abaf e43b

4.weight f4 [256, 256]
-0.0630825 -0.05425323 0.02973255 0.06473756 -0.04936696 0.03942663 0.011536595 0.04544271
0.01540819 0.06315919 0.041096456 0.009850832 -0.040022023 0.0615534 -0.049623366 -0.01795858
0.012161856 -0.040722556 -0.014801587 0.025555046 0.033772297 -0.04626661 0.062988415 0.04907587
-0.016858347 -0.024020901 -0.031787276 0.034275886 0.0303897 -0.010588882 0.021122519 -0.011472523
0.047247548 -0.022239782 0.039079256 -0.0020991873 0.049056537 0.054819953 -0.06604875 0.019578269
-0.06083593 0.060801573 -0.025932409 0.03794348 -0.049637165 -0.03925067 -0.050131947 0.055176232
-0.023447847 -0.018387042 0.028923076 0.0642846 0.0009733186 0.013218532 -0.023399906 -0.014336091
-0.028879168 -0.03126962 0.030472418 -0.017327212 -0.037192445 -0.035294298 0.027026765 0.0022205173
0.020220771 0.06278398 -0.02628062 -0.012379793 -0.036135606 0.005706868 0.021775564 0.05510653
-0.01191469 0.0029370664 0.023115924 0.025381794 0.05387064 0.050929528 -0.022068541 -0.05494061
0.029257713 0.0118924165 -0.056473114 -0.016270407 -0.0011416096 -0.029558023 0.021392776 0.018899139
0.029147604 0.04857546 -0.05609439 0.034638442 0.06442978 -0.01880135 0.057464805 -0.0040904027
-0.0040390156 -0.0022153074 0.035404403 -0.00086846395 -0.006959995 -0.026623478 -0.054575365 -0.011232787
0.035798453 -0.0028324958 0.0028094314 0.01485373 -0.021300927 -0.02867334 0.0122429 0.036209825
-0.0046008076 -0.032288086 -0.014306943 -0.058821313 0.00024313164 -0.027147258 0.014824844 0.032219417
0.04538435 -0.009831471 -0.013607768 -0.052478947 -0.013435777 0.0075374926 0.027149929 0.02344215
-0.02714873 0.022330813 0.014948505 0.04001185 -0.012458497 -0.012732463 0.0436312 -0.03750223
-0.02865859 -0.041860875 -0.019998586 -0.04370013 -0.05069005 -0.039067034 0.040846188 -0.06132718
-0.067858286 -0.013264391 0.04997607 -0.017433945 0.03478387 -0.031592432 0.047192007 0.014989997
-0.022809073 0.030164843 0.061714344 -0.015759213 -0.062161494 -0.02892787 0.034151196 0.008184716
-0.0031644371 0.033784978 0.063750766 -0.023576794 -0.0031249844 -0.014065069 0.029542053 -0.03321684
-0.06492825 -0.0026549117 -0.0051176543 0.04988758 0.04600995 0.050944913 -0.052117467 0.0353011
0.02456057 -0.0005372871 0.040512573 0.05233821 -0.023222256 0.035823442 -0.020247133 -0.037073124
0.028409963 0.050436594 -0.06676126 -0.01757602 -0.040056884 -0.039373666 0.030981386 -0.010563543
0.0012587968 0.012866017 -0.0015683175 0.066165306 0.009200377 0.06775683 0.027692204 -0.045800142
-0.014737499 -0.03698889 -0.029897248 -0.06817704 0.045066718 -0.007967926 -0.017035497 0.021250874
-0.04188811 -0.015884478 0.024540005 0.039016124 -0.053925574 -0.04124253 -0.06263228 -0.03616016
0.030947661 0.0021772408 0.032528795 0.06168436 0.023872934 0.022607287 0.014744681 0.014119574
-0.018620573 -0.04484442 -0.04256884 -0.023766994 -0.048493493 -0.06138007 0.045878638 -0.038401417
0.034174982 0.055118248 -0.056419045 0.066276684 -0.021488786 0.0514487 0.013940096 0.054557513
-0.013318657 0.024590533 0.02375755 0.057777423 -0.045858692 0.03781582 0.014319197 0.031769313
-0.01627014 -0.050476134 -0.010635795 0.020721152 -0.06287227 -0.022188164 0.0015857329 0.037950937
00000000: 6631 81bd a338 5ebd ad91 f33c 2095 843d
00000010: 0235 4abd d17d 213d fd03 3d3c 2322 3a3d
00000020: a272 7c3c 9b59 813d c254 283d 6265 213c
00000030: 22ee 23bd 6b1f 7c3d df41 4bbd df1d 93bc
00000040: 8542 473c b2cc 26bd 5b82 72bc d158 d13c
00000050: d254 0a3d 0f82 3dbd 1200 813d c803 493d
00000060: 841a 8abc 7bc7 c4bc 6033 02bd df64 0c3d
00000070: d2f3 f83c fd7c 2dbc 2209 ad3c 40f7 3bbc
00000080: a586 413d 3430 b6bc 9211 203d 8592 09bb
00000090: 82ef 483d e38a 603d 9144 87bd 9b62 a03c
000000a0: 192f 79bd 120b 793d 3470 d4bc 9f6a 1b3d
000000b0: 5750 4bbd 4fc5 20bd 2857 4dbd 7900 623d
000000c0: b315 c0bc 6ca0 96bc 16f0 ec3c a5a7 833d
000000d0: 4e26 7f3a 8b92 583c 29b1 bfbc ece1 6abc
000000e0: 0194 ecbc 9314 00bd 4ba1 f93c ccf1 8dbc
000000f0: 1b57 18bd c190 10bd 3c67 dd3c 1986 113b
00000100: 08a6 a53c e394 803d 744a d7bc 9ed4 4abc
00000110: ee02 14bd ae00 bb3b ab62 b23c 63b7 613d
00000120: d535 43bc cc7b 403b 9b5d bd3c 7bed cf3c
00000130: 76a7 5c3d 7b9b 503d 16c9 b4bc 6809 61bd
00000140: dfad ef3c 69d8 423c 5a50 67bd 8449 85bc
00000150: 10a2 95ba ab23 f2bc e73f af3c 5ed2 9a3c
00000160: f5c6 ee3c 10f7 463d 3bc3 65bd 0ae1 0d3d
00000170: c3f3 833d 4a05 9abc 3760 6b3d c908 86bb
00000180: b859 84bb b12e 11bb 3504 113d a1a9 63ba
00000190: ab10 e4bb 7b19 dabc 6b8a 5fbd b909 38bc
000001a0: 66a1 123d 65a1 39bb 701e 383b 0f5d 733c
000001b0: 487f aebc 5ae4 eabc 7296 483c c150 143d
000001c0: 5fc2 96bb 8340 04bd ab67 6abc 9eee 70bd
000001d0: 27f1 7e39 ed63 debc e7e3 723c 82f8 033d
000001e0: f1e4 393d 2e14 21bc 1ef3 5ebc 2af4 56bd
000001f0: bc21 5cbc 12fd f63b 8769 de3c c009 c03c
00000200: 0367 debc 1cef b63c 93ea 743c 77e3 233d
00000210: b91e 4cbc d29b 50bc a1b6 323d f09b 19bd
00000220: 6bc5 eabc 4f76 2bbd 13d4 a3bc e8fe 32bd
00000230: 5fa0 4fbd c104 20bd 554e 273d 3632 7bbd
00000240: 49f9 8abd e352 59bc b5b3 4c3d a2d1 8ebc
00000250: 8879 0e3d 1167 01bd 684c 413d 9b98 753c
00000260: 18da babc 431c f73c 2ec8 7c3d 7719 81bc
00000270: 0d9d 7ebd 24fa ecbc 20e2 0b3d 3019 063c
00000280: 7262 4fbb 1e62 0a3d c38f 823d 1f24 c1bc
00000290: 8acc 4cbb 2d71 66bc 2d02 f23c 620e 08bd
000002a0: 1af9 84bd 07fe 2dbb ffb1 a7bb eb56 4c3d
000002b0: ee74 3c3d 9dab 503d 2079 55bd e397 103d
000002c0: 4033 c93c bad8 0cba 83f0 253d 9760 563d
000002d0: 9a3c bebc 9abb 123d 51dd a5bc fdd9 17bd
000002e0: 03bc e83c 9a96 4e3d 21ba 88bd 96fb 8fbc
000002f0: b012 24bd 4846 21bd adcc fd3c b612 2dbc
00000300: 36fe a43a fdcb 523c 0190 cdba ad81 873d
00000310: 2ebd 163c 18c4 8a3d c3da e23c ee98 3bbd
00000320: 8d75 71bc aa81 17bd 13eb f4bc 67a0 8bbd
00000330: e197 383d e78b 02bc 078e 8bbc 5016 ae3c
00000340: de92 2bbd 2a20 82bc 1f08 c93c 5fcf 1f3d
00000350: 10e1 5cbd eded 28bd 5a45 80bd ad1c 14bd
00000360: f385 fd3c 0ab0 0e3b ea3c 053d bda8 7c3d
00000370: 2c91 c33c eb32 b93c ad93 713c c955 673c
00000380: 2c8a 98bc c8ae 37bd aa5c 2ebd 00b3 c2bc
00000390: 1da1 46bd ab69 7bbd 3deb 3b3d ce4a 1dbd
000003a0: 11fb 0b3d acc3 613d a817 67bd 12bc 873d
000003b0: 4009 b0bc dfbb 523d 0065 643c b377 5f3d
000003c0: 7f36 5abc 1672 c93c 329f c23c 05a8 6c3d
000003d0: 53d6 3bbd c3e4 1a3d 119b 6a3c 8a20 023d
000003e0: f548 85bc 10c0 4ebd c241 2ebc 68bf a93c
000003f0: 2dc3 80bd f4c3 b5bc 5ed8 cf3a 7172 1b3d

4.bias f4 [256]
0.032556947 -0.03142188 -0.04437206 0.04710598 -0.0066729053 0.031736 -0.036101077 -0.021196598
0.0066555347 -0.025784649 0.029597139 0.048832033 0.0044821575 0.009669816 -0.0071289777 0.012105819
0.024387775 0.054431297 0.035875343 -0.011504183 -0.013793477 -0.062453188 -0.029579611 -0.01880551
0.007267095 -0.014715775 -0.04192874 -0.0042473464 -0.03786668 0.017662404 -0.05443137 -0.024292404
-0.06357735 0.028343197 0.029818084 0.029989628 0.02099585 -0.009967819 -0.06679361 0.039568108
-0.051849507 -0.012989962 -0.0239432 -0.04256222 0.03002385 -0.041296117 0.013840081 0.023588467
0.007985663 0.027088145 -0.015172286 -0.072192006 0.051400505 0.018789107 0.038844462 -0.017293995
-0.013142984 0.057085037 0.005210135 -0.011347708 -0.040560827 -0.021243347 0.04850619 -0.066879384
0.056062516 -0.020750033 0.05352652 0.04225139 0.04291717 0.009882576 0.037151966 0.04801724
0.03697427 -0.0006660495 0.023528738 -0.045367263 0.045936663 -0.058510426 -0.023470934 -0.062438738
-0.018212326 0.055066865 -0.013714829 0.040918462 -0.028761148 0.057472996 0.030939434 -0.013217468
-0.036663335 -0.015532253 0.04570721 0.057006072 0.05921802 -0.020609712 -0.049432416 -0.067000166
0.0539335 -0.056179248 -0.03301458 0.009264996 0.0072649145 0.039301567 -0.06272123 0.023350628
0.031300947 -0.040363304 -0.0646724 0.057001777 -0.005905656 -0.028499575 -0.051941514 -0.014286296
-0.049264412 -0.031678304 -0.06142454 0.06254269 0.036669165 -0.047680497 0.0026771724 0.048489273
-0.03475707 0.020990798 0.058550928 0.041052155 0.039007027 -0.029155564 0.033934414 0.015007392
0.011162977 0.009658352 0.002300884 0.016901305 0.055064283 0.026381593 -0.032964893 -0.045755427
0.03747251 -0.052369937 -0.0014828555 -0.041104205 0.030827466 0.03190875 0.0021783833 -0.052815598
-0.0047886027 0.00057577126 -0.02273457 -0.0012230547 -0.03232499 0.04854711 0.0019157233 0.05850242
-0.021648657 0.025971679 0.060619403 -0.02718138 -0.056350015 0.027974997 0.006631677 -0.05035177
-0.018277485 0.019827992 -0.041418273 -0.013861979 -0.058300458 0.042414732 0.05654839 0.045261983
0.047212273 -0.053163618 0.06319775 -0.068092525 -0.023482846 -0.057718676 -0.040038787 -0.050662413
0.027499424 -0.018313924 0.063314915 0.024345962 0.01923105 0.04708008 -0.02186446 0.0149363745
-0.0075825616 -0.023592366 0.011703008 0.032946557 -0.0164482 -0.012334585 -0.037877154 -0.015001904
-0.045926917 -0.045977324 0.06866037 0.03353473 0.014502733 -0.0030862638 -0.008309606 -0.01389165
-0.05754232 0.034642965 -0.023438115 -0.03529321 0.03410268 -0.01475846 0.04781866 0.049401034
0.046067163 -0.030855602 0.023697276 -0.039767098 -0.0027022508 -0.018561525 0.05292524 0.04774743
-0.0023092877 -0.05897507 0.0015632232 0.028579887 -0.05462517 -0.06892268 -0.03948086 -0.027790155
-0.038812887 -0.06005918 0.02573812 -0.028301373 0.022804916 0.0020620544 -0.009633978 -0.0063248873
-0.015061793 -0.061092317 0.05296378 -0.029174458 0.021051394 -0.048759133 0.0072817635 -0.044993564
-0.02006202 0.041143104 -0.05951765 -0.0014633933 0.04942379 -0.043756843 -0.054643553 -0.02149361
0.0047210613 0.024278581 -0.006756778 0.026575685 -0.017183 0.011666262 0.010011426 0.0034339689
00000000: 6f5a 053d 3bb4 00bd 7abf 35bd 33f2 403d
00000010: 63a8 dabb 9cfd 013d b9de 13bd 7da4 adbc
00000020: ac16 da3b 543a d3bc b375 f23c 1904 483d
00000030: 10df 923b 266e 1e3c 339a e9bb 7c57 463c
00000040: dfc8 c73c 5af3 5e3d 06f2 123d 0a7c 3cbc
00000050: 09fe 61bc eace 7fbd f150 f2bc 030e 9abc
00000060: d020 ee3b 6f1a 71bc 78bd 2bbd 532d 8bbb
00000070: 181a 1bbd bfb0 903c 6ef3 5ebd dd00 c7bc
00000080: d734 82bd fe2f e83c 0e45 f43c cfac f53c
00000090: 7dff ab3c 1050 23bc 17cb 88bd 2b12 223d
000000a0: 2660 54bd d9d3 54bc 8824 c4bc b955 2ebd
000000b0: 94f4 f53c 1e26 29bd 82c1 623c 9a3c c13c
000000c0: 4cd6 023c f5e7 dd3c 2e95 78bc 67d9 93bd
000000d0: 5689 523d 9deb 993c 5f1b 1f3d 23ac 8dbc
000000e0: ac55 57bc 00d2 693d c8b9 aa3b bdeb 39bc
000000f0: 1c23 26bd 8706 aebc 6dae 463d 0ff8 88bd
00000100: cfa1 653d f9fb a9bc a03e 5b3d cb0f 2d3d
00000110: eac9 2f3d 87ea 213c a92c 183d baad 443d
00000120: 5572 173d d399 2eba 57bf c03c 06d3 39bd
00000130: 1528 3c3d a1a8 6fbd 1e46 c0bc c3bf 7fbd
00000140: 0432 95bc cb8d 613d 2ab4 60bc 1e9a 273d
00000150: 809c ebbc ce68 6b3d b274 fd3c 148e 58bc
00000160: 4b2c 16bd fe7a 7ebc 7c37 3b3d 337f 693d
00000170: 988e 723d b3d5 a8bc a579 4abd 6237 89bd
00000180: 60e9 5c3d 361c 66bd 4c3a 07bd 36cc 173c
00000190: 850e ee3b aefa 203d fd73 80bd d149 bf3c
000001a0: 6c35 003d fe53 25bd f772 84bd b27a 693d
000001b0: 3c84 c1bb f177 e9bc a0c0 54bd 1211 6abc
000001c0: 7bc9 49bd 1cc1 01bd 4c98 7bbd 6216 803d
000001d0: 6832 163d a04c 43bd 8073 2f3b b09c 463d
000001e0: 6e5d 0ebd e5f4 ab3c 19d3 6f3d 4e26 283d
000001f0: d5c5 1f3d a6d7 eebc d0fe 0a3d 90e1 753c
00000200: ebe4 363c 103e 1e3c 6eca 163b 9b74 8a3c
00000210: 168b 613d 361e d83c 3206 07bd 0b6a 3bbd
00000220: c67c 193d dc81 56bd 605c c2ba e25c 28bd
00000230: e289 fc3c c0b2 023d 35c3 0e3b 2b55 58bd
00000240: b6e9 9cbb 5bef 163a d93d babc e84e a0ba
00000250: 3567 04bd 56d9 463d 0219 fb3a 3ca0 6f3d
00000260: 8658 b1bc 8fc2 d43c 0d4c 783d 7cab debc
00000270: 46cf 66bd d22b e53c 8a4e d93b a83d 4ebd
00000280: aaba 95bc 506e a23c 35a6 29bd 5b1d 63bc
00000290: 76cc 6ebd 12bb 2d3d 499f 673d a164 393d
000002a0: a861 413d 18c2 59bd d26d 813d 1874 8bbd
000002b0: 195f c0bc 6b6a 6cbd b6ff 23bd 6483 4fbd
000002c0: 7946 e13c 1507 96bc 40ab 813d 2f71 c73c
000002d0: 6f8a 9d3c 0bd7 403d 191d b3bc b2b7 743c
000002e0: 2377 f8bb c744 c1bc f9bd 3f3c f8f2 063d
000002f0: 60be 86bc 0017 4abc 1325 1bbd 8cca 75bc
00000300: dd1d 3cbd b852 3cbd cf9d 8c3d b75b 093d
00000310: df9c 6d3c ea42 4abb 0425 08bc ce99 63bc
00000320: 7fb1 6bbd c8e5 0d3d 4a01 c0bc 9d8f 10bd
00000330: 40af 0b3d 78cd 71bc 80dd 433d bd58 4a3d
00000340: ecb0 3c3d e3c4 fcbc ca20 c23c d3e2 22bd
00000350: 3f18 31bb 570e 98bc 23c8 583d cf92 433d
00000360: 6b57 17bb d88f 71bd 11e5 cc3a 5e20 ea3c
00000370: a4be 5fbd 5627 8dbd afb6 21bd 2ea8 e3bc
00000380: 43fa 1ebd 9d00 76bd c0d8 d23c 48d8 e7bc
00000390: 60d1 ba3c 8823 073b d5d7 1dbc 0041 cfbb
000003a0: bdc5 76bc f03b 7abd 8cf0 583d 46ff eebc
000003b0: f973 ac3c a8b7 47bd dc9b ee3b 2c4b 38bd
000003c0: 1b59 a4bc ac85 283d c8c8 73bd 55cf bfba
000003d0: 9a70 4a3d 603a 33bd ebd1 5fbd 5e13 b0bc
000003e0: 22b3 9a3b e0e3 c63c f667 ddbb 40b5 d93c
000003f0: 5dc3 8cbc d923 3f3c f706 243c 700c 613b

5.weight f4 [256]
1.0075076 0.99567145 1.0097085 0.98763055 1.010848 1.0021298 1.0020072 1.007796
0.9913152 0.9951449 1.0106472 1.0106014 1.0089946 1.0051675 0.9838322 0.9985163
0.9947833 1.0052456 0.9935447 0.9939881 0.9932944 1.002397 1.0048678 1.0025673
0.9980028 1.0122042 1.0001832 1.0039921 1.0033358 0.988018 0.9946259 0.9853546
0.9952999 1.0050348 0.99546546 0.9894131 0.99343807 1.0075002 1.0107542 1.0029135
1.0060021 1.0074383 0.9939182 0.9992508 0.99964315 1.0049897 0.99839526 1.0018035
1.0068128 0.9871546 0.9940717 1.0083296 0.993849 0.9961192 0.9917733 0.99233246
0.99805164 1.0055275 1.0092642 1.0015364 0.9951358 0.9952084 1.0070864 0.9952056
0.9878939 1.000311 1.0099058 1.0008386 0.99760956 0.98766744 0.9936386 0.9929727
0.99163824 0.9995405 1.0011423 1.0107098 0.98770034 1.0095967 0.9892326 1.0002996
0.98924726 0.9946726 0.9933724 1.0071992 1.0139776 0.98559093 0.9970259 0.9995421
1.0035644 0.9946711 0.9937386 0.99475634 0.9847059 0.991219 0.9930773 1.0077008
0.98923314 0.99594486 0.9964578 0.99837583 1.0000602 1.0082921 0.9943909 0.992559
1.0114744 0.99411964 0.9965842 0.98516506 1.0064639 0.9988788 1.0030317 0.98791605
1.00214 1.000773 0.991583 1.0000285 1.0067215 0.99789 0.9933752 0.9948096
0.99205685 0.9953069 1.0030236 1.0062224 0.9906884 0.9971647 0.99405164 0.9927773
1.0080833 0.9980147 1.0012554 1.0108154 1.0060234 0.99556494 0.9998496 1.0051644
0.996197 0.9925919 1.0014153 0.99373704 1.0038025 0.9937151 0.9867796 0.9923001
0.9930183 0.98865163 0.99773574 0.99308634 0.9859124 0.99586886 0.99762636 1.0073158
1.0057455 1.0051597 1.000215 0.9839073 0.9886385 0.9945641 0.9979406 1.0011977
1.0045393 1.0050945 0.9897515 0.9947003 1.0013871 0.9847775 0.9945772 0.99001783
0.99656093 1.0057634 0.9990705 0.9860879 1.0057613 0.99240375 0.9964288 0.9944738
0.9954487 1.0029832 1.0001036 1.0160708 1.0031812 1.0070808 1.0033692 0.98868674
1.003704 1.0025305 1.0056282 0.98629194 0.99616826 0.9776539 1.0058832 1.0062009
0.99308497 0.99336326 1.0113039 0.9961291 0.99228704 0.9872102 1.0050569 1.0056899
0.99207 1.0081288 0.99449366 0.98432577 0.9945249 1.0046937 0.9911763 1.0005598
0.9919188 1.0055585 1.0024964 0.99421036 0.9978086 1.0122263 0.99211705 0.9948557
1.0081794 0.98697686 0.99408156 1.0064379 1.0112637 0.99295104 1.0118178 0.9964138
0.9986428 1.0089984 0.98576903 0.993834 1.0070095 0.99580234 0.9999463 0.9984625
1.0043619 1.0069526 1.0045046 0.98706585 1.0027183 1.0078838 0.99923193 0.9939454
0.98419094 1.0102563 0.9928962 0.99459463 0.9942035 1.009858 1.005271 1.010796
0.9976067 0.98530746 1.0018888 1.0038661 1.0096389 0.99334246 0.9954807 1.0103829
00000000: 02f6 803f 53e4 7e3f 213e 813f 5bd5 7c3f
00000010: 7863 813f ca45 803f c641 803f 76ff 803f
00000020: d5c6 7d3f d1c1 7e3f e35c 813f 635b 813f
00000030: bc26 813f 54a9 803f 6ddc 7b3f c49e 7f3f
00000040: 1eaa 7e3f e3ab 803f f258 7e3f 0176 7e3f
00000050: 8b48 7e3f 8b4e 803f 829f 803f 2054 803f
00000060: 1d7d 7f3f e88f 813f 0106 803f d082 803f
00000070: 4f6d 803f bfee 7c3f ce9f 7e3f 3340 7c3f
00000080: f9cb 7e3f fba4 803f d3d6 7e3f 2d4a 7d3f
00000090: f551 7e3f c4f5 803f 6560 813f 785f 803f
000000a0: adc4 803f bdf3 803f 6c71 7e3f e7ce 7f3f
000000b0: 9de8 7f3f 81a3 803f d596 7f3f 193b 803f
000000c0: 3edf 803f 2ab6 7c3f 7c7b 7e3f f210 813f
000000d0: e36c 7e3f ab01 7f3f dbe4 7d3f 8009 7e3f
000000e0: 5080 7f3f 20b5 803f 922f 813f 5832 803f
000000f0: 38c1 7e3f fac5 7e3f 35e8 803f cbc5 7e3f
00000100: 9de6 7c3f 310a 803f 9844 813f 7b1b 803f
00000110: 5763 7f3f c6d7 7c3f 195f 7e3f 7533 7e3f
00000120: 01dc 7d3f e3e1 7f3f 6e25 803f f05e 813f
00000130: eed9 7c3f 773a 813f 593e 7d3f d109 803f
00000140: 4f3f 7d3f dda2 7e3f a74d 7e3f e7eb 803f
00000150: 05ca 813f b04f 7c3f 173d 7f3f fee1 7f3f
00000160: cc74 803f c4a2 7e3f a765 7e3f 5aa8 7e3f
00000170: b015 7c3f 87c0 7d3f 503a 7e3f 57fc 803f
00000180: 623e 7d3f 3ef6 7e3f dc17 7f3f 8f95 7f3f
00000190: f901 803f b70f 813f 6790 7e3f 5918 7e3f
000001a0: fe77 813f a07e 7e3f 2420 7f3f c733 7c3f
000001b0: cfd3 803f 85b6 7f3f 5863 803f 11e8 7c3f
000001c0: 2046 803f 5419 803f 62d8 7d3f ef00 803f
000001d0: 40dc 803f b875 7f3f d64d 7e3f d8ab 7e3f
000001e0: 70f7 7d3f 6fcc 7e3f 1463 803f e5cb 803f
000001f0: c19d 7d3f 3046 7f3f 2b7a 7e3f a726 7e3f
00000200: e008 813f e47d 7f3f 2329 803f 6662 813f
00000210: 60c5 803f 58dd 7e3f 25f6 7f3f 3aa9 803f
00000220: c406 7f3f 811a 7e3f 602e 803f 8d65 7e3f
00000230: 9a7c 803f 1d64 7e3f 969d 7c3f 6107 7e3f
00000240: 7336 7e3f 4618 7d3f 9c6b 7f3f e83a 7e3f
00000250: c164 7c3f 43f1 7e3f 7164 7f3f b9ef 803f
00000260: 45bc 803f 13a9 803f 0c07 803f 59e1 7b3f
00000270: 6a17 7d3f c19b 7e3f 0979 7f3f 3f27 803f
00000280: be94 803f f0a6 803f 5b60 7d3f aea4 7e3f
00000290: 742d 803f 611a 7c3f 9d9c 7e3f cf71 7d3f
000002a0: 9e1e 7f3f dbbc 803f 16c3 7f3f 4270 7c3f
000002b0: c9bc 803f 2c0e 7e3f f515 7f3f d695 7e3f
000002c0: bad5 7e3f c161 803f 6503 803f 9c0e 823f
000002d0: 3e68 803f 06e8 803f 676e 803f 931a 7d3f
000002e0: 5f79 803f eb52 803f 6db8 803f a17d 7c3f
000002f0: e204 7f3f 8747 7a3f c8c0 803f 31cb 803f
00000300: d13a 7e3f 0e4d 7e3f 6872 813f 5102 7f3f
00000310: 8606 7e3f cfb9 7c3f b4a5 803f 72ba 803f
00000320: 4df8 7d3f 5d0a 813f 2397 7e3f c6fc 7b3f
00000330: 2f99 7e3f ce99 803f bbbd 7d3f 5812 803f
00000340: 64ee 7d3f 24b6 803f cd51 803f 9284 7e3f
00000350: 6270 7f3f a290 813f 62fb 7d3f ddae 7e3f
00000360: 060c 813f 84aa 7c3f 217c 7e3f f5d2 803f
00000370: 1771 813f 0a32 7e3f 3f83 813f fa14 7f3f
00000380: 0ea7 7f3f dc26 813f 5c5b 7c3f e86b 7e3f
00000390: b0e5 803f e7ec 7e3f 7bfc 7f3f 3d9b 7f3f
000003a0: ee8e 803f d3e3 803f 9b93 803f 59b0 7c3f
000003b0: 1359 803f 5602 813f aacd 7f3f 3573 7e3f
000003c0: f0f3 7b3f 1450 813f 722e 7e3f c19d 7e3f
000003d0: 1f84 7e3f 0743 813f b8ac 803f c361 813f
000003e0: 2763 7f3f 1c3d 7c3f e43d 803f af7e 803f
000003f0: d93b 813f b14b 7e3f d3d7 7e3f 3a54 813f

5.bias f4 [256]
-0.0067059943 -0.00016493897 0.01026853 0.0018573224 0.010398976 -0.003986932 0.005228406 -0.0069218893
-0.0044523915 0.0005923862 -0.008584042 -0.0074864035 -0.008812662 0.006902135 0.0044899727 0.00034866395
-0.0010039468 0.0068151546 -0.0035565589 -0.005764388 -0.005506658 -0.0047030402 0.0066725486 -0.0036298847
0.0022683286 -0.009094397 -0.0005911158 -0.0034558356 -0.0061427406 0.0059101293 -0.0023789844 0.0073704496
-0.0028884243 0.0054911347 -0.002774097 -0.0019764425 -0.0062687285 -0.006945798 -0.007915855 0.004647546
0.008336932 -0.008522798 -0.006748333 -0.007365545 0.0040616095 0.0062205708 0.0017154157 0.009045251
-0.006130831 0.009798591 -0.0060456498 -0.008316504 0.0038135757 0.006012229 -0.0034707866 -0.0025714305
-0.003748123 0.005877755 -0.009462075 -0.00802327 -0.0034589863 0.0017840198 -0.006552117 -0.0061881966
-0.00036984647 -0.0040499903 -0.007974626 -0.006446862 0.0011528906 -0.00030525733 -0.004907746 -0.0031239574
-0.0040671173 -0.004822839 0.0021939334 -0.007779259 -0.0012828194 -0.008318859 0.0076693725 -0.0065615857
0.004288657 -0.0015187871 -0.0051880823 0.0075811846 -0.009441332 -0.0035504415 0.0027172372 0.0026920584
0.008237859 -0.0031235619 -0.0010287528 0.0018368533 -0.00088527106 -0.0032536832 0.0051836367 -0.0067251017
-0.0014306282 -0.0002723426 0.007489879 0.00043894135 0.0026049763 -0.007456667 -0.006905791 -0.008579173
0.009596921 -0.006819585 -0.0056486414 -0.003190366 -0.005979671 0.0012344542 -0.0036428303 0.0014860701
-0.004520266 0.003488483 -0.0016368501 0.0040405937 -0.005961075 0.0013874326 -0.0057883975 -0.0026375006
0.0024415816 -0.0030191331 0.004658214 -0.006325419 -0.0021462822 -0.0027683508 -0.0042748707 -0.001363309
0.009656386 -0.008721412 0.0042782137 0.011044176 0.013190979 -0.0006098718 -0.008485336 -0.00583012
-0.0039251405 -0.007994394 0.0022068566 -0.0063918415 -0.0075891325 -0.006559576 7.78543e-05 0.0030454018
0.004410623 0.005342795 -0.00018857309 -0.006202516 0.0008282278 -0.00094689574 0.0036687858 0.008075827
-0.0071780467 0.009893008 0.005704905 0.0029609632 0.0037451244 -0.005438275 -0.0012695483 0.0041640736
0.005792499 -0.009310318 -0.0022499606 -0.0047532227 0.002408814 0.0015494688 -0.004639737 0.0014090296
0.00063103536 -0.0063003404 0.005040263 0.0030893153 0.0066541876 -0.008101532 -0.00019971012 -0.0026847234
-0.0059861373 -0.008046967 0.008367966 0.011399779 0.0052676857 -0.010668468 0.0053484538 0.0050695357
0.008386353 0.009426995 0.008459058 0.0024801376 0.00028506594 0.003174769 -0.006473943 -0.0057208408
-0.007352922 -0.0038014534 0.010972297 0.008341654 -0.0042854478 0.004998658 0.007033567 0.0069041927
0.0086850375 -0.0072044027 -0.007322198 -0.0010518385 -0.006487164 0.007092252 0.003818954 -0.0023905458
-0.0074823233 -0.0054974183 -0.008788417 0.004183184 -0.0051174667 -0.012245673 -0.0030204756 -0.008942027
0.009122594 0.00046337527 0.00583324 0.007053883 -0.0087910015 -0.0074753757 -0.012440814 -0.008149345
0.010677077 -0.010159625 0.008558825 -0.0062752627 -0.0071704527 0.0027760095 0.003370293 0.00898209
-0.00929216 -0.009121164 0.0059598144 0.00620096 0.004521502 -0.0068913605 -0.0017189404 -0.0026557555
-0.0055177556 0.009473694 0.0016796808 -0.0041591553 -0.0041885525 -0.007458569 -0.009176361 -0.007262811
0.00053821824 0.0072943633 -0.0049584 0.0065914826 -0.00828593 -0.0055823294 0.0051271413 -0.008584021
00000000: f5bd dbbb 78f3 2cb9 563d 283c 6671 f33a
00000010: 7760 2a3c cfa4 82bb 0c53 ab3b 04d1 e2bb
00000020: 5ee5 91bb 5d4a 1b3a 15a4 0cbc 8150 f5bb
00000030: fc62 10bc 4e2b e23b 9f20 933b e2cc b639
00000040: dd96 83ba a951 df3b 2815 69bb 31e3 bcbb
00000050: 3271 b4bb f61b 9abb 65a5 da3b 5ce3 6dbb
00000060: 3da8 143b aa00 15bc 1cf5 1aba 4d7b 62bb
00000070: 0b49 c9bb c2a9 c13b bce8 1bbb d083 f13b
00000080: b84b 3dbb faee b33b a0cd 35bb 3487 01bb
00000090: e869 cdbb 9499 e3bb 81b1 01bc 714a 983b
000000a0: a197 083c 35a3 0bbc 1f21 ddbb ab5a f1bb
000000b0: 4017 853b eed5 cb3b cdd7 e03a 8832 143c
000000c0: 23e5 c8bb 458a 203c 961a c6bb f241 08bc
000000d0: 2fed 793b 3b02 c53b 2376 63bb 7285 28bb
000000e0: 12a3 75bb 2f9a c03b d206 1bbc 0974 03bc
000000f0: 29b0 62bb c5d5 e93a 24b3 d6bb 5bc6 cabb
00000100: f4e7 c1b9 c8b5 84bb 01a8 02bc 3340 d3bb
00000110: 971c 973a f20a a0b9 28d1 a0bb 4fbb 4cbb
00000120: 7445 85bb e808 9ebb 18c8 0f3b 27e9 febb
00000130: 4724 a8ba d34b 08bc 5c4f fb3b 9202 d7bb
00000140: dd87 8c3b 0a12 c7ba ca00 aabb 966b f83b
00000150: d1af 1abc 86ae 68bb ad13 323b 3f6d 303b
00000160: 16f8 063c acb4 4cbb 37d7 86ba 92c2 f03a
00000170: 8911 68ba bf3b 55bb 7fdb a93b 3e5e dcbb
00000180: eb83 bbba 34c9 8eb9 a96d f53b b621 e639
00000190: 40b8 2a3b 0e57 f4bb f949 e2bb a98f 0cbc
000001a0: 673c 1d3c d376 dfbb 3d18 b9bb 7615 51bb
000001b0: 1ef1 c3bb 69cd a13a 8dbc 6ebb 3dc8 c23a
000001c0: bd1e 94bb 089f 643b 938b d6ba f566 843b
000001d0: 1f55 c3bb 83da b53a 99ac bdbb ebd9 2cbb
000001e0: f102 203b a6dc 45bb eea3 983b 7645 cfbb
000001f0: a4a8 0cbb 386d 35bb 3714 8cbb 0fb1 b2ba
00000200: d235 1e3c 41e4 0ebc 4230 8c3b a2f2 343c
00000210: fa1e 583c cedf 1fba 1406 0bbc 970a bfbb
00000220: 779e 80bb ebfa 02bc e9a0 103b a772 d1bb
00000230: 42ae f8bb b6f1 d6bb b645 a338 5d95 473b
00000240: fd86 903b 9d12 af3b b4bb 45b9 7a3e cbbb
00000250: 6d1d 593a 1939 78ba 0370 703b 7950 043c
00000260: d235 ebbb 4816 223c 36f0 ba3b b80c 423b
00000270: c370 753b 8f33 b2bb f966 a6ba c872 883b
00000280: 01cf bd3b 4e8a 18bc 1374 13bb ecc0 9bbb
00000290: 31dd 1d3b 8c17 cb3a ef08 98bb 30af b83a
000002a0: 116c 253a 1673 cebb ca28 a53b 1c76 4a3b
000002b0: 5f0b da3b 4abc 04bc 4769 51b9 2ff2 2fbb
000002c0: 5c27 c4bb 6dd7 03bc cb19 093c 23c6 3a3c
000002d0: 8d9c ac3b ccca 2ebc 1542 af3b 591e a63b
000002e0: ea66 093c af73 1a3c dc97 0a3c ce89 223b
000002f0: e774 9539 c90f 503b 5f23 d4bb e475 bbbb
00000300: c8f0 f0bb ce21 79bb 26c5 333c 6fab 083c
00000310: f16c 8cbb c8cb a33b d679 e63b 913c e23b
00000320: b04b 0e3c e912 ecbb 0cef efbb d8dd 89ba
00000330: 4792 d4bb 1f66 e83b 6b47 7a3b b4aa 1cbb
00000340: 472e f5bb b023 b4bb 4bfd 0fbc 1713 893b
00000350: 6cb0 a7bb 13a2 48bc 2cf3 45bb 9481 12bc
00000360: ef76 153c 2df1 f239 c424 bf3b 4224 e73b
00000370: 2208 10bc fff3 f4bb 8ed4 4bbc d584 05bc
00000380: e8ee 2e3c 8e74 26bc 503a 0c3c b8a0 cdbb
00000390: 1ef6 eabb b6ed 353b 22e0 5c3b 9e29 133c
000003a0: 253e 18bc ef70 15bc 8c4a c33b 6c31 cb3b
000003b0: 1c29 943b ecd0 e1bb 124e e1ba 2f0c 2ebb
000003c0: 4ace b4bb 8d37 1b3c bc28 dc3a 8649 88bb
000003d0: 2040 89bb 0367 f4bb 7358 16bc e0fc edbb
000003e0: 3717 0d3a 8e05 ef3b 137a a2bb 5dfd d73b
000003f0: b6c1 07bc f9eb b6bb 9401 a83b fea3 0cbc
