MACHINE_LEARNING/checkpoints/o3_model_epoch5.pt (torch, 419225 bytes, 13 tensors)

0.weight f4 [256, 12]
0	0x3e181395	0.1485122
1	0x3e3078aa	0.1723353
2	0xbd22251a	-0.039586164
3	0xbd19bd37	-0.037533965
4	0xbd88bf16	-0.06677072
5	0x3bec7f28	0.0072173066
6	0x3d2b6f1b	0.041854005
7	0x3ad5f8d6	0.0016324769
8	0x3e414238	0.18872917
9	0x3e44d4ca	0.19221798
10	0x3c8454f0	0.016153783
11	0x3de1d019	0.110260196
12	0x3e50bb18	0.2038387
13	0x3e653201	0.22382356
14	0xbe0afeab	-0.1357371
15	0xbdf3994a	-0.11894472
16	0x3d9382a6	0.072026536
17	0xbe847a64	-0.25874627
18	0x3df10468	0.117684186
19	0xbc94ac3d	-0.018148536
20	0xbe0e5303	-0.13898854
21	0xbd970c5e	-0.07375406
22	0xbe416102	-0.18884662
23	0xbdcadd92	-0.099055424
24	0x3c6c0c18	0.01440718
25	0x3e59af56	0.21258292
26	0x3d1bc319	0.038027856
27	0x3e295fce	0.16540453
28	0xbe7d3e42	-0.2473078
29	0x3d10237e	0.035190098
30	0x3e089ec8	0.1334182
31	0x3e54ca1e	0.20780227
32	0xbdd91ff3	-0.10601797
33	0xbe896ab7	-0.2683923
34	0xbe3f725b	-0.18695967
35	0xbe443066	-0.19159088
36	0xbe36b104	-0.17840964
37	0xbe077ac4	-0.13230425
38	0xbe77997b	-0.24179642
39	0x3e5d127d	0.21589084
40	0x3dd26131	0.10272444
41	0x3e21a3f4	0.157852
42	0x3e904093	0.28174266
43	0xbe09d552	-0.13460281
44	0xbdb3ff7a	-0.08788963
45	0xbd3467c0	-0.044044256
46	0xbe79ca0e	-0.24393484
47	0xbe5f3856	-0.21798834
48	0x3d27c465	0.04095878
49	0xbe213288	-0.15741932
50	0x3e8e10e4	0.27747262
51	0xbe8f7a3c	-0.28022945
52	0x3e38e143	0.1805468
53	0xbd0386c7	-0.032110956
54	0xbe6ea505	-0.23305137
55	0x3de19e28	0.11016494
56	0x3e1b6d50	0.15178418
57	0x3a31b675	0.00067792024
58	0x3e739c9a	0.23790208
59	0xbc64c18b	-0.01396216
60	0xbbb8f13a	-0.005643991
61	0xbe02decf	-0.12780307
62	0x3d9f9a56	0.07793109
63	0xbdfbec86	-0.12300973
64	0x3d8c3843	0.068466686
65	0x3e64813e	0.22314927
66	0xbe2f042d	-0.17091437
67	0x3e101842	0.14071754
68	0x3e7f3fc0	0.24926662
69	0x3c610801	0.013734818
70	0xbe509336	-0.20368657
71	0xbe3dccbc	-0.18535131
72	0x3d0d2bbb	0.034465533
73	0xbe089675	-0.13338645
74	0x3e2ca56e	0.16859981
75	0xbda8d92d	-0.08244548
76	0xbe520819	-0.20510902
77	0x3e5e27c6	0.2169486
78	0xbdd51414	-0.1040422
79	0xbd12be93	-0.035826277
80	0xbace0492	-0.0015717915
81	0x3ce20478	0.027590021
82	0xbd88a19b	-0.06671449
83	0x3e79ff08	0.24413693
84	0xbe4cb738	-0.19991767
85	0xbdf94683	-0.12171652
86	0xbe08b5e1	-0.13350631
87	0x3be441d7	0.0069658565
88	0xbe5a9c82	-0.21348765
89	0xbe8158d4	-0.25263083
90	0xbe7a979d	-0.24471898
91	0xbe84042a	-0.25784427
92	0x3d974e23	0.0738795
93	0x3e8ff90d	0.28119698
94	0x3d97e974	0.074175745
95	0xbe256a10	-0.16153741
96	0x3e62bc3a	0.22142115
97	0x3e59def7	0.2127646
98	0xbdc35d24	-0.095392495
99	0x3e4b847a	0.19874755
100	0x3e1b7636	0.15181813
101	0x3e39be6f	0.18139051
102	0x3d87171d	0.065962054
103	0xbe81d47c	-0.25357425
104	0xbabfca05	-0.001463235
105	0x3dda2cf3	0.10653105
106	0x3e62a478	0.22133052
107	0x3e0e2025	0.1387945
108	0xbe347af3	-0.17625026
109	0xbe719d86	-0.23595247
110	0xbd02fbbf	-0.031978365
111	0x3c0cbbc1	0.008589686
112	0x3e888bd2	0.26669174
113	0xbe93a86d	-0.28839436
114	0x3e82b986	0.25532168
115	0xbd86d94d	-0.065844156
116	0xbe7865d5	-0.24257596
117	0xbe816c1d	-0.25277796
118	0x3d34f3cd	0.04417782
119	0x3dce0778	0.10060018
120	0x3e88f0f6	0.2674634
121	0xbcb2147b	-0.021738281
122	0x3d53a384	0.051669613
123	0x3e3bc0b5	0.1833523
124	0xbe529a1d	-0.20566602
125	0x3dd601e8	0.10449582
126	0x3d6fccd6	0.058544956
127	0xbbb59116	-0.005540977
128	0x3d86449a	0.065560535
129	0xbe0030c8	-0.12518609
130	0xbe408446	-0.18800458
131	0xbdcf0880	-0.10109043
132	0xbe681bb6	-0.22666821
133	0x3e8c389c	0.2738694
134	0xbe1f889f	-0.1557946
135	0x3e841faa	0.25805408
136	0x3e8f790b	0.28022036
137	0x3e55a716	0.2086452
138	0xbd397f4c	-0.045287415
139	0x3e643d45	0.22288997
140	0xbe55cc14	-0.20878631
141	0x3d819d06	0.06328778
142	0xbd0ea0f5	-0.03482147
143	0xbd2590f8	-0.040421456
144	0xbe2fdbb9	-0.17173661
145	0x3e8e7134	0.27820742
146	0xbe0b2850	-0.13589597
147	0x3df52ff0	0.11972034
148	0xbe3aa9a6	-0.18228778
149	0x3e478739	0.19485177
150	0x3d3e62e4	0.04648103
151	0x3e4df733	0.2011383
152	0xbdd95c7b	-0.106133424
153	0xbe05f2f7	-0.13080965
154	0x3e80a6c3	0.2512723
155	0xbe7be385	-0.2459851
156	0xbdc07bd6	-0.0939862
157	0xbc1f7eb7	-0.009734801
158	0xbe91abd2	-0.284514
159	0x3e87a4f3	0.26493034
160	0xbe07b916	-0.13254198
161	0x3d1c69a4	0.038186684
162	0x3e06c27d	0.13160129
163	0xbe4797cd	-0.19491501
164	0xbe388986	-0.18021211
165	0x3e7de7ff	0.2479553
166	0xbe0f570e	-0.13998052
167	0x3d383820	0.0449754
168	0xbd4af0ad	-0.049545933
169	0xbe3cc46e	-0.18434307
170	0xbe323ab6	-0.17405209
171	0x3e55a191	0.20862414
172	0x3bc2d915	0.0059462884
173	0xbe0586ea	-0.13039747
174	0xbc931a25	-0.017956803
175	0xbe6e9d96	-0.23302302
176	0xbe899008	-0.268677
177	0xbc7a7108	-0.015285738
178	0xbd8ebf5e	-0.06970094
179	0x3da1c7fa	0.078994706
180	0x3d9baf31	0.076017745
181	0x3e0ec1fc	0.13941187
182	0x3e093860	0.13400412
183	0xbd5f3a5b	-0.05449901
184	0x3d96a03b	0.0735478
185	0x3dad3951	0.08458198
186	0xbe041b76	-0.129011
187	0x3c132e77	0.008983246
188	0xbdbded13	-0.09273734
189	0x3e2e4e99	0.1702217
190	0x3e880953	0.26569614
191	0x3e76d82a	0.24105898
192	0x3e3053da	0.17219487
193	0xbbc8f23a	-0.0061323913
194	0xbc7953d4	-0.01521774
195	0x3dc536cb	0.096295916
196	0x3e7053d2	0.23469475
197	0xbd910a7b	-0.07082077
198	0x3e5dd2c5	0.21662433
199	0xbe16c2b3	-0.1472271
200	0xbcceba92	-0.025235448
201	0x3e205b3d	0.15659805
202	0x3e73830d	0.2378046
203	0x3d2d9a1c	0.0423833
204	0xbd66fc1f	-0.056392785
205	0x3e8d44b1	0.2759147
206	0xbda1aeb0	-0.07894647
207	0x3e09bca5	0.13450868
208	0x3e29d4cc	0.16585082
209	0x3d0791d2	0.03309805
210	0x3e8a0898	0.26959682
211	0xbde15725	-0.110029496
212	0xbe810b64	-0.25204003
213	0xbda775c9	-0.081767626
214	0x3e61935b	0.22028868
215	0xbd4065e6	-0.046972178
216	0x3db6431b	0.08899518
217	0x3e34acbf	0.17644022
218	0xbce460e3	-0.02787823
219	0x3e678ad1	0.22611548
220	0x3d16afcf	0.036788758
221	0xbe8484b2	-0.25882488
222	0xbd147dd7	-0.036252823
223	0x3e86e7bc	0.26348674
224	0xbe4ca8d2	-0.19986275
225	0x3e26ce77	0.16289698
226	0xbe09ce7a	-0.13457671
227	0x3dc90f8c	0.098174185
228	0xbe69734c	-0.22797889
229	0x3df20583	0.118174575
230	0xbd7657cc	-0.060142323
231	0xbd841029	-0.06448395
232	0x3d419c7f	0.047268387
233	0x3e8599cd	0.26093903
234	0xbdf6a0b3	-0.1204237
235	0x3d580eb8	0.052748412
236	0xba3291eb	-0.00068119046
237	0xbe63d233	-0.22248153
238	0xbd4b7da0	-0.049680352
239	0xbe3f68ef	-0.18692373
240	0x3bcf3893	0.006323883
241	0xbe71c125	-0.23608835
242	0x3e6824c8	0.22670281
243	0xbc502d13	-0.012706059
244	0xbe27bfe5	-0.16381796
245	0xbcc1b9a4	-0.02364809
246	0xbe205054	-0.15655643
247	0x3ddaa823	0.10676601
248	0xbd82a84f	-0.063797586
249	0xbd4f81cb	-0.05066089
250	0xbe8a2feb	-0.26989684
251	0xbd818480	-0.063241005
252	0x3e604f5b	0.21905272
253	0xbe7c73af	-0.24653505
254	0xbe93a491	-0.28836492
255	0xbddef15e	-0.10885881

0.bias f4 [256]
0	0xbdc617fe	-0.09672545
1	0x3e8292fe	0.2550277
2	0xbdc027b9	-0.093825765
3	0xbcdd1809	-0.026989
4	0xbd8436ed	-0.06455789
5	0xbe58a6ff	-0.21157454
6	0x3e72b5af	0.2370212
7	0x3e82d6b6	0.25554436
8	0xbe679c52	-0.22618225
9	0xbd95e791	-0.073195584
10	0x3e015344	0.1262942
11	0x3d948c5f	0.07253336
12	0xbe1e3824	-0.15451103
13	0xbe2979c7	-0.1655036
14	0xbe01b8e6	-0.1266819
15	0x3d255662	0.040365584
16	0xbe92062f	-0.28520343
17	0x3d0040a3	0.031311642
18	0xbe20be7f	-0.15697668
19	0xbe9351ed	-0.28773442
20	0x3e560535	0.20900424
21	0xbd45b7c0	-0.04827094
22	0x3dabbd94	0.083857685
23	0xbe593fa7	-0.21215688
24	0xbe34dc1e	-0.17662093
25	0xbe8a734d	-0.27041093
26	0x3de61f3b	0.112364255
27	0x3dd51738	0.10404819
28	0x3d89f575	0.0673627
29	0xbe873b7e	-0.26412576
30	0x3e712777	0.23550211
31	0xbd89c6c5	-0.067273654
32	0x3d375d79	0.044766877
33	0xbdbb73ab	-0.09152921
34	0x3ce5d60a	0.028056163
35	0x3db41160	0.087923765
36	0xbe8a5d5d	-0.27024356
37	0x3e68748a	0.22700706
38	0xbd9b6890	-0.07588303
39	0x3d32647a	0.043552853
40	0x3d41d1f0	0.047319353
41	0xbb8c88d1	-0.0042887707
42	0x3e334c3a	0.17509547
43	0x3e85886f	0.26080653
44	0x3e4841f5	0.1955641
45	0x3e16f53b	0.14741985
46	0x3e88a538	0.26688552
47	0xbc998701	-0.018741133
48	0x3b233876	0.002490548
49	0x3e5d4210	0.21607232
50	0x3e7e5713	0.24837904
51	0x3ccab2fe	0.024743553
52	0x3d92dce4	0.07171038
53	0xbe8e024b	-0.27736124
54	0xbe3ff2ca	-0.1874496
55	0x3e1ada3c	0.15122312
56	0x3e40b57c	0.18819231
57	0xbde21b54	-0.11040369
58	0xbe173a82	-0.14768413
59	0x3e4b3cff	0.19847487
60	0xbe8f0223	-0.27931318
61	0x3e6197dc	0.22030586
62	0x3e8d02b5	0.27541128
63	0xbe434f6f	-0.1907327
64	0x3e153cf5	0.14574035
65	0xbdaa6608	-0.08320242
66	0x3e4c80f7	0.19971071
67	0xbe437f59	-0.19091548
68	0x3e4fdab6	0.20298275
69	0xbe2144fc	-0.15748972
70	0xbdf9d661	-0.12199093
71	0xbe2a681c	-0.16641277
72	0x3e12f555	0.14351399
73	0x3d765337	0.060137954
74	0xbc561a02	-0.013067724
75	0xbe7999ee	-0.24375126
76	0xbe8c80e5	-0.2744209
77	0x3e05f9e1	0.13083602
78	0xbe7e6d4b	-0.2484638
79	0xbd198149	-0.03747681
80	0x3d80af7d	0.06283472
81	0x3d136388	0.035983592
82	0x3e7d1e3b	0.24718563
83	0x3e16c8f7	0.147251
84	0xbc976a26	-0.018483233
85	0x3d884171	0.06653107
86	0xbded6ee9	-0.1159342
87	0x3deccedd	0.115628935
88	0xbe4da181	-0.2008114
89	0xbdf26039	-0.11834759
90	0x3e7f1dbf	0.24913691
91	0x3d8f7c4c	0.070061296
92	0x3d59a2d0	0.053133786
93	0x3e3c43e6	0.18385276
94	0xbe6dfe7e	-0.23241612
95	0x3cbb6c1e	0.022878703
96	0xbe8c35c8	-0.27384782
97	0xbe4ab3dc	-0.19795173
98	0x3e2073ea	0.15669218
99	0xbddb3cb2	-0.10704936
100	0xbe48eceb	-0.19621627
101	0xbd902450	-0.07038176
102	0x3e44092d	0.19144125
103	0x3e6d3cb2	0.23167685
104	0xbd7633d9	-0.06010804
105	0xbe00e19d	-0.12586065
106	0x3e6b20d3	0.2296174
107	0x3e4af283	0.19819073
108	0xbdfa3a32	-0.12218131
109	0x3e2dae64	0.16961056
110	0xbe72d57d	-0.23714252
111	0x3d9a9948	0.07548767
112	0xbe8075af	-0.25089785
113	0xbe700830	-0.23440623
114	0xbe3514c7	-0.17683707
115	0xbe87373b	-0.26409325
116	0x3cd016f6	0.025401574
117	0x3d8c6a27	0.068561845
118	0x3e041178	0.12897289
119	0x3e651f80	0.22375298
120	0xbe9185a8	-0.28422284
121	0xbddfce9a	-0.10928078
122	0xbd969b3b	-0.073538266
123	0x3c300edb	0.010745729
124	0xbe73d16b	-0.23810355
125	0xbdad4377	-0.084601335
126	0x3c3ba5e5	0.011453127
127	0x3c4bb230	0.01243262
128	0xbe782045	-0.2423106
129	0xbdedbb65	-0.11608008
130	0xbe777b4b	-0.24168126
131	0x3e0a93fe	0.13533017
132	0x3e806526	0.2507717
133	0x3e6d0a50	0.23148465
134	0xbcc89eb5	-0.02448974
135	0x3e44c1e6	0.19214591
136	0xbe1c40e6	-0.15259132
137	0x3d9db63b	0.07700773
138	0x3e8300c7	0.2558653
139	0x3e06e298	0.13172376
140	0xbe17e933	-0.14835052
141	0xbe3ce52e	-0.184468
142	0xbe708160	-0.23486853
143	0xbcbee1cf	-0.023301033
144	0x3c80bcbe	0.015715
145	0xbbcfd61d	-0.006342663
146	0x3d9dc9f2	0.07704534
147	0xbe88e227	-0.2673504
148	0x3e4e77ae	0.20162842
149	0x3e6f28d2	0.23355415
150	0x3e138f34	0.14410096
151	0xbc470dd5	-0.012149294
152	0x3e8b7721	0.27239326
153	0xbd55721a	-0.05211077
154	0xbd902138	-0.07037586
155	0x3c954cbd	0.018225068
156	0x3b869fd7	0.00410841
157	0x3daca8fe	0.0843067
158	0x3d66498a	0.056222476
159	0xbda1f6fd	-0.079084374
160	0x3d67e5c8	0.05661562
161	0xbe1f4bb8	-0.15556228
162	0xbe7a2287	-0.24427234
163	0xbe64bd09	-0.22337736
164	0xbda76d8b	-0.081751905
165	0xbdf38926	-0.11891393
166	0x3d69607e	0.056976788
167	0x3df2783c	0.11839339
168	0x3e6faf53	0.23406725
169	0x3e89390d	0.2680134
170	0xbe88f3c2	-0.26748472
171	0xbe527168	-0.20551074
172	0x3e7dc1ef	0.24781011
173	0xbdfa2c72	-0.122155085
174	0xbe1b9639	-0.15194024
175	0xbd704e6b	-0.058668535
176	0x3e61e635	0.22060473
177	0xbe49e827	-0.19717465
178	0x3e216798	0.15762174
179	0xbe8b917a	-0.27259427
180	0x3e579cf2	0.21055964
181	0xbe48a7cc	-0.1959526
182	0xbe76eff3	-0.24114971
183	0x3e3baf08	0.18328488
184	0x3e6e93bb	0.23298542
185	0xbe546dfd	-0.20745082
186	0x3e1c6d56	0.15276083
187	0x3e42ee7e	0.1903629
188	0xbe88ee8e	-0.26744503
189	0xbe169494	-0.14705116
190	0xbdac5d90	-0.08416283
191	0x3da4af62	0.08041264
192	0x3e47d955	0.195165
193	0x3cf1799a	0.02947693
194	0x3cec8b9e	0.028875168
195	0x3cfd0ebb	0.030890813
196	0x3e7b0236	0.24512562
197	0x3e261688	0.16219532
198	0x3dd05b46	0.10173659
199	0xbe29bd37	-0.16576086
200	0xbd81cae3	-0.06337526
201	0xbe883931	-0.26606134
202	0x3e11160f	0.14168571
203	0x3e476a77	0.19474207
204	0xbdebce16	-0.11513917
205	0xbe701c1a	-0.2344822
206	0xbe8ee679	-0.27910212
207	0x3d34ced1	0.044142548
208	0xbe0abc6a	-0.13548437
209	0xbc7bf0dd	-0.0153772505
210	0x3c33b82b	0.010969202
211	0xbe53cb70	-0.20683074
212	0x3e2398f2	0.15976313
213	0x3e90f9dc	0.28315628
214	0xbe38d882	-0.18051341
215	0x3d862b58	0.06551236
216	0x3e289457	0.16462837
217	0xbe397b71	-0.18113495
218	0x3d9d5206	0.0768166
219	0xbe8684e2	-0.26273257
220	0xbd7b4e35	-0.06135388
221	0x3e8b3bc5	0.27194038
222	0xbc4acece	-0.012378408
223	0xbe897373	-0.26845893
224	0x3c9c879b	0.01910763
225	0xbda4309d	-0.08017085
226	0x3e4e26fe	0.20132062
227	0x3dd8738a	0.10568912
228	0x3e5d3f49	0.21606173
229	0x3cd0911b	0.025459817
230	0xbe3970a4	-0.18109375
231	0x3e682c4e	0.22673151
232	0x3d087493	0.0333143
233	0xbe8dbebd	-0.27684584
234	0x3e60b521	0.21944095
235	0xbe8de2bf	-0.27712056
236	0x3d9e5c22	0.07732417
237	0xbd6bb47e	-0.057545178
238	0xbe622541	-0.22084524
239	0x3d6f2e13	0.05839355
240	0xbcc289e9	-0.023747401
241	0xbe5859a5	-0.21127947
242	0xbe0c94b7	-0.13728605
243	0x3d51d5f6	0.05122944
244	0xbe82be05	-0.25535598
245	0x3e57cb9c	0.21073765
246	0xbd1ad79c	-0.037803277
247	0x3e3ac627	0.18239652
248	0x3df6dc85	0.120537795
249	0xbe62f936	-0.22165379
250	0x3e875d6e	0.2643847
251	0xbe91bd2a	-0.28464633
252	0x3dd219f0	0.102588534
253	0x3e3e6572	0.18593386
254	0xbdaa4e64	-0.08315733
255	0xbe3d8a7c	-0.18509859

1.weight f4 [256]
0	0x3f80db0f	1.0066851
1	0x3f80192f	1.0007685
2	0x3f811a5c	1.0086169
3	0x3f7d4e9f	0.9894809
4	0x3f80a1d1	1.0049382
5	0x3f80ea82	1.0071566
6	0x3f7e831b	0.994188
7	0x3f8077bb	1.0036539
8	0x3f8135cb	1.0094541
9	0x3f807623	1.0036052
10	0x3f7ddb13	0.99162406
11	0x3f7eda70	0.9955206
12	0x3f80550e	1.0025957
13	0x3f80e4ca	1.0069821
14	0x3f80c472	1.005995
15	0x3f80fc95	1.0077082
16	0x3f800191	1.0000478
17	0x3f808a6c	1.0042243
18	0x3f7ef309	0.9958959
19	0x3f811c39	1.0086738
20	0x3f80a0fd	1.004913
21	0x3f7e348f	0.9929895
22	0x3f80c63c	1.0060496
23	0x3f7cf1dc	0.9880655
24	0x3f80a3f3	1.0050033
25	0x3f7fe319	0.999559
26	0x3f7f8632	0.9981414
27	0x3f7f6d11	0.997758
28	0x3f80b21a	1.0054352
29	0x3f7e76a8	0.99399805
30	0x3f7fa2d0	0.9985781
31	0x3f80e3b8	1.0069494
32	0x3f7f20f1	0.9965964
33	0x3f7e6f60	0.99388695
34	0x3f8079d3	1.0037178
35	0x3f8129de	1.0090902
36	0x3f7ea984	0.9947741
37	0x3f7cf602	0.9881288
38	0x3f80b10e	1.0054033
39	0x3f80f93b	1.0076059
40	0x3f8069fd	1.0032345
41	0x3f7f2959	0.99672467
42	0x3f806c59	1.0033065
43	0x3f80ff6f	1.0077952
44	0x3f80f7e3	1.0075649
45	0x3f8096d5	1.004603
46	0x3f80940c	1.004518
47	0x3f806015	1.0029322
48	0x3f7ee2c6	0.9956478
49	0x3f7ee828	0.9957299
50	0x3f8035e2	1.0016444
51	0x3f7e6593	0.9937374
52	0x3f7f4848	0.9971967
53	0x3f7f1710	0.99644566
54	0x3f7e4455	0.99323016
55	0x3f7fffc6	0.99999654
56	0x3f7e3a13	0.99307364
57	0x3f7e2b8f	0.99285215
58	0x3f8106e9	1.0080234
59	0x3f7e6f5f	0.9938869
60	0x3f7e3afb	0.9930875
61	0x3f7e27f2	0.992797
62	0x3f7e87bc	0.99425864
63	0x3f80740f	1.0035418
64	0x3f806e45	1.0033652
65	0x3f817616	1.0114162
66	0x3f817f0c	1.0116897
67	0x3f7eb2d1	0.994916
68	0x3f80b686	1.0055702
69	0x3f7f7d22	0.9980031
70	0x3f807625	1.0036055
71	0x3f7e04b7	0.99225944
72	0x3f7c146c	0.9846866
73	0x3f7e2d08	0.9928746
74	0x3f814989	1.0100566
75	0x3f811122	1.0083354
76	0x3f801e04	1.000916
77	0x3f812556	1.0089519
78	0x3f7f703b	0.99780625
79	0x3f7fffc4	0.9999964
80	0x3f7fdf50	0.9995012
81	0x3f7e361f	0.9930133
82	0x3f7e4322	0.99321187
83	0x3f7f1bc5	0.9965175
84	0x3f7f85c5	0.9981349
85	0x3f80941b	1.0045198
86	0x3f7e26fb	0.9927823
87	0x3f7e0db4	0.9923966
88	0x3f81094f	1.0080966
89	0x3f7ed065	0.99536735
90	0x3f8002d5	1.0000864
91	0x3f805ac1	1.0027696
92	0x3f817dec	1.0116553
93	0x3f7fe2a7	0.9995522
94	0x3f7fcd24	0.99922395
95	0x3f7f61a9	0.9975839
96	0x3f7fa20d	0.99856645
97	0x3f8128f2	1.009062
98	0x3f80d74c	1.0065703
99	0x3f7c8063	0.986334
100	0x3f7e56e0	0.9935131
101	0x3f8107ae	1.0080469
102	0x3f7deb68	0.99187326
103	0x3f7f3310	0.9968729
104	0x3f807fab	1.0038961
105	0x3f7cb5dd	0.98715
106	0x3f8103a8	1.0079241
107	0x3f7ec447	0.99518245
108	0x3f80a0f2	1.0049117
109	0x3f7e2a7b	0.9928357
110	0x3f7dfc3a	0.9921299
111	0x3f8103d1	1.007929
112	0x3f80ac6b	1.0052618
113	0x3f811299	1.00838
114	0x3f7d2866	0.9888977
115	0x3f7dc540	0.99129105
116	0x3f8071e1	1.0034753
117	0x3f80c2f3	1.0059494
118	0x3f7e0833	0.9923126
119	0x3f80c437	1.005988
120	0x3f7daea2	0.99094594
121	0x3f816141	1.0107805
122	0x3f8042f4	1.0020432
123	0x3f80aecb	1.0053343
124	0x3f7eb674	0.9949715
125	0x3f80aeb2	1.0053313
126	0x3f80d4c5	1.0064932
127	0x3f7d9b23	0.99064845
128	0x3f7ecb42	0.99528897
129	0x3f8105d6	1.0079906
130	0x3f814873	1.0100235
131	0x3f7eb520	0.99495125
132	0x3f813f0e	1.0097368
133	0x3f7e62a8	0.9936929
134	0x3f80a1fc	1.0049434
135	0x3f80bcbd	1.0057598
136	0x3f7db4fb	0.9910428
137	0x3f80431c	1.002048
138	0x3f80d913	1.0066246
139	0x3f7de9b4	0.9918473
140	0x3f7f1f33	0.9965698
141	0x3f7f7aeb	0.9979693
142	0x3f80baf0	1.0057049
143	0x3f7e6414	0.9937146
144	0x3f7e4e02	0.9933778
145	0x3f7e963e	0.99448
146	0x3f811a60	1.0086174
147	0x3f7fa018	0.9985366
148	0x3f7de220	0.99173164
149	0x3f7f97be	0.99840915
150	0x3f81108f	1.0083178
151	0x3f80bd64	1.0057797
152	0x3f7e380a	0.9930426
153	0x3f80b8e3	1.0056423
154	0x3f7c4e2c	0.9855678
155	0x3f80216d	1.0010201
156	0x3f80c678	1.0060568
157	0x3f81214d	1.0088288
158	0x3f7daad3	0.9908878
159	0x3f80e8aa	1.0071003
160	0x3f7dfb61	0.992117
161	0x3f7fe445	0.99957687
162	0x3f800066	1.0000122
163	0x3f7ea91d	0.99476796
164	0x3f80eaa8	1.0071611
165	0x3f80f88a	1.0075848
166	0x3f81162d	1.0084893
167	0x3f804790	1.0021839
168	0x3f80b854	1.0056252
169	0x3f7f842c	0.99811053
170	0x3f7ece83	0.9953386
171	0x3f808a47	1.0042199
172	0x3f7f1403	0.9963991
173	0x3f7ff65d	0.99985296
174	0x3f809faa	1.0048726
175	0x3f804e77	1.0023946
176	0x3f7ef7a2	0.9959661
177	0x3f80ef86	1.0073097
178	0x3f80da50	1.0066624
179	0x3f80caec	1.0061927
180	0x3f8163b4	1.0108552
181	0x3f7e0958	0.9923301
182	0x3f7fb50d	0.99885637
183	0x3f7ec808	0.99523973
184	0x3f807eed	1.0038735
185	0x3f7ff824	0.9998801
186	0x3f802599	1.0011474
187	0x3f80483e	1.0022047
188	0x3f7f1cce	0.9965333
189	0x3f80b75e	1.0055959
190	0x3f800e6a	1.0004399
191	0x3f809c37	1.0047673
192	0x3f7f6375	0.99761134
193	0x3f7f6d82	0.9977647
194	0x3f801ea0	1.0009346
195	0x3f80c6ab	1.0060629
196	0x3f816f32	1.0112059
197	0x3f818d78	1.0121298
198	0x3f80bfd4	1.0058541
199	0x3f7dad2d	0.9909237
200	0x3f7e3605	0.9930118
201	0x3f8008a0	1.0002632
202	0x3f801cbc	1.0008769
203	0x3f7e41ee	0.9931935
204	0x3f814f16	1.010226
205	0x3f8070c6	1.0034416
206	0x3f80b56f	1.0055369
207	0x3f7e3283	0.99295825
208	0x3f7e50bd	0.99341947
209	0x3f7d60a4	0.98975587
210	0x3f800d63	1.0004085
211	0x3f7e49da	0.9933144
212	0x3f7da83b	0.99084824
213	0x3f7fe0ee	0.9995259
214	0x3f7df719	0.99205166
215	0x3f7f582f	0.9974393
216	0x3f8128e0	1.0090599
217	0x3f80c4d3	1.0060066
218	0x3f7ffee1	0.9999829
219	0x3f7d9b75	0.99065334
220	0x3f80b660	1.0055656
221	0x3f7e2d89	0.9928823
222	0x3f80fa4d	1.0076386
223	0x3f80fbfd	1.0076901
224	0x3f7e69b3	0.99380034
225	0x3f805ed7	1.0028943
226	0x3f7e0e47	0.99240535
227	0x3f81031b	1.0079073
228	0x3f7e1447	0.9924969
229	0x3f7e62eb	0.99369687
230	0x3f7ed171	0.9953833
231	0x3f80cd85	1.006272
232	0x3f807540	1.0035782
233	0x3f7eb95a	0.99501574
234	0x3f7e8edc	0.99436736
235	0x3f7f0b00	0.9962616
236	0x3f7e9273	0.99442214
237	0x3f7f66fa	0.99766505
238	0x3f7f5ff2	0.99755776
239	0x3f7ff175	0.9997781
240	0x3f80c117	1.0058926
241	0x3f80cddc	1.0062823
242	0x3f7c89ef	0.9864797
243	0x3f7fdfef	0.9995107
244	0x3f7eaed2	0.99485505
245	0x3f810295	1.0078913
246	0x3f80c56f	1.0060252
247	0x3f806a35	1.0032412
248	0x3f7e9622	0.99447834
249	0x3f7ea13a	0.9946476
250	0x3f7e6798	0.9937682
251	0x3f7e8074	0.99414754
252	0x3f80541a	1.0025666
253	0x3f7f4b90	0.99724674
254	0x3f7f5318	0.99736166
255	0x3f7e38b9	0.993053

1.bias f4 [256]
0	0x3bdf53cd	0.0068154098
1	0x3b08441e	0.0020792554
2	0x3c0d9988	0.008642562
3	0x3c2a138c	0.010380637
4	0x3ba3475b	0.0049828715
5	0x3c0fd550	0.008778885
6	0xbbadba91	-0.0053017815
7	0xbb7089ce	-0.0036703232
8	0x3c185188	0.009296782
9	0xbb65e586	-0.0035079434
10	0xbc0befee	-0.00854109
11	0x3b90789e	0.00440891
12	0xbb2bb808	-0.002620222
13	0xbbedee7f	-0.007261097
14	0xbbc47fce	-0.005996681
15	0x3c0218a2	0.007940443
16	0x397bdc3b	0.00024019268
17	0xbb9028bf	-0.0043993886
18	0xbb8383d5	-0.0040135183
19	0xbc0fbff8	-0.008773796
20	0x3b797f80	0.003807038
21	0xbbd1b3c1	-0.006399602
22	0xbbd16650	-0.0063903704
23	0xbbdcd788	-0.0067395605
24	0xbb96a1f1	-0.0045969416
25	0xb8dbc0d6	-0.00010478652
26	0x3ab1314b	0.0013518719
27	0xbad89155	-0.0016522805
28	0xbbb3cab2	-0.0054868096
29	0xbbc3eb35	-0.0059789666
30	0xbab2efef	-0.0013651828
31	0xbbebce32	-0.0071962113
32	0x3b761154	0.003754695
33	0x3bca5d9c	0.00617571
34	0x3b792002	0.0038013463
35	0x3c06bfeb	0.008224468
36	0x3ba681b9	0.005081382
37	0x3c486852	0.012231903
38	0x3bb1cd49	0.005426083
39	0xbbf8bd84	-0.0075909514
40	0x3b6c6128	0.0036068652
41	0xbbcf4a27	-0.0063259783
42	0x3babd965	0.0052444213
43	0x3b588246	0.0033036633
44	0x3bff1d55	0.007785479
45	0x3bfeb667	0.007773209
46	0x3b93afb9	0.0045070318
47	0xbb5bc567	-0.003353441
48	0x3b9f08fd	0.0048533664
49	0xbb592104	-0.003313125
50	0xbade9328	-0.0016981112
51	0x3bf19ff2	0.0073738033
52	0xbb21e205	-0.0024701369
53	0xbb656f08	-0.0035008807
54	0xbbdc9b83	-0.0067324056
55	0x3885064a	6.3431056e-05
56	0xbbe0057e	-0.006836592
57	0xbb95bdc6	-0.004569742
58	0x3be44156	0.0069657965
59	0x3bbdb2c2	0.005789132
60	0x3be10595	0.0068671205
61	0xbbe8b8c9	-0.007102106
62	0xbbb0c43f	-0.005394488
63	0xbb663aaa	-0.0035130181
64	0x3b29810e	0.0025864276
65	0xbc37118a	-0.011173615
66	0xbc3edfbc	-0.011650022
67	0x3b9c6e16	0.0047738655
68	0x3bb6d2b1	0.0055793156
69	0x3bac4316	0.0052570207
70	0xbbd8439e	-0.0065998575
71	0x3bf9cea5	0.007623511
72	0xbc74f3f9	-0.014950746
73	0xbbe87a43	-0.007094653
74	0x3c1b4eed	0.009479267
75	0xbc04284a	-0.008066246
76	0xba859669	-0.001019192
77	0xbc119214	-0.008884925
78	0x3b0881ad	0.0020829246
79	0x3bbeb3bc	0.005819766
80	0xba9d0349	-0.0011979128
81	0xbbc9b620	-0.006155744
82	0xbbc9f880	-0.0061636567
83	0x3b9385e9	0.0045020473
84	0xb947b425	-0.00019045228
85	0x3ba3fb2a	0.0050043063
86	0xbbdd2ba1	-0.0067495857
87	0x3bf5d5a6	0.0075022755
88	0x3c04edbf	0.008113324
89	0xbb96d365	-0.004602837
90	0x3b3096c6	0.0026945337
91	0x3c129a78	0.008947961
92	0xbc35e707	-0.0111024445
93	0xb9979c50	-0.00028917426
94	0x3a004192	0.0004892583
95	0x3b5c68ab	0.0033631723
96	0xbacae184	-0.0015478586
97	0xbc13ccda	-0.009021008
98	0xbbdb38e4	-0.0066901315
99	0x3c5de007	0.013542182
100	0x3bcaadcc	0.006185269
101	0xbc03849c	-0.008027222
102	0xbc0580b1	-0.008148358
103	0x3b4c7900	0.0031200051
104	0xba295568	-0.0006459565
105	0x3c097f36	0.008392146
106	0xbc0177ba	-0.00790208
107	0xbb98c7b6	-0.0046624793
108	0xbbb10f08	-0.005403403
109	0xbbe9787e	-0.0071249595
110	0x3c01ac66	0.007914638
111	0x3c049f16	0.00809457
112	0xbc0e3579	-0.008679741
113	0x3c0c83b6	0.008576324
114	0x3c01d029	0.007923164
115	0xbbcb4505	-0.006203296
116	0xbb6d865b	-0.0036243412
117	0x3b89bd84	0.0042035
118	0xbb387b3d	-0.0028149628
119	0x3bbfe396	0.005855988
120	0xbc0bb448	-0.008526869
121	0xbc3e806a	-0.011627296
122	0xbb08b49c	-0.0020859605
123	0xbbae259f	-0.0053145434
124	0x3b96733f	0.004591375
125	0x3bf44f44	0.0074557383
126	0xbbfe512b	-0.007761141
127	0xbb6e9a59	-0.0036407916
128	0xbb95619c	-0.004558755
129	0x3bcec2c6	0.00630984
130	0xbc1dde60	-0.009635538
131	0xbb27dd1c	-0.002561397
132	0x3c218dab	0.009860436
133	0x3bc52a3d	0.006016998
134	0x3ba34f38	0.004983809
135	0x3c22a76a	0.00992761
136	0xbc13942f	-0.009007498
137	0x3b197142	0.0023413454
138	0xbbd3e29f	-0.0064662243
139	0xbc01ccfa	-0.007922405
140	0xbb5a00a4	-0.0033264542
141	0xbae4cfc7	-0.0017456942
142	0x3bd51188	0.006502334
143	0xbbdb1b14	-0.0066865776
144	0xbbd818c9	-0.0065947515
145	0xbbfb5db5	-0.007671083
146	0xbc094d75	-0.008380284
147	0x3b19c8ff	0.002346575
148	0xbc079850	-0.00827606
149	0x3ab4497d	0.0013754811
150	0x3c0a866c	0.0084549
151	0xbbbc86a1	-0.0057533537
152	0xbbe389d8	-0.0069439225
153	0xbbee753f	-0.0072771604
154	0x3bbbbbc9	0.005729173
155	0xba94d221	-0.0011354127
156	0x3bd33036	0.006444956
157	0xbc115129	-0.008869448
158	0xbb50a909	-0.0031839034
159	0xbbe90975	-0.007111723
160	0xbbdc7dff	-0.006728887
161	0x3a431c7f	0.0007442906
162	0x37981374	1.812887e-05
163	0x3baa24e6	0.005192387
164	0x3bea5253	0.007150927
165	0x3c0f6620	0.008752376
166	0x3c0006b1	0.007814095
167	0x3ba60543	0.005066545
168	0x3bdcde84	0.006740393
169	0x3aed9c4c	0.0018128245
170	0xbb98c894	-0.0046625827
171	0x3b8e8515	0.0043493607
172	0xbb569e5f	-0.0032748205
173	0x39379a33	0.00017509684
174	0xbba1b1f9	-0.004934546
175	0x3b69a79d	0.0035652884
176	0x3b5d1791	0.003373597
177	0xbbeed717	-0.0072888243
178	0xbbf1213e	-0.007358699
179	0xbbe90c79	-0.0071120826
180	0x3c2bf67b	0.010495777
181	0xbbea797c	-0.0071555953
182	0x3a9ad315	0.0011812175
183	0xbb6adefa	-0.003583847
184	0xbbc2bbb1	-0.0059427847
185	0x36edd624	7.0880797e-06
186	0x3ad34de3	0.0016121235
187	0xbb0a0eab	-0.0021065872
188	0x3b5d2f6c	0.003375019
189	0xbbba88c1	-0.005692572
190	0x3b60e439	0.0034315719
191	0xbb92671c	-0.004467858
192	0x3b1db033	0.0024061322
193	0x3ad26ad6	0.0016053568
194	0x3ab79586	0.0014006353
195	0xbbb84e89	-0.0056245965
196	0x3c382b9a	0.011240864
197	0xbc4445c4	-0.011979524
198	0xbbfb22c9	-0.007664059
199	0x3c157438	0.009121947
200	0xbb75d7be	-0.0037512626
201	0xb9aeae94	-0.00033317937
202	0x3a7274a4	0.0009248948
203	0xbb93fab2	-0.004515969
204	0x3c27ea3e	0.010248719
205	0x3b82e315	0.0039943554
206	0x3b1ccb4f	0.0023924892
207	0x3bc8e7a0	0.0061311275
208	0x3bd94a12	0.0066311443
209	0xbc2744ee	-0.010209305
210	0xbacd06a0	-0.0015642233
211	0xbbbe4697	-0.005806755
212	0x3c05b6d2	0.008161264
213	0x3a1e77e3	0.0006045086
214	0xbc044ae0	-0.008074492
215	0x38dba986	0.0001047431
216	0xbc125956	-0.008932432
217	0x3bcc4fd5	0.0062351027
218	0x39b6917d	0.00034822142
219	0x3bcce6a9	0.006253083
220	0x3be6bdc8	0.0070416667
221	0xbbec9cf8	-0.0072208606
222	0x3bfbf1d7	0.0076887417
223	0x3c00c0f6	0.0078585055
224	0x3baa65f2	0.005200141
225	0xbb3101d5	-0.0027009149
226	0x3bcbfeac	0.0062254276
227	0x3bfe4ace	0.0077603823
228	0x3bf3a8bc	0.007435886
229	0xbbcc5726	-0.006235975
230	0x3b97a81f	0.004628196
231	0x3b882abc	0.004155485
232	0xbbd9389f	-0.006629064
233	0xbbbcb34d	-0.005758679
234	0xbba9b9cd	-0.00517962
235	0x3badad6f	0.005300216
236	0x3bb68188	0.0055696405
237	0x3ba3e897	0.005002092
238	0x3b47bfdb	0.0030479345
239	0x3905e5bf	0.00012769455
240	0x3c0da3c0	0.008644998
241	0x3bcc7e7e	0.006240665
242	0x3c0a4ff0	0.00844191
243	0xba20bb4e	-0.0006131426
244	0x3b973763	0.004614757
245	0x3c023951	0.007948236
246	0xbbf3ff8f	-0.0074462364
247	0x3b5954bc	0.0033162078
248	0x3bb0beb9	0.0053938297
249	0x3bace2c7	0.0052760574
250	0x3b963542	0.0045839855
251	0xbbb39556	-0.0054804487
252	0x3b2f7b11	0.0026776234
253	0xbb2ce52e	-0.002638172
254	0xbade34b2	-0.001695296
255	0x3be4b2e2	0.0069793323

4.weight f4 [256, 256]
0	0xbd80abea	-0.0628279
1	0xbd5d29cb	-0.053994935
2	0x3cf62a52	0.030049477
3	0x3d842240	0.06451845
4	0xbd496fea	-0.049178995
5	0x3d229b95	0.039699156
6	0x3c3fb396	0.0117005315
7	0x3d394096	0.04522761
8	0x3c8057ab	0.015666803
9	0x3d80e971	0.062945254
10	0x3d292511	0.041295115
11	0x3c1dd205	0.009632592
12	0xbd24cb46	-0.04023292
13	0x3d7b3e37	0.06133863
14	0xbd4c22bb	-0.04983781
15	0xbc916427	-0.017747952
16	0x3c4af8ae	0.012388391
17	0xbd27b17d	-0.04094075
18	0xbc6f245e	-0.014596073
19	0x3ccf8c7a	0.02533554
20	0x3d0b1c9b	0.033962827
21	0xbd3c7438	-0.046009272
22	0x3d808ea2	0.06277205
23	0x3d447db7	0.047971454
24	0xbc8c2286	-0.017106306
25	0xbcc6b673	-0.02425692
26	0xbd03232c	-0.032015964
27	0x3d0b24bd	0.033970583
28	0x3cf725cc	0.03016939
29	0xbc2a4a3e	-0.010393677
30	0x3caeba6f	0.021329133
31	0xbc3f7553	-0.011685687
32	0x3d40bef3	0.047057103
33	0xbcb7ea34	-0.022450544
34	0x3d212c57	0.039348926
35	0xbaf7ddf0	-0.0018910747
36	0x3d4814aa	0.04884783
37	0x3d5fb3de	0.054614894
38	0xbd86cda5	-0.06582192
39	0x3c9e95dc	0.019358568
40	0xbd783f08	-0.060606986
41	0x3d72047a	0.0590863
42	0xbcd1cd40	-0.025610566
43	0x3d1a7485	0.037708778
44	0xbd4a4a7a	-0.049387433
45	0xbd1fc3e5	-0.03900518
46	0xbd4c7e55	-0.049925167
47	0x3d6114b3	0.05495138
48	0xbcc1d3fe	-0.023660656
49	0xbc951114	-0.01819662
50	0x3ceb26f1	0.028705092
51	0x3d8344c8	0.06409603
52	0x3a9a2490	0.0011760164
53	0x3c5bec73	0.013423073
54	0xbcbe2097	-0.0232089
55	0xbc6626c2	-0.0140473265
56	0xbceb133a	-0.028695691
57	0xbcff001c	-0.031127982
58	0x3cfbd7f6	0.030742627
59	0xbc8fb397	-0.01754169
60	0xbd193ff6	-0.037414514
61	0xbd0fc0d3	-0.035096
62	0x3cdee1d9	0.027207302
63	0x3b037185	0.0020056677
64	0x3ca5bce5	0.020231673
65	0x3d80143c	0.062538594
66	0xbcd952c2	-0.02652872
67	0xbc530e7f	-0.012881874
68	0xbd13065a	-0.03589473
69	0x3bba59dd	0.005686982
70	0x3cafab07	0.021443857
71	0x3d60d448	0.054889947
72	0xbc3f8878	-0.0116902515
73	0x3b4d168b	0.0031293954
74	0x3cc68746	0.024234425
75	0x3cce1efb	0.025161257
76	0x3d5bc5be	0.05365538
77	0x3d4fb466	0.05070915
78	0xbcb2aee6	-0.021811914
79	0xbd62b321	-0.055346612
80	0x3cede7bc	0.029041164
81	0x3c44f99f	0.012022405
82	0xbd66499b	-0.05622254
83	0xbc86e7c3	-0.016467934
84	0xba6c08f5	-0.000900402
85	0xbcefedb3	-0.029288149
86	0x3cb0f70c	0.021602176
87	0x3c9941ec	0.018708192
88	0x3cf08f6a	0.02936526
89	0x3d47be79	0.048765633
90	0xbd6490f7	-0.05580231
91	0x3d0f1c24	0.034938946
92	0x3d837ec9	0.06420667
93	0xbc984219	-0.018586205
94	0x3d6a8807	0.057258632
95	0xbb8bd8aa	-0.0042677717
96	0xbb79c2cb	-0.003811049
97	0xbb1f3906	-0.0024295463
98	0x3d0fff07	0.035155322
99	0xba8d9fab	-0.0010805031
100	0xbbeb4fff	-0.007181167
101	0xbcdbd5ab	-0.026835283
102	0xbd5ec5a6	-0.05438771
103	0xbc3b326a	-0.011425594
104	0x3d11bcad	0.035580326
105	0xbb4761b9	-0.0030423237
106	0x3b2a030d	0.002594176
107	0x3c777da0	0.015105635
108	0xbcb03cc5	-0.021513352
109	0xbce91a89	-0.028455036
110	0x3c44e90e	0.012018455
111	0x3d150ff1	0.036392156
112	0xbba57dd3	-0.0050504
113	0xbd0342d5	-0.032046158
114	0xbc701743	-0.0146539835
115	0xbd705bfc	-0.058681473
116	0x37c768cf	2.3771454e-05
117	0xbcdda190	-0.027054578
118	0x3c7811d0	0.015140966
119	0x3d050d8c	0.032483622
120	0x3d3a994c	0.04555635
121	0xbc247bf4	-0.010039318
122	0xbc6260be	-0.01381701
123	0xbd57d1f9	-0.05269048
124	0xbc5fe99e	-0.0136665385
125	0x3c009dd5	0.00785013
126	0x3cdc168c	0.02686622
127	0x3cbb8ecf	0.022895245
128	0xbcdcc9aa	-0.02695163
129	0x3cb49ae2	0.02204651
130	0x3c713859	0.014722907
131	0x3d249298	0.040178865
132	0xbc46dac9	-0.012137123
133	0xbc5420bb	-0.012947257
134	0x3d33c20a	0.043886222
135	0xbd18ccaa	-0.037304558
136	0xbce96c87	-0.028494133
137	0xbd2aa5e9	-0.04166213
138	0xbca58f6d	-0.020209992
139	0xbd321075	-0.043472726
140	0xbd4ec3cc	-0.050479695
141	0xbd1f37bd	-0.038871516
142	0x3d2809d4	0.041024998
143	0xbd7aa38d	-0.06119113
144	0xbd8a8b9e	-0.06764911
145	0xbc58665e	-0.013208
146	0x3d4bb6fc	0.049735054
147	0xbc8c86a0	-0.017154038
148	0x3d0f47bc	0.03498052
149	0xbd023e5f	-0.031797763
150	0x3d4259f2	0.04744906
151	0x3c723cf1	0.014785037
152	0xbcb8eed1	-0.022574814
153	0x3cf45d9e	0.029829796
154	0x3d7cf366	0.06175556
155	0xbc82d1ab	-0.015969118
156	0xbd7d7210	-0.061876357
157	0xbceeba39	-0.029141532
158	0x3d0d19e1	0.03444851
159	0x3c026b3a	0.007960135
160	0xbb424937	-0.002964569
161	0x3d097df5	0.033567388
162	0x3d821b33	0.06352844
163	0xbcc2e12b	-0.02378901
164	0xbb3e4569	-0.002903307
165	0xbc633557	-0.013867698
166	0x3cf477d6	0.029842298
167	0xbd06ce1f	-0.032911416
168	0xbd8474cb	-0.06467589
169	0xbb37881b	-0.002800471
170	0xbba1091c	-0.004914416
171	0x3d4e9342	0.050433405
172	0x3d3d3607	0.046194103
173	0x3d4fbf7c	0.050719723
174	0xbd565cb2	-0.052334495
175	0x3d11a115	0.03555401
176	0x3cc77037	0.0243455
177	0xba437935	-0.0007456721
178	0x3d2540d7	0.04034504
179	0x3d523a12	0.05132491
180	0xbcbb8ed9	-0.022895264
181	0x3d139089	0.03602651
182	0xbca7802d	-0.020446861
183	0xbd16cc2e	-0.036815815
184	0x3ce698bd	0.028149003
185	0x3d4dbad3	0.050226998
186	0xbd8837ec	-0.06651291
187	0xbc91ca52	-0.01779667
188	0xbd24f0fd	-0.040268887
189	0xbd222a09	-0.03959087
190	0x3cfff902	0.031246666
191	0xbc309b2d	-0.010779184
192	0x3a8cb916	0.0010736312
193	0x3c577a63	0.013151738
194	0xbaaf7ba3	-0.0013388287
195	0x3d870f79	0.06594748
196	0x3c1acd55	0.009448369
197	0x3d8a4dba	0.067531064
198	0x3ce01c96	0.02735738
199	0xbd3c7e25	-0.04601874
200	0xbc6ec3ae	-0.014573021
201	0xbd185f92	-0.037200518
202	0xbcf32bb9	-0.029683935
203	0xbd8b01fe	-0.06787489
204	0x3d397bff	0.045284268
205	0xbbfce5d9	-0.0077178297
206	0xbc8699fc	-0.016430847
207	0x3cac16d1	0.021006973
208	0xbd2c7ad8	-0.04210934
209	0xbc80c49d	-0.015718753
210	0x3cc761cc	0.024338625
211	0x3d206390	0.03915745
212	0xbd5d9b84	-0.05410339
213	0xbd2818eb	-0.04103939
214	0xbd7fc9a6	-0.062448166
215	0xbd150215	-0.03637894
216	0x3cfbc8ac	0.030735336
217	0x3b209d11	0.0024507681
218	0x3d047147	0.032334592
219	0x3d7b9866	0.061424635
220	0x3cc4b589	0.024012344
221	0x3cbafcc0	0.022825599
222	0x3c75250b	0.014962445
223	0x3c6af8b1	0.014341519
224	0xbc9a45d7	-0.01883213
225	0xbd389400	-0.04506302
226	0xbd2e6ef5	-0.042586286
227	0xbcc07fca	-0.023498435
228	0xbd47811e	-0.04870712
229	0xbd7a49e5	-0.061105628
230	0x3d3b0a40	0.045664072
231	0xbd1ccc9d	-0.038281072
232	0x3d0b1932	0.033959575
233	0x3d621671	0.055197183
234	0xbd665fcf	-0.056243714
235	0x3d87599e	0.0660889
236	0xbcb1b89a	-0.02169447
237	0x3d51dc2f	0.051235374
238	0x3c60e05d	0.013725367
239	0x3d5e9a3d	0.05434631
240	0xbc571056	-0.013126453
241	0x3ccb5700	0.024821758
242	0x3cc33e2f	0.023833362
243	0x3d6b700a	0.057479896
244	0xbd3cb9f6	-0.046075784
245	0x3d1c9aa0	0.0382334
246	0x3c66e1e2	0.014091941
247	0x3d03070b	0.03198914
248	0xbc875403	-0.016519552
249	0xbd4f98c6	-0.050682805
250	0xbc31fe50	-0.0108638555
251	0x3cab9d0d	0.020948911
252	0xbd8060d7	-0.06268471
253	0xbcb3e4f0	-0.021959752
254	0x3af12143	0.0018396754
255	0x3d1a9fde	0.037750117

4.bias f4 [256]
0	0x3d063aae	0.032770805
1	0xbd00dee9	-0.031462584
2	0xbd36033b	-0.044436675
3	0x3d404056	0.046936356
4	0xbbde63e8	-0.006786812
5	0x3d042a25	0.032266755
6	0xbd13a1b8	-0.0360429
7	0xbcac6130	-0.021042436
8	0x3bdb3458	0.0066895895
9	0xbcced44d	-0.025247717
10	0x3cf44a3f	0.02982056
11	0x3d488798	0.048957437
12	0x3b984c92	0.0046478
13	0x3c1c68cb	0.009546469
14	0xbbe77318	-0.007063281
15	0x3c4849d1	0.01222463
16	0x3cce25a9	0.025164442
17	0x3d5e754e	0.05431109
18	0x3d12c08f	0.03582817
19	0xbc3b8bae	-0.011446876
20	0xbc61cba9	-0.0137814665
21	0xbd7e476a	-0.062079825
22	0xbcf3f4cc	-0.029779814
23	0xbc9506af	-0.018191664
24	0x3be4d5f6	0.006983514
25	0xbc6bd354	-0.014393646
26	0xbd28fed4	-0.041258648
27	0xbb762e6b	-0.0037564288
28	0xbd196ebf	-0.03745913
29	0x3c8e56f6	0.01737545
30	0xbd5ff8c7	-0.054680612
31	0xbcc5e9e2	-0.024159376
32	0xbd821335	-0.0635132
33	0x3ce92b20	0.028462946
34	0x3cf2caf2	0.029637787
35	0x3cf5d3f7	0.0300083
36	0x3cabc7e8	0.020969346
37	0xbc2044da	-0.0097820405
38	0xbd88779b	-0.06663438
39	0x3d21a567	0.03946438
40	0xbd54862a	-0.05188576
41	0xbc52504a	-0.012836525
42	0xbcc3cc9d	-0.023901278
43	0xbd2db278	-0.04240653
44	0x3cf6cae6	0.030126046
45	0xbd299880	-0.0414052
46	0x3c6bede1	0.0143999765
47	0x3cbe1e49	0.0232078
48	0x3c05acfc	0.0081589185
49	0x3ce2dbe7	0.027692748
50	0xbc7980f9	-0.015228503
51	0xbd9377fa	-0.07200618
52	0x3d5159c7	0.05111101
53	0x3c9afce1	0.01891941
54	0x3d1e5e50	0.038664162
55	0xbc8dbdbc	-0.017302386
56	0xbc512c5a	-0.012766922
57	0x3d6a2c08	0.057170898
58	0x3bb2fd87	0.0054623517
59	0xbc383807	-0.011243827
60	0xbd2610cf	-0.040543374
61	0xbca64dc1	-0.020300748
62	0x3d4817cb	0.048850816
63	0xbd88e826	-0.06684904
64	0x3d665f18	0.056243032
65	0xbca981d7	-0.020691795
66	0x3d5bb77a	0.053641774
67	0x3d2dc470	0.042423666
68	0x3d2f03bf	0.042728182
69	0x3c1c2b97	0.009531877
70	0x3d1845e2	0.03717602
71	0x3d45dfff	0.048309322
72	0x3d171e25	0.036893982
73	0xba0eecae	-0.0005452138
74	0x3cc3aff3	0.02388761
75	0xbd393b1c	-0.045222387
76	0x3d3be1b2	0.045869537
77	0xbd6eba38	-0.05828306
78	0xbcc24667	-0.023715211
79	0xbd7e473f	-0.062079664
80	0xbc96dfcd	-0.018417263
81	0x3d618ec1	0.05506778
82	0xbc615135	-0.013752271
83	0x3d277630	0.040884197
84	0xbce95247	-0.028481616
85	0x3d6baaee	0.057536058
86	0x3cfe6519	0.031054066
87	0xbc56bcfc	-0.013106581
88	0xbd168d73	-0.03675599
89	0xbc7fb64b	-0.015607427
90	0x3d3a9ce6	0.045559786
91	0x3d683205	0.056688327
92	0x3d722a00	0.059122086
93	0xbca8bfb5	-0.020599226
94	0xbd4a7e20	-0.04943669
95	0xbd88f822	-0.066879526
96	0x3d5ebf4a	0.054381646
97	0xbd6364c9	-0.055516038
98	0xbd071ac7	-0.03298452
99	0x3c24fd68	0.010070182
100	0x3beda1f2	0.0072519714
101	0x3d215da8	0.03939596
102	0xbd80642f	-0.062691085
103	0x3cbfc084	0.023407228
104	0x3cff5df6	0.031172734
105	0xbd25503a	-0.040359713
106	0xbd843f61	-0.06457401
107	0x3d6990e6	0.05702295
108	0xbbb6f1b0	-0.0055830106
109	0xbce9da6d	-0.028546536
110	0xbd52844a	-0.051395692
111	0xbc6a4592	-0.014298813
112	0xbd498dfa	-0.049207665
113	0xbd01ebc1	-0.031718973
114	0xbd7c4b40	-0.0615952
115	0x3d7faf8a	0.062423266
116	0x3d172277	0.036898103
117	0xbd43700f	-0.04771429
118	0x3b30db0f	0.0026986038
119	0x3d46351a	0.048390485
120	0xbd0f9387	-0.035052802
121	0x3cb01906	0.021496307
122	0x3d6fefaf	0.05857819
123	0x3d28e9e6	0.041238688
124	0x3d203f9c	0.039123163
125	0xbcec4c14	-0.02884487
126	0x3d0c09c5	0.034189004
127	0x3c75e8d2	0.015009122
128	0x3c342008	0.010993965
129	0x3c1fb40e	0.009747518
130	0x3b16e024	0.0023021782
131	0x3c8975f0	0.01677987
132	0x3d606874	0.054787114
133	0x3cd6b2fd	0.026208395
134	0xbd064100	-0.032776833
135	0xbd3b1516	-0.045674406
136	0x3d1a0327	0.037600663
137	0xbd568938	-0.052376956
138	0xba96dbff	-0.0011509656
139	0xbd288442	-0.041141756
140	0x3d0046e9	0.031317625
141	0x3d02cba7	0.0319325
142	0x3b110599	0.002212858
143	0xbd578f75	-0.052627046
144	0xbb82e57c	-0.003994642
145	0x3a22bb5b	0.0006207728
146	0xbcb2eca0	-0.021841347
147	0xba982713	-0.0011608325
148	0xbd029c91	-0.031887595
149	0x3d482b03	0.048869144
150	0x3ad507d1	0.001625294
151	0x3d6f90ac	0.05848758
152	0xbcb031d3	-0.021508133
153	0x3cd59b56	0.026075047
154	0x3d7820ca	0.060578145
155	0xbcdd658f	-0.027025966
156	0xbd682a27	-0.056680825
157	0x3ce5fda4	0.028075047
158	0x3be78938	0.0070659183
159	0xbd4f2ffa	-0.050582863
160	0xbc96af82	-0.018394236
161	0x3ca3ba72	0.019986365
162	0xbd27db90	-0.040980875
163	0xbc63a339	-0.013893896
164	0xbd6e7563	-0.058217417
165	0x3d2bd5a7	0.0419518
166	0x3d67bb38	0.05657503
167	0x3d37447c	0.044743046
168	0x3d40afee	0.04704278
169	0xbd58518b	-0.05281214
170	0x3d813b6b	0.06310161
171	0xbd8a321c	-0.06747839
172	0xbcc038a7	-0.023464514
173	0xbd6c3fe6	-0.057678126
174	0xbd2191af	-0.039445575
175	0xbd501d57	-0.05080923
176	0x3ce1ef18	0.02757983
177	0xbc94cb4e	-0.01816335
178	0x3d7f85b0	0.062383354
179	0x3cc577de	0.024105009
180	0x3c9dafbc	0.019248836
181	0x3d4174a1	0.047230367
182	0xbcb50188	-0.022095457
183	0x3c74b075	0.014934649
184	0xbc01d90d	-0.007925284
185	0xbcc25136	-0.023720365
186	0x3c3c26fe	0.011483906
187	0x3d07c60a	0.03314785
188	0xbc833ab3	-0.0160192
189	0xbc4012c5	-0.011723225
190	0xbd19c74c	-0.03754358
191	0xbc73a17a	-0.014870042
192	0xbd3c5c58	-0.045986503
193	0xbd3bc0f1	-0.0458383
194	0x3d8c71f8	0.06857675
195	0x3d094165	0.03350963
196	0x3c6fd2da	0.014637673
197	0xbb3a5ae5	-0.0028435525
198	0xbc04619a	-0.008079911
199	0xbc64474e	-0.013933016
200	0xbd69adb4	-0.05705042
201	0x3d0f229e	0.034945123
202	0xbcbfd531	-0.023417087
203	0xbd10521d	-0.03523456
204	0x3d0bdaff	0.034144398
205	0xbc747b40	-0.014921963
206	0x3d431588	0.047627956
207	0x3d4bbe0b	0.049741786
208	0x3d3c7fbb	0.04602025
209	0xbcfbab4a	-0.030721325
210	0x3cc35990	0.023846418
211	0xbd23e834	-0.040016368
212	0xbb17e08b	-0.002317461
213	0xbc94d998	-0.018170163
214	0x3d597bb7	0.0530965
215	0x3d43d18b	0.047807258
216	0xbb186977	-0.0023256221
217	0xbd70d8ef	-0.058800634
218	0x3b1ff2ab	0.0024406116
219	0x3cea5a2d	0.028607452
220	0xbd5f18b3	-0.054466914
221	0xbd8d1b99	-0.068900295
222	0xbd1f009b	-0.038818937
223	0xbce25f66	-0.02763338
224	0xbd1f8a34	-0.03895016
225	0xbd75250a	-0.059849776
226	0x3ce121c0	0.027481914
227	0xbce4e660	-0.027941883
228	0x3cbd4edd	0.023108894
229	0x3ad3f1ac	0.0016170046
230	0xbc1f6fcc	-0.009731244
231	0xbbd35017	-0.0064487564
232	0xbc752cce	-0.014964296
233	0xbd79d90d	-0.06099801
234	0x3d58cd1d	0.052929986
235	0xbcec179f	-0.028819857
236	0x3cabee64	0.020987697
237	0xbd47209e	-0.04861509
238	0x3c05159e	0.00812283
239	0xbd38e87b	-0.045143586
240	0xbc9f3a89	-0.019437091
241	0x3d27f5ac	0.041005775
242	0xbd74141b	-0.059589487
243	0xbac5c754	-0.0015089312
244	0x3d4a44e6	0.049382113
245	0xbd32bf3b	-0.043639403
246	0xbd5e0e4d	-0.054212857
247	0xbcaea77d	-0.021320099
248	0x3b99c08f	0.004692144
249	0x3cc620be	0.024185535
250	0xbbd098ca	-0.00636587
251	0x3cda4e50	0.02664867
252	0xbc8aadc4	-0.016928561
253	0x3c3f63f5	0.011681546
254	0x3c2b89d1	0.01046987
255	0x3b73ea75	0.0037218605

5.weight f4 [256]
0	0x3f80e755	1.0070597
1	0x3f7eecd1	0.99580103
2	0x3f814219	1.0098296
3	0x3f7cd93f	0.9876899
4	0x3f8161d9	1.0107986
5	0x3f806e85	1.0033728
6	0x3f80549d	1.0025822
7	0x3f80f470	1.0074596
8	0x3f7dcaaa	0.99137366
9	0x3f7efe71	0.99606997
10	0x3f814eb8	1.0102148
11	0x3f814a56	1.010081
12	0x3f810bee	1.0081766
13	0x3f80a7fc	1.0051265
14	0x3f7c3a29	0.98526245
15	0x3f7fb27f	0.9988174
16	0x3f7ee323	0.99565333
17	0x3f80a9f9	1.0051872
18	0x3f7e5fa8	0.9936471
19	0x3f7e7654	0.99399304
20	0x3f7e4bab	0.9933421
21	0x3f804436	1.0020816
22	0x3f809447	1.0045251
23	0x3f805318	1.0025358
24	0x3f7f76b6	0.99790514
25	0x3f8181c1	1.0117723
26	0x3f8002ba	1.0000832
27	0x3f808805	1.004151
28	0x3f806c09	1.003297
29	0x3f7cd947	0.9876904
30	0x3f7ea5bb	0.99471635
31	0x3f7ca0e2	0.9868299
32	0x3f7ed848	0.9954877
33	0x3f80b230	1.0054379
34	0x3f7ed5e0	0.995451
35	0x3f7d88ce	0.9903687
36	0x3f7e561d	0.9935015
37	0x3f80ed7d	1.0072476
38	0x3f814ec9	1.0102168
39	0x3f805f78	1.0029135
40	0x3f80e2b6	1.0069187
41	0x3f80e93d	1.0071179
42	0x3f7e7243	0.993931
43	0x3f7fa0a0	0.9985447
44	0x3f800f6b	1.0004705
45	0x3f80a271	1.0049573
46	0x3f7fb841	0.99890524
47	0x3f802178	1.0010214
48	0x3f80d62d	1.0065361
49	0x3f7d5d6e	0.9897069
50	0x3f7e7d2c	0.9940975
51	0x3f81166a	1.0084965
52	0x3f7e5f07	0.9936375
53	0x3f7f5678	0.99741316
54	0x3f7df821	0.9920674
55	0x3f7e2195	0.9926999
56	0x3f800656	1.0001934
57	0x3f80c2f6	1.0059497
58	0x3f810058	1.007823
59	0x3f802198	1.0010252
60	0x3f7ec985	0.99526244
61	0x3f7ee48c	0.99567485
62	0x3f80e11e	1.00687
63	0x3f7ec4e5	0.9951919
64	0x3f7d0c53	0.9884693
65	0x3f800a42	1.000313
66	0x3f813c52	1.0096533
67	0x3f800282	1.0000765
68	0x3f7f5c1a	0.9974991
69	0x3f7ce43f	0.98785776
70	0x3f7e6249	0.9936872
71	0x3f7e33f5	0.9929803
72	0x3f7df2f0	0.9919882
73	0x3f7fd43a	0.9993321
74	0x3f8047e3	1.0021938
75	0x3f81498c	1.010057
76	0x3f7cf467	0.9881043
77	0x3f812fe4	1.009274
78	0x3f7d5a59	0.98965985
79	0x3f7fc77d	0.9991377
80	0x3f7d55eb	0.98959225
81	0x3f7eae54	0.99484754
82	0x3f7e57f5	0.9935296
83	0x3f80eebe	1.0072858
84	0x3f81b237	1.0132512
85	0x3f7c5de2	0.98580754
86	0x3f7f6753	0.99767035
87	0x3f800032	1.000006
88	0x3f807f32	1.0038817
89	0x3f7ea690	0.99472904
90	0x3f7e6cdf	0.99384874
91	0x3f7ea0d2	0.9946414
92	0x3f7c2927	0.98500293
93	0x3f7dd4a0	0.99152565
94	0x3f7e8cde	0.99433696
95	0x3f80f298	1.0074034
96	0x3f7d4673	0.9893562
97	0x3f7ef5cf	0.99593824
98	0x3f7f5576	0.9973978
99	0x3f7f7454	0.9978688
100	0x3f800ac5	1.0003287
101	0x3f80fc7f	1.0077056
102	0x3f7e9288	0.9944234
103	0x3f7e1a97	0.9925932
104	0x3f816d67	1.0111512
105	0x3f7e7fc2	0.9941369
106	0x3f7f1122	0.9963552
107	0x3f7c47a6	0.98546827
108	0x3f80c348	1.0059595
109	0x3f7fb873	0.9989082
110	0x3f807445	1.0035483
111	0x3f7d14a4	0.9885962
112	0x3f804b4f	1.0022982
113	0x3f801b7c	1.0008388
114	0x3f7de6ca	0.9918028
115	0x3f7ffcb7	0.9999499
116	0x3f80cddd	1.0062824
117	0x3f7f83c4	0.99810433
118	0x3f7e5667	0.9935059
119	0x3f7eb051	0.9948779
120	0x3f7de8d9	0.9918342
121	0x3f7f2111	0.9965983
122	0x3f806a53	1.0032448
123	0x3f80a0f3	1.0049118
124	0x3f7d9056	0.99048364
125	0x3f7f34b1	0.99689776
126	0x3f7e45fa	0.99325526
127	0x3f7e3385	0.9929736
128	0x3f810537	1.0079716
129	0x3f7f6835	0.9976838
130	0x3f803065	1.0014769
131	0x3f81637f	1.0108489
132	0x3f80b0a0	1.0053902
133	0x3f7ee168	0.9956269
134	0x3f7fc88d	0.9991539
135	0x3f809d11	1.0047933
136	0x3f7ef6a4	0.99595094
137	0x3f7e1c24	0.9926169
138	0x3f8041b0	1.0020046
139	0x3f7e6f46	0.9938854
140	0x3f80442c	1.0020804
141	0x3f7e6582	0.9937364
142	0x3f7cad5b	0.9870202
143	0x3f7e0e43	0.9924051
144	0x3f7e8a02	0.99429333
145	0x3f7d55f8	0.989593
146	0x3f7f4ece	0.9972962
147	0x3f7e38c2	0.99305356
148	0x3f7c61c8	0.985867
149	0x3f7ee954	0.9957478
150	0x3f7f5b2f	0.9974851
151	0x3f80f94e	1.0076082
152	0x3f809f22	1.0048563
153	0x3f80c40a	1.0059826
154	0x3f8011f2	1.0005476
155	0x3f7c1097	0.98462814
156	0x3f7d150c	0.9886024
157	0x3f7e8ef1	0.9943686
158	0x3f7f63b3	0.99761504
159	0x3f80239d	1.0010868
160	0x3f809135	1.0044314
161	0x3f8096e0	1.0046043
162	0x3f7d7371	0.99004275
163	0x3f7ea6d8	0.99473333
164	0x3f803656	1.0016582
165	0x3f7c3e82	0.9853288
166	0x3f7e9ef6	0.99461305
167	0x3f7d7fc9	0.9902311
168	0x3f7f248f	0.9966516
169	0x3f80a1c5	1.0049368
170	0x3f7fdacf	0.9994325
171	0x3f7d01e8	0.98831034
172	0x3f80c3d6	1.0059764
173	0x3f7e0ffc	0.9924314
174	0x3f7f05fc	0.99618506
175	0x3f7ea195	0.99465305
176	0x3f7ec756	0.9952291
177	0x3f804850	1.0022068
178	0x3f7f9a23	0.9984457
179	0x3f820502	1.0157778
180	0x3f8070e4	1.0034451
181	0x3f80e0be	1.0068586
182	0x3f8063b7	1.003043
183	0x3f7d4f80	0.9894943
184	0x3f807cfd	1.0038143
185	0x3f804654	1.0021462
186	0x3f80b3a1	1.0054818
187	0x3f7cca13	0.9874584
188	0x3f7f55e2	0.9974042
189	0x3f7ac48d	0.9795616
190	0x3f80a983	1.0051731
191	0x3f80c691	1.0060598
192	0x3f7e3d17	0.99311966
193	0x3f7e5bc0	0.9935875
194	0x3f817515	1.0113856
195	0x3f7f3978	0.99697065
196	0x3f7e0fe0	0.99242973
197	0x3f7cfc5e	0.9882258
198	0x3f80c964	1.006146
199	0x3f80c242	1.0059283
200	0x3f7e5c05	0.9935916
201	0x3f80f82c	1.0075736
202	0x3f7e9cb5	0.99457866
203	0x3f7bff3c	0.9843633
204	0x3f7e98da	0.9945198
205	0x3f80996e	1.0046823
206	0x3f7db533	0.99104613
207	0x3f80184b	1.0007414
208	0x3f7df6d9	0.99204785
209	0x3f80aff3	1.0053695
210	0x3f803de0	1.0018883
211	0x3f7e6be6	0.9938339
212	0x3f7f2669	0.99667984
213	0x3f8191ab	1.0122579
214	0x3f7e1cfc	0.99262977
215	0x3f7ea969	0.9947725
216	0x3f8116f3	1.0085129
217	0x3f7cb844	0.9871867
218	0x3f7e8d6a	0.9943453
219	0x3f80da16	1.0066555
220	0x3f815dc0	1.0106735
221	0x3f7e34b8	0.9929919
222	0x3f81894d	1.0120026
223	0x3f7f003e	0.99609745
224	0x3f7faa63	0.99869365
225	0x3f813564	1.0094419
226	0x3f7ddc7b	0.9916455
227	0x3f7e60ca	0.9936644
228	0x3f80e7c7	1.0070733
229	0x3f7ede18	0.9955764
230	0x3f7ffc4d	0.99994355
231	0x3f7fa60b	0.99862736
232	0x3f8086a2	1.0041087
233	0x3f80d52a	1.0065053
234	0x3f80988e	1.0046556
235	0x3f7d1958	0.98866796
236	0x3f805b3e	1.0027845
237	0x3f80ee0f	1.007265
238	0x3f7fa6fc	0.9986417
239	0x3f7e7a63	0.994055
240	0x3f7c1fbe	0.98485935
241	0x3f8150e0	1.0102806
242	0x3f7e4270	0.99320126
243	0x3f7ea0db	0.99464196
244	0x3f7e8caa	0.99433386
245	0x3f813454	1.0094094
246	0x3f808b0e	1.0042436
247	0x3f81490c	1.0100417
248	0x3f7f6f7c	0.99779487
249	0x3f7c5276	0.98563325
250	0x3f802fc8	1.0014582
251	0x3f80a0d4	1.0049081
252	0x3f812fd2	1.0092719
253	0x3f7e5308	0.99345446
254	0x3f7eea5e	0.99576366
255	0x3f813b4e	1.0096223
