MACHINE_LEARNING/checkpoints/o3_model_epoch10.pt (torch, 419245 bytes, 13 tensors)

0.weight f4 [256, 12]
0	0x3e190162	0.14941934
1	0x3e3165e4	0.17324024
2	0xbd1d885f	-0.03846013
3	0xbd19bcc5	-0.03753354
4	0xbd8a9756	-0.06767146
5	0x3c04ec44	0.008112971
6	0x3d2eddf3	0.042692136
7	0x3b276e57	0.0025547945
8	0x3e415aa9	0.1888224
9	0x3e44fa08	0.19236004
10	0x3c85643d	0.016283149
11	0x3de1508b	0.110016905
12	0x3e514ae6	0.20438728
13	0x3e65c037	0.22436605
14	0xbe0a4b96	-0.13505396
15	0xbdf39909	-0.118944235
16	0x3d92643e	0.07148026
17	0xbe843302	-0.25820166
18	0x3df1ffe6	0.11816387
19	0xbc906d0b	-0.01763012
20	0xbe0e28ad	-0.13882704
21	0xbd97673f	-0.073927395
22	0xbe41393c	-0.1886949
23	0xbdcaec6d	-0.09908376
24	0x3c775a44	0.015097205
25	0x3e5a6565	0.21327741
26	0x3d1e043d	0.03857826
27	0x3e295f8d	0.16540356
28	0xbe7df20b	-0.24799363
29	0x3d12eff9	0.035873387
30	0x3e09514c	0.13409919
31	0x3e5581b4	0.20850259
32	0xbdd93377	-0.10605519
33	0xbe8962e1	-0.2683325
34	0xbe3f5a8d	-0.18686886
35	0xbe449d3d	-0.19200607
36	0xbe37bf40	-0.1794405
37	0xbe087a20	-0.13327837
38	0xbe78641c	-0.24256939
39	0x3e5d123c	0.21588987
40	0x3dd41641	0.10355807
41	0x3e20e6a3	0.15712981
42	0x3e9004f2	0.28128773
43	0xbe0ad555	-0.13557942
44	0xbdb3fb3d	-0.08788154
45	0xbd34656d	-0.04404204
46	0xbe79cb21	-0.24393894
47	0xbe5f3525	-0.21797617
48	0x3d357124	0.044297352
49	0xbe1dc8cf	-0.15408634
50	0x3e8f474d	0.27984086
51	0xbe8f79fb	-0.2802275
52	0x3e358973	0.17728214
53	0xbcecd135	-0.028908351
54	0xbe6bdf81	-0.23034479
55	0x3de89d86	0.1135817
56	0x3e1b7d8e	0.15184614
57	0x3a384409	0.0007029181
58	0x3e73c0da	0.23804036
59	0xbc6bc42a	-0.014390031
60	0xbb93dc18	-0.004512321
61	0xbe01b544	-0.12666804
62	0x3da1159c	0.0786545
63	0xbdfbec45	-0.12300924
64	0x3d89eeb9	0.06734986
65	0x3e65a26b	0.22425239
66	0xbe2ddd8d	-0.16979046
67	0x3e114cf4	0.14189512
68	0x3e7f1d7e	0.24913594
69	0x3c5f6d26	0.013636863
70	0xbe508c14	-0.20365936
71	0xbe3dfce9	-0.18553509
72	0x3d0c16bb	0.034201365
73	0xbe08d971	-0.13364197
74	0x3e2c237c	0.16810411
75	0xbda8d8ec	-0.082444996
76	0xbe51c350	-0.20484662
77	0x3e5de348	0.21668732
78	0xbdd5a1ba	-0.104312375
79	0xbd138e5b	-0.036024433
80	0xbacc18a8	-0.0015571313
81	0x3ce28e2a	0.02765568
82	0xbd89162b	-0.06693681
83	0x3e79d2d9	0.24396838
84	0xbe4d9196	-0.20075068
85	0xbdfaef10	-0.12252629
86	0xbe096ee1	-0.13421203
87	0x3be44196	0.0069658263
88	0xbe59d944	-0.21274287
89	0xbe81b227	-0.25331232
90	0xbe7b1501	-0.24519731
91	0xbe846c9e	-0.25864118
92	0x3d974d9e	0.07387851
93	0x3e8ff94d	0.2811989
94	0x3d97e286	0.07416253
95	0xbe256597	-0.16152035
96	0x3e6304e6	0.22169837
97	0x3e5a24f2	0.21303156
98	0xbdc1afed	-0.09457383
99	0x3e4b8439	0.19874658
100	0x3e1b2d9c	0.15154117
101	0x3e3a0623	0.18166403
102	0x3d879b76	0.06621449
103	0xbe81b7fb	-0.25335678
104	0xbab74e43	-0.0013985116
105	0x3dd9d7f9	0.10636897
106	0x3e62beed	0.22143145
107	0x3e0e5774	0.13900548
108	0xbe35cb74	-0.17753392
109	0xbe72e627	-0.23720609
110	0xbd088ec6	-0.033339284
111	0x3c0cbb80	0.008589625
112	0x3e89239d	0.26784983
113	0xbe94350d	-0.28946725
114	0x3e824edd	0.25450793
115	0xbd896f7c	-0.06710717
116	0xbe786147	-0.24255858
117	0xbe816ad0	-0.25276804
118	0x3d34e508	0.044163734
119	0x3dce1b20	0.100637674
120	0x3e883bfc	0.26608264
121	0xbcbd4c46	-0.02310766
122	0x3d4cf553	0.050038647
123	0x3e3bc074	0.18335134
124	0xbe5132f6	-0.20429596
125	0x3dd337df	0.10313391
126	0x3d6a8260	0.05725324
127	0xbbe258a2	-0.0069075385
128	0x3d861785	0.06547455
129	0xbe0032c6	-0.12519369
130	0xbe40e704	-0.18838125
131	0xbdceddd8	-0.10100907
132	0xbe68b66f	-0.22725843
133	0x3e8bed97	0.27329704
134	0xbe204fbe	-0.15655419
135	0x3e841f69	0.25805214
136	0x3e8fbece	0.2807526
137	0x3e552515	0.20814927
138	0xbd3b11cd	-0.045671273
139	0x3e63b990	0.22238755
140	0xbe55c905	-0.20877464
141	0x3d81947f	0.063271515
142	0xbd0ebeea	-0.03485004
143	0xbd258a6c	-0.040415213
144	0xbe30918c	-0.17243022
145	0x3e8e185d	0.27752963
146	0xbe0c0155	-0.13672383
147	0x3df52faf	0.119719855
148	0xbe3a035d	-0.18165345
149	0x3e46ec11	0.1942599
150	0x3d3c8860	0.046028495
151	0x3e4d482c	0.20047063
152	0xbdd958d6	-0.10612647
153	0xbe05f3c1	-0.13081266
154	0x3e80a4ef	0.25125834
155	0xbe7be0d6	-0.24597487
156	0xbdc19ad2	-0.09453358
157	0xbc285e68	-0.010276414
158	0xbe9208a3	-0.28522214
159	0x3e87a4b2	0.2649284
160	0xbe073004	-0.1320191
161	0x3d1a5a68	0.037683874
162	0x3e0655d6	0.13118681
163	0xbe4826a2	-0.19545987
164	0xbe388695	-0.18020089
165	0x3e7de2a5	0.2479349
166	0xbe0f57ad	-0.1399829
167	0x3d38619a	0.045014955
168	0xbd4eae9b	-0.050459486
169	0xbe3db254	-0.18525058
170	0xbe3328e4	-0.17496067
171	0x3e55a150	0.20862317
172	0x3be03978	0.0068427883
173	0xbe066e1f	-0.13127945
174	0xbc99ab57	-0.018758459
175	0xbe6f89ea	-0.23392454
176	0xbe899299	-0.26869658
177	0xbc797041	-0.015224517
178	0xbd8ee5a8	-0.06977397
179	0x3da20dc2	0.0791278
180	0x3d9e2f1f	0.077238314
181	0x3e10038a	0.1406385
182	0x3e0a21b8	0.13489425
183	0xbd5f39d9	-0.054498527
184	0x3d94246c	0.072335094
185	0x3dafb086	0.08578591
186	0xbe02f0d8	-0.12787187
187	0x3c273ece	0.010207845
188	0xbdbdbcf0	-0.092645526
189	0x3e2e75b9	0.17037095
190	0x3e881765	0.2658035
191	0x3e765966	0.2405754
192	0x3e303069	0.17205967
193	0xbbcdacb5	-0.006276692
194	0xbc78bb56	-0.015181383
195	0x3dc5368a	0.09629543
196	0x3e7076a1	0.23482753
197	0xbd914fa6	-0.0709527
198	0x3e5da6ff	0.21645735
199	0xbe16f028	-0.1474005
200	0xbccee859	-0.025257276
201	0x3e206a8e	0.15665647
202	0x3e73a604	0.23793799
203	0x3d2e5414	0.042560652
204	0xbd6f72b1	-0.058458988
205	0x3e8c37bb	0.2738627
206	0xbda618a1	-0.08110166
207	0x3e09bc64	0.13450772
208	0x3e2bdef2	0.16784266
209	0x3cff49f7	0.031163199
210	0x3e8924b8	0.26785827
211	0xbde599b6	-0.11210959
212	0xbe8106e8	-0.25200582
213	0xbda784ca	-0.081796244
214	0x3e617acd	0.22019501
215	0xbd3fbe16	-0.04681214
216	0x3db73aaf	0.0894674
217	0x3e352817	0.17691074
218	0xbcdef809	-0.027217882
219	0x3e678a90	0.22611451
220	0x3d14c25c	0.036318168
221	0xbe844712	-0.25835472
222	0xbd12a013	-0.03579719
223	0x3e87272d	0.26397076
224	0xbe4c9baf	-0.19981264
225	0x3e26a844	0.16275126
226	0xbe09c708	-0.1345483
227	0x3dc8e73d	0.0980973
228	0xbe6a6198	-0.22888792
229	0x3df0347c	0.117287606
230	0xbd7aaf45	-0.061202306
231	0xbd840fe8	-0.064483464
232	0x3d450230	0.04809779
233	0x3e85341f	0.26016328
234	0xbdf7cdc7	-0.12099796
235	0x3d547e77	0.05187842
236	0xba30e90d	-0.00067485945
237	0xbe63d474	-0.22249013
238	0xbd4b8d41	-0.049695257
239	0xbe3f6305	-0.18690117
240	0x3bff01e8	0.0077822097
241	0xbe704432	-0.23463514
242	0x3e69cfa1	0.2283311
243	0xbc502c67	-0.012705899
244	0xbe293892	-0.16525486
245	0xbcb613b1	-0.022226186
246	0xbe1ec7f6	-0.15505967
247	0x3ddd9236	0.10818903
248	0xbd8305a3	-0.063975595
249	0xbd4f1b95	-0.050563414
250	0xbe8a107a	-0.26965696
251	0xbd81e7c8	-0.06343037
252	0x3e603e68	0.21898806
253	0xbe7c84ac	-0.24659985
254	0xbe938658	-0.28813434
255	0xbddef11d	-0.108858325

0.bias f4 [256]
0	0xbdc4e59a	-0.096141055
1	0x3e82c233	0.25538787
2	0xbdbf2b16	-0.0933439
3	0xbcdd8e29	-0.027045326
4	0xbd81b92d	-0.063341476
5	0xbe581312	-0.21101025
6	0x3e72839d	0.23683019
7	0x3e82cb56	0.25545758
8	0xbe676c21	-0.22599842
9	0xbd963392	-0.07334055
10	0x3e0062e8	0.1253773
11	0x3d946907	0.07246595
12	0xbe1e4e8b	-0.1545965
13	0xbe2998bb	-0.16562168
14	0xbe021c9b	-0.12706225
15	0x3d288018	0.041137785
16	0xbe920f49	-0.28527287
17	0x3cfc05f8	0.030764565
18	0xbe206494	-0.15663368
19	0xbe936075	-0.28784528
20	0x3e56c1fd	0.20972438
21	0xbd45e536	-0.048314296
22	0x3dab7be3	0.08373239
23	0xbe59aaf0	-0.21256614
24	0xbe352a64	-0.17691952
25	0xbe8aa5ea	-0.27079707
26	0x3de6c081	0.11267186
27	0x3dd41d83	0.103571914
28	0x3d89bce2	0.0672548
29	0xbe8753a3	-0.26430997
30	0x3e71a3f0	0.23597693
31	0xbd8b1fe6	-0.067931935
32	0x3d363a1d	0.044489015
33	0xbdbbb19e	-0.09164737
34	0x3ce2ab45	0.027669558
35	0x3db3f4ae	0.08786903
36	0xbe8a6279	-0.27028254
37	0x3e686950	0.22696424
38	0xbd9af604	-0.07566455
39	0x3d31f05d	0.04344212
40	0x3d43f7a5	0.047843594
41	0xbb967dd1	-0.004592635
42	0x3e334357	0.17506157
43	0x3e85ab6b	0.26107344
44	0x3e48453f	0.19557665
45	0x3e16f74d	0.14742775
46	0x3e8885d0	0.2666459
47	0xbc9a9f0d	-0.01887467
48	0x3b1ba69a	0.0023750425
49	0x3e5c79a7	0.21530782
50	0x3e7e1dc4	0.24816042
51	0x3cc8e7cb	0.02452459
52	0x3d920168	0.071291745
53	0xbe8e21fe	-0.2776031
54	0xbe3f953f	-0.18709277
55	0x3e1a4e6e	0.15068981
56	0x3e406b7f	0.18791007
57	0xbde28811	-0.11061109
58	0xbe17240f	-0.14759849
59	0x3e4b0e2b	0.19829623
60	0xbe8f0601	-0.27934268
61	0x3e61f72e	0.22066948
62	0x3e8d16ef	0.2755656
63	0xbe436771	-0.19082429
64	0x3e15e386	0.14637575
65	0xbdab3f3f	-0.083616726
66	0x3e4c5bc3	0.1995688
67	0xbe439b40	-0.19102192
68	0x3e4f7709	0.20260252
69	0xbe21ab0c	-0.15787905
70	0xbdfa7cc6	-0.1223083
71	0xbe2aa454	-0.16664249
72	0x3e1250b0	0.14288592
73	0x3d75c54e	0.060002618
74	0xbc4ca632	-0.012490796
75	0xbe7a0160	-0.24414587
76	0xbe8c94cc	-0.27457273
77	0x3e05dade	0.13071772
78	0xbe7e1fb4	-0.24816781
79	0xbd1b1b18	-0.037867635
80	0x3d8082a8	0.06274921
81	0x3d13a33b	0.03604434
82	0x3e7ce03a	0.2469491
83	0x3e1673af	0.14692567
84	0xbc991bbd	-0.018689984
85	0x3d89359f	0.066996805
86	0xbdecd4b3	-0.11564007
87	0x3deb99d5	0.115039505
88	0xbe4d87bf	-0.20071314
89	0xbdf213cf	-0.118201844
90	0x3e7fd161	0.24982215
91	0x3d91b517	0.07114618
92	0x3d58a3c6	0.05289056
93	0x3e3c8fa3	0.18414168
94	0xbe6e0f9f	-0.23248146
95	0x3cb758aa	0.022381146
96	0xbe8ca6a5	-0.2747089
97	0xbe4acf80	-0.19805717
98	0x3e20100e	0.15631124
99	0xbddb67df	-0.10713171
100	0xbe490e06	-0.19634256
101	0xbd905315	-0.07047097
102	0x3e43fca5	0.19139345
103	0x3e6d1d74	0.23155767
104	0xbd7666b3	-0.060156535
105	0xbe00c76b	-0.12576072
106	0x3e6b014f	0.22949718
107	0x3e4a99ca	0.19785228
108	0xbdfa5ee7	-0.122251324
109	0x3e2dd276	0.16974816
110	0xbe72f3c9	-0.23725809
111	0x3d9b576c	0.07585034
112	0xbe80df03	-0.25170144
113	0xbe6f732a	-0.23383775
114	0xbe34fb43	-0.17673974
115	0xbe873bec	-0.26412904
116	0x3cd0b2ee	0.025475945
117	0x3d8d3b61	0.06896091
118	0x3e04130e	0.12897894
119	0x3e64bd11	0.22337748
120	0xbe9146bc	-0.2837428
121	0xbde00f41	-0.109404095
122	0xbd96e5e6	-0.073680684
123	0x3c2e6683	0.010644558
124	0xbe74018a	-0.23828712
125	0xbdaaeb52	-0.08345665
126	0x3c3a8300	0.011383772
127	0x3c4b3d9e	0.012404827
128	0xbe786975	-0.24258979
129	0xbdeda3bb	-0.11603495
130	0xbe77a35c	-0.2418341
131	0x3e0ac7fa	0.13552848
132	0x3e80362a	0.25041324
133	0x3e6ce71a	0.23135033
134	0xbcc7b6a5	-0.024379084
135	0x3e453068	0.19256747
136	0xbe1c007f	-0.15234564
137	0x3d9db7a4	0.07701042
138	0x3e82ec22	0.2557078
139	0x3e07083b	0.13186733
140	0xbe1760dd	-0.14783044
141	0xbe3cc324	-0.18433815
142	0xbe70a898	-0.23501813
143	0xbcbaddea	-0.022810895
144	0x3c7b6dd5	0.01534601
145	0xbbd90c4e	-0.0066237813
146	0x3d9d1f28	0.07671958
147	0xbe88672a	-0.26641208
148	0x3e4e272c	0.2013213
149	0x3e6f330d	0.23359318
150	0x3e141014	0.14459258
151	0xbc495c5a	-0.012290085
152	0x3e8bad4a	0.27280647
153	0xbd54e266	-0.051973723
154	0xbd91230a	-0.07086761
155	0x3c92c0c3	0.017914182
156	0x3b96070a	0.004578476
157	0x3dac7676	0.08421032
158	0x3d66a1ab	0.056306522
159	0xbda22cbf	-0.07918691
160	0x3d607479	0.054798577
161	0xbe1f3ca0	-0.1555047
162	0xbe7a1cd3	-0.24425058
163	0xbe64c45b	-0.22340529
164	0xbda7bb65	-0.081900395
165	0xbdf33bfa	-0.11876674
166	0x3d68f8d7	0.056877937
167	0x3df31a1b	0.118702136
168	0x3e703f3b	0.2346162
169	0x3e88ef41	0.26745036
170	0xbe88d07f	-0.2672157
171	0xbe51c5c2	-0.20485595
172	0x3e7e41f8	0.24829853
173	0xbdf9ef35	-0.12203828
174	0xbe1baf4a	-0.15203586
175	0xbd6f9f25	-0.05850138
176	0x3e61a448	0.22035325
177	0xbe49ecb7	-0.19719206
178	0x3e212531	0.15736844
179	0xbe8bc9fa	-0.27302533
180	0x3e58370d	0.2111475
181	0xbe484480	-0.1955738
182	0xbe773304	-0.24140555
183	0x3e3c0cb0	0.18364215
184	0x3e6ec199	0.23316039
185	0xbe5474c4	-0.20747668
186	0x3e1c48b4	0.15262109
187	0x3e4281a3	0.18994765
188	0xbe88fb70	-0.26754332
189	0xbe16a09d	-0.14709707
190	0xbdaaa08a	-0.08331402
191	0x3da4441c	0.08020803
192	0x3e479ccf	0.19493411
193	0x3cf0dfea	0.029403646
194	0x3cf4e766	0.029895496
195	0x3cfca9e2	0.030842725
196	0x3e7a8a80	0.24466896
197	0x3e25d8b1	0.16195942
198	0x3dd01797	0.101607494
199	0xbe29d810	-0.16586328
200	0xbd834a40	-0.064106464
201	0xbe88473c	-0.26616848
202	0x3e113ea8	0.14184058
203	0x3e480647	0.19533645
204	0xbdebbf17	-0.11511057
205	0xbe703163	-0.2345634
206	0xbe8eecc6	-0.2791502
207	0x3d33afbb	0.04386876
208	0xbe0ab47b	-0.1354541
209	0xbc759d50	-0.0149911195
210	0x3c2dbede	0.010604588
211	0xbe542704	-0.20718008
212	0x3e234e00	0.15947723
213	0x3e90b451	0.2826257
214	0xbe395b68	-0.18101275
215	0x3d85ec5e	0.06539224
216	0x3e287066	0.16449127
217	0xbe39b902	-0.18136981
218	0x3d9cfd0f	0.076654546
219	0xbe868d6a	-0.26279765
220	0xbd79fab6	-0.061030112
221	0x3e8b6e4d	0.2723259
222	0xbc5633cc	-0.013073873
223	0xbe8927dd	-0.26788226
224	0x3c9bac33	0.01900301
225	0xbda44d48	-0.08022553
226	0x3e4e2e7c	0.2013492
227	0x3dd9e296	0.10638921
228	0x3e5d2316	0.21595415
229	0x3ccd148e	0.025034215
230	0xbe399a50	-0.18125272
231	0x3e68af18	0.22723043
232	0x3d082142	0.033234842
233	0xbe8dc466	-0.27688903
234	0x3e61106a	0.21978918
235	0xbe8deedf	-0.27721307
236	0x3d9e54c2	0.0773101
237	0xbd6b0975	-0.057382066
238	0xbe624575	-0.22096808
239	0x3d6ec9e4	0.058298007
240	0xbcbf00b3	-0.023315763
241	0xbe582a94	-0.21109992
242	0xbe0ca057	-0.1373304
243	0x3d511be0	0.051051974
244	0xbe82d457	-0.25552627
245	0x3e57f2a0	0.21088648
246	0xbd1ce275	-0.038301904
247	0x3e3b2978	0.18277538
248	0x3df628b0	0.12019479
249	0xbe632446	-0.22181806
250	0x3e875ca9	0.26437882
251	0xbe91daaf	-0.28487155
252	0x3dd19ebe	0.10235356
253	0x3e3d6f44	0.18499476
254	0xbda8e87f	-0.0824747
255	0xbe3d9fd0	-0.18517995

1.weight f4 [256]
0	0x3f80f858	1.0075788
1	0x3f8027e5	1.0012175
2	0x3f813591	1.0094472
3	0x3f7d1678	0.9886241
4	0x3f80f0a4	1.0073438
5	0x3f8104b1	1.0079557
6	0x3f7e64b1	0.9937239
7	0x3f8034f5	1.0016161
8	0x3f8139b3	1.0095733
9	0x3f80978c	1.0046248
10	0x3f7d7c10	0.9901743
11	0x3f7eb6c0	0.99497604
12	0x3f804e3f	1.0023879
13	0x3f80e8dc	1.0071063
14	0x3f80e34e	1.0069368
15	0x3f811f42	1.0087664
16	0x3f7ff12d	0.9997738
17	0x3f80d5e7	1.0065278
18	0x3f7f0eb3	0.99631804
19	0x3f811ddf	1.0087241
20	0x3f80d630	1.0065365
21	0x3f7e1fee	0.9926747
22	0x3f80dcda	1.0067399
23	0x3f7cbafb	0.9872281
24	0x3f80c5b8	1.0060339
25	0x3f802ff4	1.0014634
26	0x3f7efcc2	0.9960443
27	0x3f7f9bf6	0.9984735
28	0x3f80ba3b	1.0056833
29	0x3f7e6330	0.993701
30	0x3f7fdb83	0.99944323
31	0x3f8117f3	1.0085434
32	0x3f7f49a2	0.9972173
33	0x3f7ea27f	0.994667
34	0x3f803536	1.0016239
35	0x3f8131f4	1.009337
36	0x3f7ead5c	0.99483275
37	0x3f7ce44c	0.98785853
38	0x3f80b686	1.0055702
39	0x3f8100ed	1.0078408
40	0x3f808311	1.0039998
41	0x3f7f1268	0.9963746
42	0x3f805eba	1.0028908
43	0x3f80df74	1.0068192
44	0x3f80f6be	1.00753
45	0x3f808612	1.0040915
46	0x3f808699	1.0041076
47	0x3f8069c9	1.0032283
48	0x3f7ef2ed	0.99589425
49	0x3f7e5e79	0.99362904
50	0x3f804779	1.0021812
51	0x3f7e8ba8	0.9943185
52	0x3f7f1340	0.9963875
53	0x3f7efb9f	0.99602693
54	0x3f7e604e	0.993657
55	0x3f7f9ac5	0.99845535
56	0x3f7e007d	0.99219495
57	0x3f7dcb03	0.99137896
58	0x3f8108c8	1.0080805
59	0x3f7edcac	0.9955547
60	0x3f7e25ff	0.9927673
61	0x3f7e45a2	0.99325
62	0x3f7e8fd7	0.9943823
63	0x3f806203	1.0029911
64	0x3f809831	1.0046445
65	0x3f81aa3b	1.0130075
66	0x3f818a7e	1.012039
67	0x3f7e8176	0.9941629
68	0x3f809bc8	1.0047541
69	0x3f7f6a3e	0.9977149
70	0x3f807f25	1.0038801
71	0x3f7e3b84	0.99309564
72	0x3f7b7f64	0.9824126
73	0x3f7e175a	0.9925438
74	0x3f81912e	1.012243
75	0x3f812dfd	1.009216
76	0x3f801b7d	1.0008389
77	0x3f8134a4	1.009419
78	0x3f7f7133	0.99782103
79	0x3f801c47	1.000863
80	0x3f7fbae6	0.9989456
81	0x3f7e2fed	0.9929188
82	0x3f7e2309	0.9927221
83	0x3f7fcbe0	0.99920464
84	0x3f7f5d36	0.99751604
85	0x3f80a65d	1.005077
86	0x3f7e3ad0	0.9930849
87	0x3f7e54d5	0.99348193
88	0x3f810cd7	1.0082043
89	0x3f7ed4e0	0.9954357
90	0x3f80303c	1.001472
91	0x3f80869d	1.0041081
92	0x3f81a917	1.0129727
93	0x3f7ffc04	0.9999392
94	0x3f7fd81a	0.9993912
95	0x3f7fecf8	0.9997096
96	0x3f7f4536	0.9971498
97	0x3f812f3d	1.0092541
98	0x3f80f7f5	1.007567
99	0x3f7c2333	0.9849121
100	0x3f7e7538	0.9939761
101	0x3f80ec85	1.007218
102	0x3f7de3c1	0.9917565
103	0x3f7f39d5	0.9969762
104	0x3f805045	1.0024496
105	0x3f7c9734	0.9866822
106	0x3f81105c	1.0083117
107	0x3f7ea002	0.994629
108	0x3f808af4	1.0042405
109	0x3f7e3056	0.99292505
110	0x3f7df357	0.9919943
111	0x3f810f77	1.0082844
112	0x3f808d05	1.0043036
113	0x3f812f4d	1.009256
114	0x3f7cc692	0.98740494
115	0x3f7d7fc4	0.9902308
116	0x3f80640a	1.003053
117	0x3f80a916	1.0051601
118	0x3f7e2087	0.9926838
119	0x3f80ad8b	1.0052961
120	0x3f7dc743	0.99132174
121	0x3f814e27	1.0101975
122	0x3f8058c3	1.0027088
123	0x3f80b88c	1.0056319
124	0x3f7ed1ef	0.99539083
125	0x3f8117a3	1.0085338
126	0x3f80d0b3	1.006369
127	0x3f7d5316	0.98954904
128	0x3f7eb23e	0.99490726
129	0x3f80f76d	1.0075508
130	0x3f815d32	1.0106566
131	0x3f7ec094	0.995126
132	0x3f8118b4	1.0085664
133	0x3f7e6262	0.9936887
134	0x3f80a446	1.0050132
135	0x3f80db60	1.0066948
136	0x3f7dc853	0.99133795
137	0x3f803c7c	1.0018458
138	0x3f80e53c	1.0069957
139	0x3f7ded16	0.9918989
140	0x3f7f5429	0.99737793
141	0x3f7f818a	0.99807036
142	0x3f80a699	1.0050842
143	0x3f7eae3f	0.9948463
144	0x3f7e27a2	0.99279225
145	0x3f7e5d19	0.99360806
146	0x3f812c5c	1.0091662
147	0x3f801ca5	1.0008742
148	0x3f7dbd53	0.9911701
149	0x3f7f674c	0.99766994
150	0x3f812357	1.008891
151	0x3f80c092	1.0058768
152	0x3f7e56a2	0.9935094
153	0x3f8093d9	1.004512
154	0x3f7c0fa1	0.9846135
155	0x3f804771	1.0021802
156	0x3f80d32b	1.0064443
157	0x3f8118a0	1.008564
158	0x3f7d686f	0.9898748
159	0x3f80eff8	1.0073233
160	0x3f7cd6ae	0.98765075
161	0x3f7fd3c1	0.99932486
162	0x3f7fd196	0.9992918
163	0x3f7e113c	0.9924505
164	0x3f80e30e	1.0069292
165	0x3f80e718	1.0070524
166	0x3f8102f0	1.0079021
167	0x3f804622	1.0021403
168	0x3f80d0c1	1.0063707
169	0x3f800994	1.0002923
170	0x3f7ee7c4	0.99572396
171	0x3f80e822	1.0070841
172	0x3f7f4337	0.99711937
173	0x3f7fd754	0.9993794
174	0x3f80a850	1.0051365
175	0x3f805553	1.0026039
176	0x3f7f5307	0.99736065
177	0x3f80b688	1.0055704
178	0x3f80dda7	1.0067643
179	0x3f808f89	1.0043803
180	0x3f818253	1.0117897
181	0x3f7e2b8f	0.99285215
182	0x3f7fe027	0.99951404
183	0x3f7ee742	0.9957162
184	0x3f806bd7	1.003291
185	0x3f7f91e1	0.9983197
186	0x3f801c4e	1.0008638
187	0x3f808d0c	1.0043044
188	0x3f7f2e80	0.9968033
189	0x3f808bbe	1.0042646
190	0x3f802cf4	1.0013719
191	0x3f80b012	1.0053732
192	0x3f7f81f3	0.9980766
193	0x3f7f450f	0.9971475
194	0x3f805df5	1.0028673
195	0x3f808412	1.0040305
196	0x3f8155fd	1.0104367
197	0x3f81a433	1.0128235
198	0x3f80c89e	1.0061224
199	0x3f7d6358	0.9897971
200	0x3f7d9fcc	0.99071956
201	0x3f7fc57c	0.9991071
202	0x3f802114	1.0010095
203	0x3f7e7c6a	0.9940859
204	0x3f814a98	1.0100889
205	0x3f806677	1.003127
206	0x3f80c443	1.0059894
207	0x3f7e344a	0.99298537
208	0x3f7e45bd	0.9932516
209	0x3f7da4a2	0.99079335
210	0x3f804091	1.0019704
211	0x3f7e2430	0.9927397
212	0x3f7ddd74	0.99166036
213	0x3f7f87c8	0.9981656
214	0x3f7dc623	0.9913046
215	0x3f7fa3f2	0.99859536
216	0x3f81364b	1.0094694
217	0x3f80b953	1.0056556
218	0x3f8008a4	1.0002637
219	0x3f7d0b54	0.9884541
220	0x3f80b848	1.0056238
221	0x3f7e53e4	0.99346757
222	0x3f80d14d	1.0063874
223	0x3f8117b1	1.0085355
224	0x3f7dffa9	0.9921823
225	0x3f80441a	1.0020783
226	0x3f7dc75f	0.9913234
227	0x3f813c44	1.0096517
228	0x3f7e1e58	0.9926505
229	0x3f7e2fa5	0.9929145
230	0x3f7efc3d	0.99603635
231	0x3f80cf84	1.0063329
232	0x3f802ee5	1.0014311
233	0x3f7edc2d	0.9955471
234	0x3f7e9e17	0.99459976
235	0x3f7f2f7b	0.99681824
236	0x3f7e8117	0.99415725
237	0x3f7f483d	0.997196
238	0x3f7f70e8	0.99781656
239	0x3f7ff159	0.9997764
240	0x3f80d074	1.0063615
241	0x3f80d389	1.0064555
242	0x3f7bcfc1	0.9836388
243	0x3f7fd5d1	0.9993563
244	0x3f7ec3fe	0.9951781
245	0x3f810fa4	1.0082898
246	0x3f80faf5	1.0076586
247	0x3f807d57	1.0038251
248	0x3f7eb7f8	0.99499464
249	0x3f7ee38d	0.99565965
250	0x3f7e62f8	0.99369764
251	0x3f7e6830	0.9937773
252	0x3f8045a8	1.0021257
253	0x3f7ee715	0.99571353
254	0x3f7f8d1e	0.998247
255	0x3f7e3ee2	0.993147

1.bias f4 [256]
0	0x3bfc8161	0.007705853
1	0x3b2a6415	0.0025999595
2	0x3c181b44	0.009283844
3	0x3c37afe9	0.011211374
4	0x3c00a103	0.007850888
5	0x3c1fd174	0.009754527
6	0xbbb95940	-0.0056563914
7	0xbade673c	-0.0016968022
8	0x3c1cf254	0.00957926
9	0xbb94465e	-0.00452499
10	0xbc253821	-0.010084183
11	0x3ba2726c	0.004957488
12	0xbb1ee791	-0.002424691
13	0xbbf5ae3c	-0.007497577
14	0xbbe2c92c	-0.006920954
15	0x3c14334f	0.009045436
16	0xb7427072	-1.1589482e-05
17	0xbbd64b7b	-0.0065397597
18	0xbb6701c0	-0.0035248846
19	0xbc10d129	-0.00883893
20	0x3bab11df	0.0052206363
21	0xbbd3f65b	-0.006468577
22	0xbbe79ccf	-0.0070682536
23	0xbc012b21	-0.007883818
24	0xbbb9d7dc	-0.0056714844
25	0xbb26b407	-0.0025436895
26	0x3b65a42a	0.0035040476
27	0xbb3f6818	-0.0029206332
28	0xbbbbd571	-0.0057322313
29	0xbbcdddd4	-0.0062825475
30	0xb9f95a11	-0.00047560086
31	0xbc11aea2	-0.008891733
32	0x3b3575cf	0.0027688628
33	0x3bb3fb49	0.005492602
34	0x3b3a1aee	0.00283974
35	0x3c04e415	0.00811102
36	0x3ba4eb4f	0.005032934
37	0x3c4e513a	0.012592608
38	0x3bb81dde	0.005618795
39	0xbc00321d	-0.007824448
40	0x3b910d29	0.0044266176
41	0xbbe30a19	-0.006928694
42	0x3baa2d13	0.0051933615
43	0x3b73845d	0.0037157752
44	0x3bfe064b	0.007752215
45	0x3bfd12bf	0.007723182
46	0x3b87a13c	0.0041390937
47	0xbb803970	-0.003913097
48	0x3b918633	0.0044410466
49	0xbbb05023	-0.005380647
50	0xbb13b89a	-0.002254045
51	0x3bdd883f	0.0067606266
52	0xbb55c0b2	-0.0032616076
53	0xbb80bbaf	-0.0039286236
54	0xbbccc325	-0.006248849
55	0xbaffcaa4	-0.0019515348
56	0xbbfb9b72	-0.0076784426
57	0xbbb24e9a	-0.005441499
58	0x3be6dbab	0.0070452294
59	0x3b8aa7c1	0.0042314236
60	0x3beb9c1d	0.007190241
61	0xbbd8957d	-0.0066096173
62	0xbbabe5f7	-0.00524592
63	0xbb4021ca	-0.0029317015
64	0x3b95b4de	0.00456868
65	0xbc4dc21f	-0.012558489
66	0xbc46c755	-0.012132485
67	0x3b95735a	0.00456087
68	0x3b9ce9d7	0.004788618
69	0x3b47158d	0.0030377836
70	0xbbf3262d	-0.0074203224
71	0x3be03a17	0.0068428623
72	0xbc8bc0a2	-0.017059628
73	0xbbf2f465	-0.007414388
74	0x3c290298	0.01031556
75	0xbc119ed2	-0.008887963
76	0xba66cc51	-0.0008804249
77	0xbc1a05a3	-0.009400758
78	0x3b2e6f35	0.0026616578
79	0x3ba2ecb0	0.004972063
80	0xba4b1706	-0.0007747266
81	0xbbc85c8c	-0.006114548
82	0xbbd52498	-0.0065046065
83	0x3abd5e68	0.0014447691
84	0xba240c43	-0.00062579307
85	0x3bb6001a	0.0055542113
86	0xbbcd80e7	-0.00627147
87	0x3bcf15ce	0.006319738
88	0x3c0653ae	0.008198662
89	0xbb9381d1	-0.0045015593
90	0x3b808c6b	0.003922989
91	0x3c363fa1	0.011123569
92	0xbc534d13	-0.012896794
93	0x38e145b0	0.000107418164
94	0x39bb4afd	0.0003572329
95	0x3ac5c951	0.0015089904
96	0xbb40e246	-0.0029431744
97	0xbc16e4e7	-0.009209848
98	0xbbf8b4d1	-0.0075899144
99	0x3c6f1c81	0.014594198
100	0x3bc2f654	0.0059497748
101	0xbbec1513	-0.0072046607
102	0xbc07a7c2	-0.008279743
103	0x3b3ef1ff	0.002913594
104	0x38bf5abe	9.124492e-05
105	0x3c0da390	0.008644953
106	0xbc07d098	-0.008289479
107	0xbba60f2c	-0.0050677266
108	0xbba44686	-0.00501329
109	0xbbe423d4	-0.006962279
110	0x3c039681	0.008031488
111	0x3c0b1ae8	0.008490302
112	0xbc3cba26	-0.011518991
113	0x3c1df877	0.009641758
114	0x3c03feae	0.008056326
115	0xbbd68ba5	-0.0065474086
116	0xbb52efcf	-0.0032186394
117	0x3ba59945	0.0050536715
118	0xbb3c92fd	-0.0028774135
119	0x3bab8b2b	0.005235096
120	0xbc025949	-0.007955858
121	0xbc362c01	-0.01111889
122	0xbb32da43	-0.0027290739
123	0xbbb8278c	-0.0056199487
124	0x3b7cc3a6	0.0038568764
125	0x3c2229a2	0.009897621
126	0xbc00f678	-0.007871263
127	0xbb7d7b86	-0.0038678362
128	0xbba1ac1f	-0.0049338485
129	0x3bcfab60	0.006337568
130	0xbc27e22a	-0.010246793
131	0xbb168e4c	-0.0022973
132	0x3c161c85	0.009162073
133	0x3bc820cd	0.006107426
134	0x3ba72274	0.0051005427
135	0x3c2cbdb2	0.010543274
136	0xbc0dcbdc	-0.008654561
137	0x3b1275c2	0.002234802
138	0xbbde95af	-0.006792746
139	0xbbfc2240	-0.0076945126
140	0xbb23ba2f	-0.00249828
141	0xbad6dd8a	-0.0016392928
142	0x3bca6907	0.006177071
143	0xbbbd8c52	-0.0057845498
144	0xbbeba84d	-0.007191694
145	0xbc0cadcc	-0.008586358
146	0xbc124946	-0.008928603
147	0x3b8ada6c	0.0042374637
148	0xbc108c9e	-0.008822588
149	0x3b0c936b	0.0021450173
150	0x3c14f4fd	0.009091613
151	0xbbbfec3c	-0.0058570188
152	0xbbcfcba0	-0.0063414127
153	0xbbe3d012	-0.006952294
154	0x3b9d9728	0.004809279
155	0xbb179342	-0.0023128544
156	0x3be8fa07	0.0071098837
157	0xbc10e820	-0.008844405
158	0xbb4147f1	-0.0029492343
159	0xbbf15059	-0.0073643145
160	0xbc3a711b	-0.0113795055
161	0x3a8c4283	0.0010700974
162	0x3a3c1657	0.000717496
163	0x3bf537ac	0.0074834432
164	0x3be36f49	0.0069407565
165	0x3c0ed9c6	0.008718913
166	0x3beefa2e	0.0072930073
167	0x3bba8664	0.00569229
168	0x3bf6d710	0.0075329617
169	0xb97b9de4	-0.00023996044
170	0xbb8b63d8	-0.0042538457
171	0x3bb98a1f	0.0056622173
172	0xbb2092e2	-0.0024501611
173	0x3a70f7ac	0.00091921794
174	0xbbaa0d16	-0.0051895482
175	0x3b758cbc	0.0037467917
176	0x3afcad46	0.0019277714
177	0xbbb5c1df	-0.005546793
178	0xbbfe2334	-0.0077556614
179	0xbc012d28	-0.007884301
180	0x3c3ce24a	0.011528561
181	0xbbd6c967	-0.0065547707
182	0x3a0b70f7	0.0005319262
183	0xbb3059d3	-0.0026909008
184	0xbbaad2b1	-0.0052131047
185	0x3ac8fd57	0.001533429
186	0x3ab65b67	0.0013912738
187	0xbb874bf1	-0.004128926
188	0x3b4b1efa	0.0030993805
189	0xbb8f7e5a	-0.004379076
190	0x3ba7a192	0.005115696
191	0xbba55cd0	-0.0050464645
192	0x3af718bf	0.0018851979
193	0x3ac1a0a1	0.0014772603
194	0x3b5a54b8	0.0033314656
195	0xbb6f6498	-0.0036528464
196	0x3c2c910d	0.01053263
197	0xbc5193c6	-0.01279158
198	0xbc01659e	-0.007897763
199	0x3c2780bf	0.010223567
200	0xbbd4a7ea	-0.0064897435
201	0x3a7d5e72	0.00096652575
202	0x3a8b8c88	0.001064674
203	0xbb6109cf	-0.0034338122
204	0x3c265cbb	0.010153945
205	0x3b779aa8	0.0037781391
206	0x3b11e896	0.0022263876
207	0x3bad6285	0.0052912855
208	0x3bde2a5a	0.006779951
209	0xbc13a1e9	-0.00901077
210	0xbb55934e	-0.003258902
211	0xbbd180c4	-0.006393524
212	0x3bde148b	0.0067773513
213	0xba59ad93	-0.00083037576
214	0xbc112989	-0.00886
215	0xba5636ca	-0.00081716164
216	0xbc1a28a7	-0.009409106
217	0x3bbe7000	0.0058116913
218	0x37fb394a	2.9948209e-05
219	0x3bc3f779	0.005980429
220	0x3bf6f1b8	0.0075361393
221	0xbbdad74a	-0.0066784965
222	0x3bd49ca8	0.0064884014
223	0x3c0dccd8	0.008654796
224	0x3bd84945	0.0066005313
225	0xbaf944f3	-0.0019017741
226	0x3bcb4c4e	0.0062041646
227	0x3c154996	0.009111783
228	0x3bee7a5b	0.0072777695
229	0xbbddaa98	-0.006764721
230	0x3b8143df	0.0039448584
231	0x3ba4e2b4	0.005031908
232	0xbbc7ca3e	-0.006097107
233	0xbbbf7ac3	-0.0058434918
234	0xbb9e7148	-0.0048352815
235	0x3ba22d32	0.0049492354
236	0x3bc0af21	0.005880252
237	0x3bb9383d	0.005652456
238	0x3b3a8114	0.0028458284
239	0x38bb2e9e	8.925538e-05
240	0x3c17f12d	0.009273809
241	0x3bd25bbd	0.0064196275
242	0x3c097ea6	0.008392012
243	0xba9c1af4	-0.0011909888
244	0x3b8cf404	0.00430155
245	0x3c04f3f7	0.008114806
246	0xbc0c48f5	-0.008562316
247	0x3b82604c	0.0039787646
248	0x3b96ebfe	0.004605769
249	0x3b8c4223	0.004280345
250	0x3b981eb0	0.00464233
251	0xbbbe1ac1	-0.005801529
252	0x3b1486e9	0.002266342
253	0xbb87831d	-0.004135503
254	0xba1b3982	-0.000592135
255	0x3be11b8c	0.006869739

4.weight f4 [256, 256]
0	0xbd82ee06	-0.063930556
1	0xbd61af76	-0.055098973
2	0x3cea0aae	0.028569546
3	0x3d8620ab	0.065492
4	0xbd4cf7ff	-0.050041195
5	0x3d1d4b85	0.0384021
6	0x3c334f6f	0.010944231
7	0x3d3d1f61	0.046172503
8	0x3c6e7cfe	0.014556168
9	0x3d82e037	0.06390422
10	0x3d25b312	0.040453978
11	0x3c2d66cc	0.010583591
12	0xbd20e4e6	-0.039280795
13	0x3d7f0701	0.06226254
14	0xbd484937	-0.048897948
15	0xbc9986e9	-0.018741088
16	0x3c3a929c	0.011387493
17	0xbd23a251	-0.03994972
18	0xbc7e178d	-0.015508545
19	0x3cd74671	0.026278706
20	0x3d078c33	0.03309269
21	0xbd40c7a7	-0.047065403
22	0x3d8281fa	0.06372447
23	0x3d546ca1	0.05186141
24	0xbc83671f	-0.016040383
25	0xbcbe783a	-0.023250688
26	0xbcfe3a51	-0.031033667
27	0x3d104cde	0.035229556
28	0x3cff10fa	0.031136025
29	0xbc385fdc	-0.011253323
30	0x3ca757cf	0.020427613
31	0xbc301713	-0.010747689
32	0x3d4429a0	0.04789126
33	0xbcb04211	-0.021515878
34	0x3d1c791e	0.038201444
35	0xbb3ca949	-0.0028787425
36	0x3d4bc74b	0.049750607
37	0x3d636a09	0.055521045
38	0xbd88d465	-0.06681136
39	0x3ca66385	0.020311126
40	0xbd7c4918	-0.061593145
41	0x3d86828e	0.0656787
42	0xbcdcfd01	-0.02697611
43	0x3d1c4a32	0.038156696
44	0xbd4ed069	-0.050491724
45	0xbd248666	-0.040167235
46	0xbd502d12	-0.050824232
47	0x3d651877	0.055931535
48	0xbcba1e69	-0.022719579
49	0xbc9bdebe	-0.01902711
50	0x3cf2ea2d	0.02965268
51	0x3d84f749	0.064924784
52	0x399df1ac	0.00030125433
53	0x3c4d03da	0.012513125
54	0xbcc500c5	-0.024048219
55	0xbc7907e0	-0.015199631
56	0xbcf1cf51	-0.029517801
57	0xbd025465	-0.031818766
58	0x3cf283f2	0.029603932
59	0xbc87f24f	-0.016595034
60	0xbd152d77	-0.03642031
61	0xbd132c6b	-0.035931032
62	0x3cd86ab4	0.026418068
63	0x3b3f97d1	0.0029234777
64	0x3ca33867	0.019924356
65	0x3d825b51	0.063650735
66	0xbcd08a22	-0.025456492
67	0xbc376849	-0.011194297
68	0xbd1777d4	-0.03697951
69	0x3bc03cfe	0.005866646
70	0x3cbb08a9	0.022831278
71	0x3d64b11f	0.05583298
72	0xbc4e8074	-0.012603868
73	0x3b17af47	0.0023145245
74	0x3c9c79df	0.019101081
75	0x3cd6438f	0.026155261
76	0x3d5f9193	0.05458219
77	0x3d53b186	0.05168297
78	0xbcbbb017	-0.022911115
79	0xbd5cfb9b	-0.053950887
80	0x3cf5cf5a	0.0300061
81	0x3c3ac2d1	0.011398987
82	0xbd6aa761	-0.05728853
83	0xbc7f593e	-0.015585242
84	0xbafdb1a9	-0.0019355315
85	0xbcf96cdf	-0.030447422
86	0x3ca99c31	0.02070436
87	0x3c9ffda6	0.019530129
88	0x3ce8acdb	0.028402736
89	0x3d4449f4	0.04792209
90	0xbd69b101	-0.05705357
91	0x3d09e011	0.033660952
92	0x3d8585a1	0.06519628
93	0xbca006ad	-0.019534433
94	0x3d6e5177	0.05818316
95	0xbb61e7b5	-0.0034470384
96	0xbb9d0302	-0.0047916183
97	0xbac229a6	-0.0014813438
98	0x3d147a92	0.036249705
99	0xb93002e5	-0.00016785746
100	0xbbcc245a	-0.0062299194
101	0xbcd42d8d	-0.025900627
102	0xbd62357c	-0.055226788
103	0xbc2cfda3	-0.010558519
104	0x3d159d28	0.03652683
105	0xbb10f707	-0.0022119896
106	0x3b6891dd	0.0035487332
107	0x3c662817	0.014047644
108	0xbca88bb3	-0.020574426
109	0xbcf0d857	-0.029400034
110	0x3c54ee41	0.012996257
111	0x3d11b47f	0.035572525
112	0xbb4f68bd	-0.0031648122
113	0xbd07870b	-0.03308777
114	0xbc5da909	-0.013529071
115	0xbd7303e6	-0.05932989
116	0x3a814495	0.0009862358
117	0xbce2dc05	-0.027692804
118	0x3c6383cb	0.013886402
119	0x3d0071a8	0.03135839
120	0x3d3756c9	0.0447605
121	0xbc1512e2	-0.00909874
122	0xbc531723	-0.012883934
123	0xbd53fc2b	-0.051754158
124	0xbc4fb561	-0.012677521
125	0x3bd3cc46	0.0064635603
126	0x3ce5aca2	0.02803642
127	0x3ccd42d4	0.02505628
128	0xbce3e53c	-0.027819268
129	0x3cb8d350	0.0225617
130	0x3c80b3ef	0.015710799
131	0x3d219a1d	0.039453615
132	0xbc5ce165	-0.013481473
133	0xbc44745e	-0.011990635
134	0x3d2f4c34	0.042797282
135	0xbd1d2365	-0.038363833
136	0xbcef7f38	-0.029235467
137	0xbd2e471e	-0.04254829
138	0xbc9dcc47	-0.019262446
139	0xbd3607a7	-0.04444089
140	0xbd52642d	-0.051365066
141	0xbd22d78c	-0.039756343
142	0x3d249d55	0.040189106
143	0xbd7d5c77	-0.06185576
144	0xbd8c659e	-0.068553194
145	0xbc5d20e0	-0.013496608
146	0x3d500c5b	0.050793033
147	0xbc96a6a0	-0.01839
148	0x3d0bd0f5	0.034134824
149	0xbcfd2c14	-0.030904807
150	0x3d3dc695	0.04633196
151	0x3c80860d	0.01568892
152	0xbcc123dd	-0.023576671
153	0x3cfff563	0.03124494
154	0x3d7c9c03	0.061672222
155	0xbc765880	-0.0150357485
156	0xbd812ed1	-0.06307758
157	0xbce6eb85	-0.028188476
158	0x3d08fcd7	0.033444252
159	0x3c126f47	0.008937663
160	0xbb7aef4b	-0.0038289602
161	0x3d0d61d3	0.03451712
162	0x3d841c43	0.06450703
163	0xbcbb36f5	-0.022853354
164	0xbb7ee583	-0.0038894124
165	0xbc71b064	-0.014751527
166	0x3ce9dc73	0.028547501
167	0xbd0c11fa	-0.03419683
168	0xbd86be70	-0.06579292
169	0xbb097a70	-0.002097752
170	0xbbbe5167	-0.0058080438
171	0x3d443647	0.047903325
172	0x3d39bdcf	0.04534703
173	0x3d53bed3	0.051695656
174	0xbd527b1d	-0.05138694
175	0x3d0d43cd	0.034488488
176	0x3ccf4329	0.02530058
177	0x394265d8	0.00018539221
178	0x3d287fd5	0.041137535
179	0x3d614d54	0.055005386
180	0xbcc72120	-0.024307787
181	0x3d100710	0.035162985
182	0xbca043ed	-0.01956364
183	0xbd1b3fdc	-0.037902698
184	0x3cefa3ee	0.029252972
185	0x3d5181aa	0.051149048
186	0xbd8a6635	-0.06757776
187	0xbc89dcc6	-0.016828906
188	0xbd211827	-0.039329674
189	0xbd1e4192	-0.03863675
190	0x3cf6c5fd	0.030123705
191	0xbc213edf	-0.00984165
192	0x3af68aaf	0.0018809641
193	0x3c4389bd	0.011934695
194	0xbb1b9a6a	-0.002374316
195	0x3d89057b	0.066904984
196	0x3c0924ef	0.008370622
197	0x3d8c5dae	0.068538055
198	0x3ceb5dba	0.028731216
199	0xbd389ef5	-0.04507347
200	0xbc7b0480	-0.015320897
201	0xbd14899b	-0.036264043
202	0xbcfae324	-0.030625887
203	0xbd8d8914	-0.06910911
204	0x3d357ef7	0.044310536
205	0xbc109db1	-0.008826659
206	0xbc9b4765	-0.018954942
207	0x3cb454ab	0.02201303
208	0xbd28ad26	-0.041180752
209	0xbc86b4db	-0.01644366
210	0x3ccee75b	0.025256803
211	0x3d1d976f	0.038474496
212	0xbd5a59b2	-0.053308196
213	0xbd2bc7e2	-0.04193867
214	0xbd818b4c	-0.06325397
215	0xbd112719	-0.035437677
216	0x3d01b99a	0.031671144
217	0x3aa8c100	0.0012874901
218	0x3d080ec9	0.033217225
219	0x3d7fa48a	0.062412776
220	0x3cbe2074	0.023208834
221	0x3cb36144	0.021896966
222	0x3c655db8	0.013999395
223	0x3c5b16b4	0.013372112
224	0xbc92a929	-0.017902927
225	0xbd34bc2b	-0.044124763
226	0xbd2ee98a	-0.04270319
227	0xbcca1eae	-0.024672832
228	0xbd43b38a	-0.047778644
229	0xbd7ee47e	-0.062229626
230	0x3d3edaad	0.046595264
231	0xbd1fc571	-0.039006654
232	0x3d0ef564	0.03490199
233	0x3d61f93b	0.055169325
234	0xbd699295	-0.057024557
235	0x3d891d70	0.06695068
236	0xbcaa518b	-0.020790836
237	0x3d558db5	0.052137095
238	0x3c7002a5	0.014649068
239	0x3d626fe2	0.05528248
240	0xbc6640a2	-0.014053496
241	0x3cc2d4b0	0.023783058
242	0x3cc16cd2	0.02361146
243	0x3d708c84	0.058727756
244	0xbd38dec4	-0.04513432
245	0x3d1584aa	0.03650347
246	0x3c7845be	0.015153347
247	0x3cfe4771	0.031039925
248	0xbc7daaf5	-0.015482654
249	0xbd4bd0fa	-0.049759842
250	0xbc220391	-0.009888546
251	0x3ca3972b	0.019969543
252	0xbd820e49	-0.06350381
253	0xbcbbc2a7	-0.022919966
254	0x3a444c35	0.00074881624
255	0x3d1e4248	0.03863743

4.bias f4 [256]
0	0x3d025fdf	0.03182971
1	0xbcff2e03	-0.03114987
2	0xbd3514a1	-0.044209126
3	0x3d4374f7	0.04771897
4	0xbbcb88d1	-0.006211378
5	0x3cf3df75	0.029769639
6	0xbd13e7b8	-0.036109656
7	0xbcb2d42a	-0.021829683
8	0x3bd77d6d	0.006576231
9	0xbce17a41	-0.027524116
10	0x3cebf5ac	0.028803669
11	0x3d460ba1	0.048350934
12	0x3b80058f	0.0039069126
13	0x3c21ff31	0.0098875025
14	0xbbf56205	-0.0074884915
15	0x3c3d3485	0.011548166
16	0x3cb2ac8c	0.021810792
17	0x3d61d473	0.055134248
18	0x3d1309a8	0.03589788
19	0xbc3f7162	-0.011684747
20	0xbc6212bc	-0.013798412
21	0xbd828665	-0.0637329
22	0xbcebed2a	-0.028799612
23	0xbcac0bfd	-0.02100181
24	0x3c017206	0.00790072
25	0xbc8108d9	-0.01575129
26	0xbd342cff	-0.043988224
27	0xbbc63a48	-0.006049428
28	0xbd20c28c	-0.039248034
29	0x3c98f481	0.018671276
30	0xbd5cc56e	-0.05389922
31	0xbcc8ea5e	-0.024525817
32	0xbd81e576	-0.06342594
33	0x3ce032c2	0.027367953
34	0x3cf84028	0.03030403
35	0x3cf48417	0.029848142
36	0x3cacd89a	0.021099377
37	0xbc2ec66e	-0.0106674265
38	0xbd8a1567	-0.067423634
39	0x3d226e2a	0.039655842
40	0xbd5489ac	-0.051889107
41	0xbc5d7ee9	-0.013519027
42	0xbcc45f85	-0.023971329
43	0xbd30c514	-0.0431567
44	0x3cf64d30	0.030066103
45	0xbd280dab	-0.04102866
46	0x3c47405f	0.012161343
47	0x3cce3f5e	0.0251767
48	0x3bf0270d	0.007328874
49	0x3ccf0274	0.025269724
50	0xbc75f401	-0.015011788
51	0xbd95356c	-0.0728558
52	0x3d5617d2	0.05226881
53	0x3c97a0d8	0.018509313
54	0x3d215dbf	0.039396044
55	0xbc8d9060	-0.017280757
56	0xbc74061d	-0.014894036
57	0x3d690393	0.056888174
58	0x3b927595	0.0044695833
59	0xbc3fb2d2	-0.011700349
60	0xbd278877	-0.040901627
61	0xbccba21b	-0.024857571
62	0x3d41c415	0.04730614
63	0xbd893e56	-0.06701343
64	0x3d668b35	0.056285102
65	0xbcadeca6	-0.021231007
66	0x3d5974bc	0.053089842
67	0x3d2a1aa5	0.041529316
68	0x3d32161b	0.043478113
69	0x3c37552f	0.011189743
70	0x3d183cb3	0.037167262
71	0x3d3fd9e7	0.046838667
72	0x3d182ea8	0.03715387
73	0xba8cc2be	-0.001073919
74	0x3cafbdc1	0.021452786
75	0xbd3bec85	-0.04587986
76	0x3d3bf4d0	0.04588777
77	0xbd72aa2a	-0.059244312
78	0xbcb7e248	-0.022446766
79	0xbd830828	-0.0639804
80	0xbc8c960e	-0.017161395
81	0x3d62ea8d	0.055399466
82	0xbc63a63b	-0.013894613
83	0x3d27b3b3	0.04094286
84	0xbcf300dc	-0.029663496
85	0x3d6a21a9	0.057161007
86	0x3cfc94cf	0.030832676
87	0xbc5c8266	-0.013458824
88	0xbd157551	-0.036488835
89	0xbc7cdf43	-0.015434089
90	0x3d3ce7b5	0.04611941
91	0x3d6e1e4c	0.058134362
92	0x3d74c674	0.059759572
93	0xbca521f7	-0.020157797
94	0xbd48f517	-0.04906186
95	0xbd8a2f40	-0.067472935
96	0x3d5948d6	0.053047977
97	0xbd6ef5ba	-0.05833981
98	0xbd06d0b9	-0.032913897
99	0x3be3a539	0.0069471863
100	0x3bf4a058	0.0074654035
101	0x3d1f8de9	0.038953695
102	0xbd804cce	-0.06264649
103	0x3cbe2496	0.023210805
104	0x3d01b713	0.031668734
105	0xbd254f84	-0.040359035
106	0xbd850fc2	-0.06497146
107	0x3d6975ea	0.056997217
108	0xbbeb62c8	-0.0071834065
109	0xbce66866	-0.028125953
110	0xbd5c2c84	-0.05375339
111	0xbc5c358e	-0.013440503
112	0xbd4c1c3f	-0.049831625
113	0xbd008e75	-0.031385858
114	0xbd79fb24	-0.061030522
115	0x3d80fb6f	0.06297957
116	0x3d12d518	0.035847753
117	0xbd426375	-0.04745813
118	0x3b2a3617	0.0025972181
119	0x3d480108	0.04882911
120	0xbd0a857a	-0.0338187
121	0x3c9d4974	0.019200064
122	0x3d70348e	0.05864387
123	0x3d25813e	0.040406458
124	0x3d1d353a	0.03838084
125	0xbcfa32ed	-0.030541861
126	0x3d074ef4	0.03303428
127	0x3c7a4f5c	0.01527771
128	0x3c3cfc36	0.011534741
129	0x3c1961e9	0.0093617225
130	0x3b066732	0.0020508287
131	0x3c88ff68	0.01672335
132	0x3d66923d	0.056291807
133	0x3cdb9217	0.02680306
134	0xbd09fc82	-0.033688076
135	0xbd3c78c3	-0.046013605
136	0x3d1628b9	0.03665993
137	0xbd55d6d4	-0.05220683
138	0xbb20fca0	-0.0024564639
139	0xbd27c080	-0.040955067
140	0x3cf08543	0.02936042
141	0x3d023dad	0.0317971
142	0x3b26d22c	0.0025454862
143	0xbd5b3cb2	-0.05352468
144	0xbbfad2d9	-0.0076545295
145	0x3abe43c1	0.0014516042
146	0xbccb87b7	-0.024844987
147	0xbac0eda0	-0.0014719255
148	0xbd0963ce	-0.033542447
149	0x3d423263	0.047411334
150	0x3b3f2f8d	0.002917263
151	0x3d6ddcdb	0.058071952
152	0xbcb4d72b	-0.022075256
153	0x3cd08f6b	0.025459012
154	0x3d79448b	0.060856383
155	0xbce0d3ca	-0.027444739
156	0xbd63f7f8	-0.055656403
157	0x3ce31d0f	0.027723817
158	0x3bb1456e	0.005409888
159	0xbd4d2519	-0.050084207
160	0xbc92b0b7	-0.01790653
161	0x3c9e0232	0.019288156
162	0xbd2cb67b	-0.042166214
163	0xbc628efd	-0.013828036
164	0xbd701502	-0.058613785
165	0x3d352167	0.044221308
166	0x3d67895c	0.05652748
167	0x3d438078	0.04772994
168	0x3d41251b	0.047154527
169	0xbd5e52c8	-0.054278165
170	0x3d823df1	0.06359471
171	0xbd904ae0	-0.07045531
172	0xbcc1e91f	-0.023670731
173	0xbd6cab95	-0.05778082
174	0xbd2b69dd	-0.041849006
175	0xbd4d740c	-0.0501595
176	0x3cdd5b93	0.027021205
177	0xbc9b1c8f	-0.018934516
178	0x3d876e43	0.06612828
179	0x3ccbc6a9	0.024875002
180	0x3c9b184c	0.018932484
181	0x3d3ea47d	0.046543587
182	0xbcae78dc	-0.021297865
183	0x3c774214	0.015091438
184	0xbbe0d61d	-0.006861462
185	0xbcbced53	-0.023062384
186	0x3c4a6709	0.012353667
187	0x3d05615a	0.032563545
188	0xbc9212c4	-0.017831214
189	0xbc663988	-0.014051802
190	0xbd1f264a	-0.038854875
191	0xbc804ec2	-0.015662555
192	0xbd3b0e18	-0.045667738
193	0xbd3f8e05	-0.0467663
194	0x3d8d6209	0.06903464
195	0x3d0a1f1f	0.033721086
196	0x3c67980e	0.014135374
197	0xbb7ddacf	-0.0038735156
198	0xbc144ffe	-0.009052275
199	0xbc611557	-0.013737998
200	0xbd732ed7	-0.05937084
201	0x3d09989d	0.03359281
202	0xbcbf28b9	-0.023334848
203	0xbd148675	-0.03626104
204	0x3d0b2ac4	0.03397633
205	0xbc66e1e7	-0.014091945
206	0x3d47c0e7	0.04876795
207	0x3d451334	0.048114017
208	0x3d3db172	0.046311803
209	0xbd016d17	-0.031598177
210	0x3cbb68ea	0.022877175
211	0xbd1eb62f	-0.038747963
212	0xbb7fb5f4	-0.0039018365
213	0xbca29932	-0.01984844
214	0x3d5941b1	0.053041164
215	0x3d42eef2	0.047591157
216	0xbb0ed8ab	-0.0021796625
217	0xbd7247ee	-0.05915063
218	0xbaa0c8fd	-0.001226693
219	0x3ce6a5eb	0.028155288
220	0xbd620218	-0.055177778
221	0xbd8d5291	-0.06900514
222	0xbd2d139f	-0.04225504
223	0xbce5c2b3	-0.028046941
224	0xbd1d7c78	-0.03844878
225	0xbd7917d7	-0.06081375
226	0x3c7d4eeb	0.01546071
227	0xbcf0aaa9	-0.029378252
228	0x3cb1b773	0.02169392
229	0x3b6aa1f9	0.003580211
230	0xbc18495f	-0.009294837
231	0xbbc39fd2	-0.00596998
232	0xbc7d8ae0	-0.015475005
233	0xbd7bc65c	-0.061468467
234	0x3d58bfec	0.052917406
235	0xbcf3771f	-0.029719887
236	0x3cabfd61	0.020994844
237	0xbd4a799e	-0.04943239
238	0x3ba6e633	0.00509336
239	0xbd366323	-0.044528138
240	0xbcb1820e	-0.02166846
241	0x3d295809	0.041343722
242	0xbd71b8ac	-0.059014007
243	0xbaad3f7b	-0.0013217771
244	0x3d4a0b36	0.049327098
245	0xbd34fab2	-0.044184394
246	0xbd65c630	-0.05609721
247	0xbcb68528	-0.02228029
248	0x3ba6c331	0.0050891866
249	0x3cc6d853	0.024273073
250	0xbc0266b7	-0.007959059
251	0x3cda0ca8	0.026617363
252	0xbc94c785	-0.018161545
253	0x3c3dda0f	0.011587634
254	0x3c0b399f	0.008497625
255	0x3b21cbc7	0.002468811

5.weight f4 [256]
0	0x3f812aa8	1.0091143
1	0x3f7ec8cb	0.99525136
2	0x3f8127e0	1.0090294
3	0x3f7cc0be	0.987316
4	0x3f817419	1.0113555
5	0x3f7f324a	0.9968611
6	0x3f801514	1.0006433
7	0x3f813473	1.0094131
8	0x3f7db7af	0.99108404
9	0x3f7d5a47	0.9896588
10	0x3f8195c9	1.0123836
11	0x3f81a3bc	1.0128093
12	0x3f81902e	1.0122125
13	0x3f80939d	1.0045048
14	0x3f7a720c	0.9783027
15	0x3f7f4afc	0.9972379
16	0x3f7ca4f9	0.9868923
17	0x3f80d5de	1.0065267
18	0x3f7e4691	0.99326426
19	0x3f7e7599	0.9939819
20	0x3f7e3fdf	0.9931621
21	0x3f807181	1.0034639
22	0x3f80d70c	1.0065627
23	0x3f8035cb	1.0016416
24	0x3f7f7578	0.9978862
25	0x3f81b149	1.0132228
26	0x3f7fca08	0.9991765
27	0x3f806a58	1.0032454
28	0x3f805502	1.0025942
29	0x3f7d4ded	0.9894703
30	0x3f7e8320	0.9941883
31	0x3f7b3e18	0.9814162
32	0x3f7eaaf1	0.99479586
33	0x3f8055dc	1.0026202
34	0x3f7ed5cf	0.99544996
35	0x3f7cbe0e	0.987275
36	0x3f7e47d2	0.9932834
37	0x3f811d54	1.0087075
38	0x3f81af9d	1.0131718
39	0x3f80423a	1.0020211
40	0x3f804267	1.0020264
41	0x3f8120a9	1.0088092
42	0x3f7e6d45	0.9938548
43	0x3f804d19	1.0023528
44	0x3f7f4ffa	0.9973141
45	0x3f809a09	1.0047008
46	0x3f7eca87	0.9952778
47	0x3f80ea57	1.0071515
48	0x3f81085c	1.0080676
49	0x3f796c21	0.97430617
50	0x3f7e76f0	0.99400234
51	0x3f80fef8	1.007781
52	0x3f7e7958	0.99403906
53	0x3f7dfa47	0.9921002
54	0x3f7dac55	0.9909108
55	0x3f7dafcf	0.9909639
56	0x3f7e2a23	0.99283046
57	0x3f808d37	1.0043095
58	0x3f81c3eb	1.0137914
59	0x3f807127	1.0034531
60	0x3f7e997b	0.9945294
61	0x3f7e0cef	0.99238485
62	0x3f810078	1.0078268
63	0x3f7ecb32	0.995288
64	0x3f7c9b55	0.9867452
65	0x3f802cbc	1.0013652
66	0x3f816ea8	1.0111895
67	0x3f80a3e4	1.0050015
68	0x3f7f6ed4	0.99778485
69	0x3f7c9555	0.9866536
70	0x3f7e51c9	0.99343544
71	0x3f7e59b1	0.9935561
72	0x3f7da201	0.99075323
73	0x3f80100c	1.0004897
74	0x3f7f0f09	0.99632317
75	0x3f81b41e	1.0133092
76	0x3f7c4ee8	0.985579
77	0x3f815d1f	1.0106543
78	0x3f7cfdc6	0.9882473
79	0x3f80e0ae	1.0068567
80	0x3f7d0c7e	0.98847187
81	0x3f7e9930	0.99452496
82	0x3f7e1631	0.9925261
83	0x3f80da6a	1.0066655
84	0x3f821a0e	1.0164201
85	0x3f7c2fc6	0.98510396
86	0x3f7ecee3	0.99534434
87	0x3f7f85b2	0.9981338
88	0x3f804265	1.0020262
89	0x3f7e8aa0	0.99430275
90	0x3f7e3896	0.99305093
91	0x3f7ecdaa	0.9953257
92	0x3f7be24d	0.9839218
93	0x3f7d851f	0.9903125
94	0x3f7dd675	0.9915536
95	0x3f812828	1.009038
96	0x3f7d3439	0.9890781
97	0x3f7ed39b	0.99541634
98	0x3f7e8c61	0.9943295
99	0x3f7fc36d	0.9990757
100	0x3f7fd069	0.99927384
101	0x3f8164b7	1.0108861
102	0x3f7e7fae	0.99413574
103	0x3f7e11ea	0.99246085
104	0x3f8195d7	1.0123852
105	0x3f7e7cd6	0.99409235
106	0x3f7f4b3c	0.99724174
107	0x3f7bdfde	0.9838847
108	0x3f812670	1.0089855
109	0x3f7fc3f5	0.9990838
110	0x3f7fec34	0.9996979
111	0x3f7cde40	0.98776627
112	0x3f807747	1.00364
113	0x3f801c05	1.0008551
114	0x3f7da5cc	0.9908111
115	0x3f800d1e	1.0004003
116	0x3f81183f	1.0085524
117	0x3f7f451e	0.9971484
118	0x3f7e27cf	0.99279493
119	0x3f7e9aa2	0.994547
120	0x3f7e06c7	0.9922909
121	0x3f7d0e70	0.98850155
122	0x3f8056a6	1.0026443
123	0x3f815f72	1.0107253
124	0x3f7de22c	0.99173236
125	0x3f7ff278	0.9997935
126	0x3f7f57ac	0.9974315
127	0x3f7e04d9	0.99226147
128	0x3f810252	1.0078833
129	0x3f7fd20f	0.999299
130	0x3f7ffbe7	0.9999375
131	0x3f812215	1.0088526
132	0x3f813fd7	1.0097607
133	0x3f7eb11b	0.9948899
134	0x3f805f45	1.0029074
135	0x3f80d085	1.0063635
136	0x3f7fac34	0.99872136
137	0x3f7e168c	0.99253154
138	0x3f7fe8ca	0.9996458
139	0x3f7e45a2	0.99325
140	0x3f8145e6	1.0099456
141	0x3f7e65ab	0.99373883
142	0x3f7c74d3	0.9861576
143	0x3f7e02a9	0.9922281
144	0x3f7c4ae8	0.985518
145	0x3f7cea41	0.98794943
146	0x3f7fb162	0.9988004
147	0x3f7e4933	0.99330443
148	0x3f7c872d	0.9864376
149	0x3f7f1f10	0.9965677
150	0x3f7f7182	0.99782574
151	0x3f80a07d	1.0048977
152	0x3f811898	1.008563
153	0x3f803ff9	1.0019523
154	0x3f7fccb3	0.9992172
155	0x3f7b5ce3	0.9818861
156	0x3f7ccdd1	0.9875155
157	0x3f7ebdc4	0.9950831
158	0x3f7fb743	0.9988901
159	0x3f7ff98f	0.9999017
160	0x3f809a5b	1.0047106
161	0x3f80e99e	1.0071294
162	0x3f7d3a8e	0.9891747
163	0x3f7e9c35	0.99457103
164	0x3f800bd7	1.0003613
165	0x3f7bba26	0.98330915
166	0x3f7e935f	0.9944362
167	0x3f7dd44c	0.99152064
168	0x3f7ea341	0.99467856
169	0x3f8108be	1.0080793
170	0x3f7f7aab	0.9979655
171	0x3f79da63	0.97598857
172	0x3f809c2a	1.0047657
173	0x3f7e0822	0.9923116
174	0x3f7f3bd0	0.9970064
175	0x3f7e68c5	0.99378616
176	0x3f7f2ec0	0.9968071
177	0x3f80e0d8	1.0068617
178	0x3f80be16	1.005801
179	0x3f81f552	1.0152991
180	0x3f803b35	1.0018069
181	0x3f810bf9	1.0081779
182	0x3f807667	1.0036134
183	0x3f7c70cf	0.9860963
184	0x3f803940	1.0017471
185	0x3f809e3a	1.0048287
186	0x3f80be5b	1.0058092
187	0x3f7b9f2d	0.9828976
188	0x3f7dafde	0.9909648
189	0x3f78f410	0.9724741
190	0x3f81067b	1.0080103
191	0x3f80f50b	1.0074781
192	0x3f7e356f	0.99300283
193	0x3f7e36cb	0.9930236
194	0x3f817328	1.0113268
195	0x3f7e54d9	0.9934822
196	0x3f7dd322	0.9915029
197	0x3f7be28f	0.98392576
198	0x3f802900	1.0012512
199	0x3f809f3c	1.0048594
200	0x3f7c50a0	0.98560524
201	0x3f814e85	1.0102087
202	0x3f7e7987	0.99404186
203	0x3f7c0e7c	0.984596
204	0x3f7e9a62	0.9945432
205	0x3f809ee7	1.0048493
206	0x3f7e09bf	0.9923362
207	0x3f800025	1.0000044
208	0x3f7dcfc3	0.99145144
209	0x3f80f1e7	1.0073823
210	0x3f80d7d9	1.0065871
211	0x3f7f1980	0.99648285
212	0x3f80377a	1.001693
213	0x3f8182a4	1.0117993
214	0x3f7dafd2	0.99096406
215	0x3f7ebb59	0.9950462
216	0x3f80ed5f	1.007244
217	0x3f7c8220	0.98636055
218	0x3f7dbf0f	0.9911966
219	0x3f80a122	1.0049174
220	0x3f81bbd8	1.013545
221	0x3f7e28af	0.9928083
222	0x3f817d17	1.0116299
223	0x3f7f27f0	0.99670315
224	0x3f7f76a6	0.9979042
225	0x3f80fce7	1.007718
226	0x3f76c2a9	0.9639078
227	0x3f7ec69d	0.9952181
228	0x3f80e2b1	1.0069181
229	0x3f7f1d0f	0.99653715
230	0x3f7ffa56	0.9999136
231	0x3f7f58cd	0.99744874
232	0x3f80c25e	1.0059316
233	0x3f812b49	1.0091335
234	0x3f80753d	1.0035778
235	0x3f7ba039	0.98291355
236	0x3f803618	1.0016508
237	0x3f817172	1.0112746
238	0x3f8018f4	1.0007615
239	0x3f7e60fc	0.99366736
240	0x3f7bd3f6	0.983703
241	0x3f80fd2e	1.0077264
242	0x3f7dfe7d	0.99216443
243	0x3f7e91a9	0.9944101
244	0x3f7e5f4c	0.9936416
245	0x3f817d12	1.0116293
246	0x3f81224f	1.0088595
247	0x3f81e564	1.014813
248	0x3f7f5442	0.9973794
249	0x3f7bb50e	0.9832314
250	0x3f806791	1.0031606
251	0x3f802d91	1.0013906
252	0x3f817922	1.0115092
253	0x3f7e42bc	0.9932058
254	0x3f7e708a	0.9939047
255	0x3f81ac44	1.0130696
