MACHINE_LEARNING/checkpoints/o3_model_epoch9.pt (torch, 419225 bytes, 13 tensors)

0.weight f4 [256, 12]
0.14923581 0.17305715 -0.0386832 -0.037533622 -0.06748952 0.007932206 0.042502332 0.0023656865
0.18884172 0.19231905 0.016277818 0.11005567 0.20426136 0.22424193 -0.13521634 -0.11894433
0.07160575 -0.25832665 0.11803133 -0.017745262 -0.13878746 -0.073903374 -0.18876046 -0.09910191
0.014953311 0.21313289 0.038469594 0.16540375 -0.24785066 0.035731055 0.133967 0.20836137
-0.10608956 -0.26833573 -0.1868926 -0.19193718 -0.17923298 -0.13308299 -0.24240075 0.21589006
0.10339468 0.1572693 0.28138846 -0.13535166 -0.0878848 -0.044042505 -0.24394087 -0.21797857
0.04371807 -0.15466553 0.2794584 -0.2802279 0.1778449 -0.029458951 -0.23081113 0.112956606
0.15184182 0.0006252296 0.23805454 -0.014282029 -0.0047208234 -0.12687743 0.0785166 -0.12300934
0.06755519 0.2240499 -0.17000936 0.14167154 0.24919356 0.013654609 -0.20364378 -0.18550842
0.03421633 -0.13362804 0.16815402 -0.08244509 -0.20486148 0.21670209 -0.104301125 -0.03600689
-0.0015752963 0.0276199 -0.0669309 0.24399616 -0.20059313 -0.122373976 -0.13406616 0.0069658323
-0.21288197 -0.25318637 -0.24510923 -0.25849873 0.07387668 0.2811964 0.07416736 -0.16152345
0.22165585 0.21299079 -0.09468891 0.19874677 0.15158351 0.18162237 0.06617913 -0.25338596
-0.0013652422 0.106344834 0.22140136 0.13897407 -0.17724693 -0.23692697 -0.033049118 0.0085896375
0.26759413 -0.28923246 0.25466794 -0.06683218 -0.24255921 -0.25277507 0.044166848 0.10063057
0.2663404 -0.022853458 0.050329536 0.18335153 -0.20455189 0.1033881 0.057515778 -0.006692279
0.065451026 -0.12522309 -0.18823895 -0.100982904 -0.22714722 0.27340505 -0.15641782 0.25805253
0.28065374 0.2082406 -0.04560803 0.22250143 -0.20877434 0.06327364 -0.034847334 -0.040418793
-0.17228507 0.2776712 -0.13655628 0.11971995 -0.1817848 0.19438146 0.046119824 0.20060638
-0.10612813 -0.13081247 0.25126135 -0.24597722 -0.094416074 -0.010159736 -0.28506193 0.2649288
-0.13213085 0.037790824 0.13126542 -0.19534618 -0.180198 0.24793816 -0.13998197 0.04500374
-0.05032218 -0.18511443 -0.17482497 0.20862336 0.0067084446 -0.13114765 -0.018640932 -0.23380546
-0.2686927 -0.015234372 -0.06975474 0.079104446 0.07699997 0.14039876 0.13471921 -0.054498624
0.07257189 0.08555105 -0.12809214 0.009984367 -0.09266037 0.17031991 0.2657827 0.24065588
0.17202166 -0.0063152434 -0.015234689 0.09629553 0.23486514 -0.07098981 0.21640283 -0.14746967
-0.02525017 0.15668109 0.23793703 0.042596806 -0.058075204 0.27424252 -0.08072449 0.13450791
0.16747488 0.03151889 0.26817098 -0.11171108 -0.2520093 -0.08178098 0.22020769 -0.04682995
0.08937764 0.17682089 -0.02733676 0.2261147 0.036407728 -0.2584442 -0.035874818 0.26388377
-0.19982365 0.16278581 -0.13455006 0.09812206 -0.2287222 0.11744862 -0.061001122 -0.06448356
0.047948413 0.26030186 -0.120900825 0.05203245 -0.00067434664 -0.222489 -0.049694095 -0.18690401
0.0074954215 -0.2349219 0.22806902 -0.012705935 -0.164973 -0.02250462 -0.1553435 0.10790018
-0.06397251 -0.050524022 -0.2696705 -0.06339184 0.2189749 -0.2466134 -0.28820547 -0.10885842
00000000: 46d1 183e e535 313e 4672 1ebd dbbc 19bd
00000010: f237 8abd 15f6 013c ed16 2e3d a209 1b3b
00000020: b95f 413e 49ef 443e 0f59 853c de64 e13d
00000030: e429 513e ad9f 653e 2776 0abe 1699 f3bd
00000040: 09a6 923d 6443 84be 69ba f13d 835e 91bc
00000050: 4d1e 0ebe a75a 97bd 6c4a 41be f1f5 cabd
00000060: bbfe 743c 823f 5a3e 4b92 1d3d 9a5f 293e
00000070: 90cc 7dbe ba5a 123d a52e 093e af5c 553e
00000080: 7c45 d9bd 4d63 89be c660 3fbe 2e8b 44be
00000090: da88 37be e846 08be e737 78be 4912 5d3e
000000a0: 97c0 d33d 340b 213e 2612 903e a099 0abe
000000b0: f2fc b3bd ea65 34bd a3cb 79be c635 5fbe
000000c0: b811 333d a460 1ebe 2c15 8f3e 087a 8fbe
000000d0: f91c 363e e653 f1bc c159 6cbe cb55 e73d
000000e0: 6c7c 1b3e 73e6 233a 92c4 733e 2cff 69bc
000000f0: 23b1 9abb 28ec 01be 50cd a03d 52ec fbbd
00000100: 605a 8a3d 566d 653e ef16 2ebe 5812 113e
00000110: 992c 7f3e 95b7 5f3c ff87 50be ebf5 3dbe
00000120: 6c26 0c3d cad5 08be 9130 2c3e f9d8 a8bd
00000130: 35c7 51be 27e7 5d3e d49b d5bd f67b 13bd
00000140: 2c7a ceba 2143 e23c 1113 89bd 21da 793e
00000150: 4968 4dbe 359f fabd a448 09be a341 e43b
00000160: bbfd 59be a5a1 81be eafd 7abe f259 84be
00000170: a84c 973d f9f8 8f3e 0fe5 973d 6766 25be
00000180: c0f9 623e 421a 5a3e 42ec c1bd 4684 4b3e
00000190: b538 1b3e 37fb 393e ec88 873d cebb 81be
000001a0: edf1 b2ba 52cb d93d 0ab7 623e 384f 0e3e
000001b0: 3880 35be fc9c 72be 835e 07bd 8dbb 0c3c
000001c0: 1902 893e 4716 94be d663 823e 4fdf 88bd
000001d0: 7161 78be bc6b 81be 4ce8 343d 6617 ce3d
000001e0: c55d 883e 2d37 bbbc 5826 4e3d 81c0 3b3e
000001f0: 0d76 51be 24bd d33d aa95 6b3d e84a dbbb
00000200: 300b 863d 7b3a 00be b6c1 40be 20d0 cebd
00000210: 4899 68be bffb 8b3e fe2b 20be 761f 843e
00000220: d9b1 8f3e 063d 553e 7ccf 3abd 6ad7 633e
00000230: f1c8 55be 9c95 813d 14bc 0ebd 2d8e 25bd
00000240: 7f6b 30be eb2a 8e3e 69d5 0bbe bc2f f53d
00000250: cb25 3abe ef0b 473e 24e8 3c3d c26b 4d3e
00000260: b459 d9bd b4f3 05be 54a5 803e 74e1 7bbe
00000270: 375d c1bd 0575 26bc a3f3 91be bfa4 873e
00000280: 4f4d 07be 8dca 1a3d 716a 063e d408 48be
00000290: d385 38be 80e3 7d3e 6f57 0fbe d755 383d
000002a0: a11e 4ebd a38e 3dbe 5105 33be 5da1 553e
000002b0: 83d2 db3b 924b 06be deb4 98bc b36a 6fbe
000002c0: 1792 89be 9699 79bc 93db 8ebd 8301 a23d
000002d0: 29b2 9d3d b1c4 0f3e d5f3 093e f339 5fbd
000002e0: 92a0 943d 6435 af3d 962a 03be 7895 233c
000002f0: b8c4 bdbd 5868 2e3e ac14 883e 7f6e 763e
00000300: 7226 303e 1af0 cebb eb9a 79bc 9736 c53d
00000310: 7d80 703e 1b63 91bd b498 5d3e 4a02 17be
00000320: 72d9 cebc 0271 203e c4a5 733e fd79 2e3d
00000330: 44e0 6dbd 8469 8c3e e252 a5bd 71bc 093e
00000340: 897e 2b3e f419 013d b54d 893e c7c8 e4bd
00000350: 5d07 81be c97c a7bd 207e 613e c3d0 3fbd
00000360: a00b b73d 8910 353e 57f1 dfbc 9d8a 673e
00000370: 4520 153d cc52 84be 79f1 12bd c61b 873e
00000380: 929e 4cbe 53b1 263e 7ec7 09be 38f4 c83d
00000390: 2736 6abe e788 f03d 50dc 79bd f50f 84bd
000003a0: 8e65 443d 4946 853e da9a f7bd fa1f 553d
000003b0: a3c6 30ba 28d4 63be 098c 4bbd c463 3fbe
000003c0: 279c f53b 5e8f 70be ed8a 693e 8e2c 50bc
000003d0: afee 28be 9c5b b8bc 5e12 1fbe c5fa dc3d
000003e0: 0504 83bd 47f2 4ebd 4012 8abe 95d3 81bd
000003f0: f53a 603e 3988 7cbe ab8f 93be 2af1 debd

0.bias f4 [256]
-0.09625385 0.25530845 -0.09344027 -0.027035367 -0.06353361 -0.21110737 0.23684059 0.2554721
-0.22602491 -0.073311806 0.12554067 0.072477214 -0.15458056 -0.16559887 -0.12700999 0.04099453
-0.28529173 0.030855149 -0.15669645 -0.28782743 0.20959362 -0.048323184 0.08375128 -0.2125049
-0.1768735 -0.2707394 0.11262223 0.10367137 0.067281745 -0.26426786 0.23584834 -0.067817464
0.044538006 -0.09162659 0.027731456 0.087889425 -0.27026874 0.22697467 -0.075684816 0.043457903
0.04775602 -0.0045197126 0.17506936 0.26101303 0.19558299 0.14738925 0.26669338 -0.018855713
0.002397795 0.21538493 0.24819672 0.024575487 0.07138993 -0.27758414 -0.18716908 0.15077111
0.18797998 -0.11055248 -0.14762972 0.19832161 -0.27934253 0.22062132 0.27551392 -0.1908125
0.14621884 -0.08354645 0.19959837 -0.1910138 0.20265931 -0.15781765 -0.122251965 -0.16660014
0.14301945 0.059993666 -0.012608806 -0.2440768 -0.27454817 0.13073796 -0.24818498 -0.037769534
0.06276432 0.035995293 0.24700114 0.1469649 -0.018635696 0.066916436 -0.11572731 0.115153946
-0.20071667 -0.11821819 0.24972187 0.070966445 0.05293813 0.18407972 -0.23246437 0.02250986
-0.27454093 -0.19803742 0.1563718 -0.107114814 -0.19631644 -0.070457056 0.1913913 0.23156923
-0.060133766 -0.12576042 0.22951967 0.1978943 -0.12223801 0.16970263 -0.23723517 0.07578864
-0.25156328 -0.2339626 -0.17675225 -0.26410633 0.02547416 0.06885664 0.12897505 0.2234631
-0.28382286 -0.10938687 -0.07365768 0.01066087 -0.23826392 -0.083690785 0.01138639 0.012430018
-0.24252267 -0.11602996 -0.2418081 0.13550085 0.2504274 0.2313743 -0.024392124 0.19249767
-0.15241303 0.077036716 0.25573662 0.13184847 -0.14791434 -0.18437134 -0.23498523 -0.022914303
0.0154594295 -0.0065685436 0.07676461 -0.26658592 0.20134816 0.23359032 0.14448708 -0.012271849
0.27269053 -0.051996436 -0.070799455 0.01798127 0.004500288 0.08423041 0.05626784 -0.07917049
0.055065706 -0.15548651 -0.24425834 -0.2233997 -0.08188181 -0.11879735 0.056925893 0.118628755
0.2345311 0.26760074 -0.26723975 -0.20500875 0.24817832 -0.12205334 -0.15201272 -0.05853266
0.22038798 -0.1971827 0.15741313 -0.2729333 0.21102291 -0.19558987 -0.24136865 0.1835682
0.23312078 -0.20746703 0.15262932 0.19003193 -0.26752195 -0.14708796 -0.08347644 0.08024534
0.19500825 0.029406717 0.029726813 0.03084949 0.24474666 0.16199729 0.101630166 -0.16584611
-0.06393802 -0.266151 0.14182109 0.19524515 -0.11511006 -0.23453948 -0.2791279 0.043934125
-0.13545552 -0.015054337 0.010666053 -0.20710568 0.15953796 0.28272888 -0.18090066 0.06541309
0.16451445 -0.18133245 0.07668362 -0.26275608 -0.061087046 0.2722402 -0.012894489 -0.26799533
0.019017953 -0.080214895 0.201331 0.10628676 0.21597101 0.025087014 -0.18121904 0.22713833
0.03325221 -0.2768812 0.21971461 -0.27720615 0.077313244 -0.057395857 -0.22092532 0.058312822
-0.02339127 -0.21114388 -0.13734134 0.051101457 -0.25549555 0.21086828 -0.038213693 0.18273546
0.12026628 -0.22179034 0.26437825 -0.28482273 0.1024086 0.1851732 -0.0825837 -0.18516089
00000000: bd20 c5bd cab7 823e 9d5d bfbd 4679 ddbc
00000010: e91d 82bd 882c 58be 5786 723e 3dcd 823e
00000020: 1373 67be 8024 96bd bc8d 003e ef6e 943d
00000030: 5e4a 1ebe c092 29be e80e 02be e1e9 273d
00000040: c211 92be f0c3 fc3c 0975 20be 1e5e 93be
00000050: b69f 563e 88ee 45bd cb85 ab3d e29a 59be
00000060: 541e 35be 5b9e 8abe 7ca6 e63d a851 d43d
00000070: 03cb 893d 1e4e 87be 3a82 713e e2e3 8abd
00000080: 7c6d 363d b9a6 bbbd 142d e33c 5fff b33d
00000090: aa60 8abe 0c6c 683e a400 9bbd ea00 323d
000000a0: d19b 433d 191a 94bb 6245 333e 80a3 853e
000000b0: e846 483e 35ed 163e 098c 883e 4c77 9abc
000000c0: 5324 1d3b de8d 5c3e 4827 7e3e 8852 c93c
000000d0: e234 923d 821f 8ebe 40a9 3fbe be63 1a3e
000000e0: d37d 403e 5769 e2bd 3f2c 17be d214 4b3e
000000f0: fc05 8fbe 8eea 613e 2910 8d3e 5a64 43be
00000100: 64ba 153e 671a abbd 8463 4c3e 1f99 43be
00000110: ec85 4f3e f39a 21be 3d5f fabd 3a99 2abe
00000120: b173 123e ebbb 753d 2a95 4ebc 45ef 79be
00000130: 9491 8cbe 2ce0 053e 3424 7ebe 3ab4 1abd
00000140: 948a 803d cd6f 133d deed 7c3e f77d 163e
00000150: e3a9 98bc 7c0b 893d 7102 edbd d5d5 eb3d
00000160: ac88 4dbe 611c f2bd 17b7 7f3e db56 913d
00000170: a7d5 583d 657f 3c3e 240b 6ebe 9966 b83c
00000180: a190 8cbe 52ca 4abe ee1f 203e 035f dbbd
00000190: 2d07 49be ca4b 90bd 15fc 433e 7c20 6d3e
000001a0: d34e 76bd 57c7 00be 3407 6b3e cea4 4a3e
000001b0: ec57 fabd 87c6 2d3e c7ed 72be 1337 9b3d
000001c0: e7cc 80be e493 6fbe 8bfe 34be f238 87be
000001d0: 30af d03c b604 8d3d 0912 043e 83d3 643e
000001e0: 3b51 91be 3906 e0bd d6d9 96bd eeaa 2e3c
000001f0: 75fb 73be 1366 abbd fb8d 3a3c 46a7 4b3c
00000200: dd57 78be 1ea1 edbd 8b9c 77be bcc0 0a3e
00000210: 0538 803e 62ed 6c3e fed1 c7bc 1c1e 453e
00000220: 2912 1cbe 6dc5 9d3d e9ef 823e 4903 073e
00000230: db76 17be d7cb 3cbe f89f 70be c7b6 bbbc
00000240: 8c49 7d3c f03c d7bb c436 9d3d f37d 88be
00000250: 362e 4e3e 4d32 6f3e 6cf4 133e de0f 49bc
00000260: 189e 8b3e 37fa 54bd 4eff 90bd 754d 933c
00000270: 2777 933b fe80 ac3d 1b79 663d 2324 a2bd
00000280: 948c 613d db37 1fbe dc1e 7abe e4c2 64be
00000290: a7b1 a7bd 064c f3bd 202b 693d a2f3 f23d
000002a0: ec28 703e f702 893e a6d3 88be d0ed 51be
000002b0: 7522 7e3e 1af7 f9bd 39a9 1bbe f1bf 6fbd
000002c0: 63ad 613e 43ea 49be e830 213e eabd 8bbe
000002d0: 6416 583e b648 48be 5829 77be 4df9 3b3e
000002e0: 37b7 6e3e 3d72 54be dc4a 1c3e bb97 423e
000002f0: a3f8 88be 3a9e 16be b2f5 aabd ab57 a43d
00000300: 3eb0 473e 5be6 f03c a585 f33c 12b8 fc3c
00000310: de9e 7a3e 9ee2 253e 7a23 d03d 90d3 29be
00000320: f0f1 82bd f244 88be 8c39 113e 58ee 473e
00000330: d3be ebbd 1e2b 70be dae9 8ebe 45f4 333d
00000340: dab4 0abe 77a6 76bc abc0 2e3c 8313 54be
00000350: eb5d 233e d7c1 903e 063e 39be 4cf7 853d
00000360: 7a76 283e 37af 39be 4d0c 9d3d f787 86be
00000370: 6936 7abd 1163 8b3e 6843 53bc af36 89be
00000380: 8acb 9b3c b547 a4bd b729 4e3e dfac d93d
00000390: 8127 5d3e 4883 cd3c 7c91 39be f396 683e
000003a0: 7833 083d 5fc3 8dbe defc 603e f7ed 8dbe
000003b0: 6856 9e3d eb17 6bbd 3f3a 62be 6dd9 6e3d
000003c0: 0c9f bfbc 1a36 58be 35a3 0cbe c34f 513d
000003d0: 50d0 82be dbed 573e f685 1cbd 011f 3b3e
000003e0: 2b4e f63d 021d 63be 965c 873e 49d4 91be
000003f0: 9abb d13d 0b9e 3d3e a521 a9bd d19a 3dbe

1.weight f4 [256]
1.007398 1.0011147 1.0092777 0.98879415 1.0069594 1.0077995 0.9937732 1.0020444
1.0095584 1.0043573 0.9904456 0.9950928 1.0024083 1.0070529 1.0067997 1.0085601
0.99976313 1.0060995 0.9962382 1.0087585 1.0062803 0.992712 1.0066544 0.9873619
1.0058635 1.0011348 0.9964338 0.9982396 1.0056111 0.9937737 0.99918336 1.0082284
0.99704504 0.9944679 1.0019597 1.0093173 0.99480337 0.98787993 1.0055754 1.0078139
1.0038695 0.9963328 1.0029893 1.0068897 1.0075502 1.0038782 1.004186 1.0032089
0.99581903 0.9938738 1.0020767 0.9941694 0.9965918 0.99607307 0.9935628 0.99876994
0.9923946 0.9917194 1.0080177 0.9953266 0.99284774 0.9931948 0.99433106 1.0031841
1.0042804 1.0126977 1.0119436 0.99424875 1.0048873 0.9977602 1.0037905 0.9929048
0.9829541 0.9925618 1.0117532 1.0090533 1.0009071 1.0093373 0.99790215 1.0009307
0.99904346 0.99285185 0.99282014 0.9988407 0.99769944 1.0049759 0.99297506 0.99324423
1.0082116 0.9954332 1.0012556 1.0039116 1.0126475 0.9998498 0.99933666 0.9991584
0.99743664 1.0092015 1.0073897 0.9850844 0.99387884 1.0074399 0.9917661 0.9969805
1.0024086 0.9866299 1.0082116 0.99470353 1.0043304 0.99288374 0.9920037 1.0082229
1.0044717 1.0090432 0.9876358 0.99042696 1.0030811 1.0051327 0.9926927 1.0054581
0.9912462 1.0105219 1.0026416 1.0055946 0.99535453 1.007823 1.0064018 0.9897103
0.994997 1.007613 1.0105299 0.9951171 1.0086824 0.9936768 1.0050089 1.0065043
0.99125063 1.0019144 1.0069262 0.99191886 0.9972437 0.9980464 1.005222 0.9946137
0.99296916 0.99374384 1.0090853 1.0003959 0.99123377 0.9977726 1.0087564 1.0059295
0.99337476 1.0046157 0.9848346 1.0018902 1.0063698 1.0085816 0.98990726 1.0072877
0.98836017 0.9992633 0.9994594 0.9929022 1.0069703 1.0071504 1.0081054 1.0020835
1.0062542 0.99962723 0.9957003 1.0063251 0.99692833 0.99944556 1.0049752 1.0025686
0.99714005 1.0057954 1.0067133 1.0048625 1.0115656 0.9928525 0.999404 0.99561274
1.0034795 0.9985452 1.00089 1.0038177 0.9966431 1.0045124 1.0011873 1.0052414
0.9979218 0.9972426 1.0025299 1.0044851 1.0105784 1.0126817 1.0060709 0.9900574
0.991286 0.9995778 1.0009968 0.9939519 1.0101246 1.0032104 1.005932 0.9929274
0.9932741 0.9906172 1.0016856 0.99285877 0.9913483 0.99847084 0.99148035 0.99835294
1.009402 1.0057262 1.0002065 0.9888929 1.0055542 0.9933265 1.0067117 1.0083548
0.9927873 1.0022014 0.9914702 1.009379 0.99262816 0.9930181 0.9958609 1.0062248
1.0016046 0.9953985 0.9945419 0.99677753 0.994207 0.99725646 0.99772936 0.999799
1.0062686 1.0064036 0.9839148 0.9993899 0.9951126 1.0082678 1.0073541 1.003777
0.99486965 0.99545825 0.9937182 0.9938617 1.0022262 0.99601847 0.99809813 0.99311656
00000000: 6bf2 803f 8724 803f 0330 813f 9d21 7d3f
00000010: 0ce4 803f 93ff 803f ec67 7e3f fe42 803f
00000020: 3639 813f c88e 803f d88d 7d3f 67be 7e3f
00000030: ea4e 803f 1ce7 803f d0de 803f 7f18 813f
00000040: 7af0 7f3f dec7 803f 7709 7f3f 001f 813f
00000050: cbcd 803f 6022 7e3f 0dda 803f c0c3 7c3f
00000060: 23c0 803f 2f25 803f 4916 7f3f a18c 7f3f
00000070: ddb7 803f f467 7e3f 7bca 7f3f a10d 813f
00000080: 583e 7f3f 7395 7e3f 3740 803f 4f31 813f
00000090: 6fab 7e3f b3e5 7c3f b2b6 803f 0c00 813f
000000a0: cc7e 803f ab0f 7f3f f461 803f c3e1 803f
000000b0: 68f7 803f 157f 803f 2b89 803f 2669 803f
000000c0: ffed 7e3f 836e 7e3f 0d44 803f e381 7e3f
000000d0: a420 7f3f a5fe 7e3f 225a 7e3f 63af 7f3f
000000e0: 930d 7e3f 53e1 7d3f b906 813f b9cd 7e3f
000000f0: 452b 7e3f 0442 7e3f 7b8c 7e3f 5668 803f
00000100: 438c 803f 14a0 813f 5e87 813f 1687 7e3f
00000110: 26a0 803f 366d 7f3f 357c 803f 022f 7e3f
00000120: e1a2 7b3f 8818 7e3f 2181 813f a928 813f
00000130: b91d 803f f731 813f 8476 7f3f 7f1e 803f
00000140: 50c1 7f3f 8a2b 7e3f 7629 7e3f 06b4 7f3f
00000150: 3b69 7f3f 0da3 803f 9d33 7e3f 4145 7e3f
00000160: 140d 813f b6d4 7e3f 2529 803f 2d80 803f
00000170: 6f9e 813f 28f6 7f3f 87d4 7f3f d8c8 7f3f
00000180: 0258 7f3f 842d 813f 25f2 803f 7e2e 7c3f
00000190: d86e 7e3f caf3 803f 62e4 7d3f 1d3a 7f3f
000001a0: ed4e 803f c793 7c3f 140d 813f e4a4 7e3f
000001b0: e68d 803f a12d 7e3f f4f3 7d3f 730d 813f
000001c0: 8792 803f 5428 813f b3d5 7c3f 9f8c 7d3f
000001d0: f664 803f 30a8 803f 1c21 7e3f dab2 803f
000001e0: 50c2 7d3f c858 813f 8f56 803f 53b7 803f
000001f0: 8ecf 7e3f 5800 813f c6d1 803f a75d 7d3f
00000200: 20b8 7e3f 76f9 803f 0b59 813f ffbf 7e3f
00000210: 811c 813f 9a61 7e3f 22a4 803f 22d5 803f
00000220: 9ac2 7d3f bb3e 803f f5e2 803f 65ee 7d3f
00000230: 5d4b 7f3f f87f 7f3f 1dab 803f 019f 7e3f
00000240: 3a33 7e3f ff65 7e3f b529 813f f90c 803f
00000250: 7fc1 7d3f 066e 7f3f ee1e 813f 4cc2 803f
00000260: cf4d 7e3f 3f97 803f 1f1e 7c3f f03d 803f
00000270: bad0 803f 3419 813f 906a 7d3f ceee 803f
00000280: 2c05 7d3f b8cf 7f3f 92dc 7f3f d72e 7e3f
00000290: 67e4 803f 4eea 803f 9909 813f 4644 803f
000002a0: f0cc 803f 92e7 7f3f 37e6 7e3f 43cf 803f
000002b0: b236 7f3f aadb 7f3f 07a3 803f 2b54 803f
000002c0: 9244 7f3f e7bd 803f fbdb 803f 569f 803f
000002d0: fb7a 813f 952b 7e3f f1d8 7f3f 7ae0 7e3f
000002e0: 0472 803f a9a0 7f3f 2a1d 803f 197d 803f
000002f0: 0124 7f3f dd93 803f e826 803f c0ab 803f
00000300: ce77 7f3f 4b4b 7f3f e652 803f f892 803f
00000310: a25a 813f 8e9f 813f eec6 803f 6774 7d3f
00000320: ebc4 7d3f 55e4 7f3f aa20 803f a273 7e3f
00000330: c34b 813f 3369 803f 61c2 803f 7d30 7e3f
00000340: 3647 7e3f 1799 7d3f 3c37 803f fe2b 7e3f
00000350: 01c9 7d3f c99b 7f3f a8d1 7d3f 0f94 7f3f
00000360: 1634 813f a3bb 803f c406 803f 1628 7d3f
00000370: 00b6 803f a54a 7e3f eedb 803f c511 813f
00000380: 4f27 7e3f 2348 803f fed0 7d3f 5533 813f
00000390: e11c 7e3f 6f36 7e3f bdf0 7e3f f9cb 803f
000003a0: 9434 803f 70d2 7e3f 4c9a 7e3f d02c 7f3f
000003b0: 5a84 7e3f 334c 7f3f 316b 7f3f d4f2 7f3f
000003c0: 69cd 803f d5d1 803f d7e1 7b3f 04d8 7f3f
000003d0: b3bf 7e3f eb0e 813f fbf0 803f c47b 803f
000003e0: c7af 7e3f 5ad6 7e3f 5164 7e3f b86d 7e3f
000003f0: f348 803f 11fb 7e3f 5c83 7f3f e33c 7e3f

1.bias f4 [256]
0.0075282385 0.0024799402 0.009151575 0.01104629 0.0073712277 0.009577797 -0.0056245322 -0.0021145416
0.009541787 -0.004262629 -0.009794661 0.0048401286 -0.0024420705 -0.0074328044 -0.006784455 0.008830739
-2.387801e-05 -0.0061422694 -0.003615784 -0.008872937 0.004955482 -0.0064805145 -0.006985278 -0.0076928576
-0.0054860334 -0.0021357853 0.0031180743 -0.0026394934 -0.0056610326 -0.006209551 -0.00074046344 -0.008568083
0.0029760918 0.005668003 0.0030235676 0.00815486 0.0050702 0.012564821 0.0056170155 -0.0077972617
0.0042849127 -0.0067772614 0.0052051423 0.0036115246 0.0077705043 0.0076422035 0.0042116544 -0.0038368343
0.0045487313 -0.0051305676 -0.0021472394 0.006919384 -0.0030638592 -0.00388118 -0.0063537857 -0.001609252
-0.007470937 -0.005207447 0.0070095262 0.0044347243 0.00710876 -0.006669474 -0.0053065307 -0.003125092
0.0040403106 -0.012293469 -0.012012144 0.004582326 0.0049162097 0.0034378774 -0.007263434 0.007017589
-0.016576221 -0.0074001197 0.010135918 -0.008733843 -0.00095672 -0.009297338 0.0026193194 0.0052089146
-0.00085371896 -0.006186881 -0.0064238817 0.00186256 -0.0005179658 0.0054588597 -0.0064133145 0.0065668263
0.008206684 -0.0045073815 0.0037349185 0.010732565 -0.012477693 1.673456e-05 0.00040409903 0.0020346607
-0.002654308 -0.009158202 -0.0074296347 0.014480172 0.0060156314 -0.007424506 -0.00826758 0.0029276388
0.000305135 0.0086517725 -0.008190878 -0.005014237 -0.005071551 -0.0070198867 0.008024876 0.008422175
-0.01097333 0.009394791 0.008045674 -0.006445457 -0.0032443514 0.0047940603 -0.0028739453 0.005381733
-0.008056352 -0.011411137 -0.0026658766 -0.005580598 0.003948122 0.0093603525 -0.007873233 -0.0037388646
-0.004844144 0.00635357 -0.010130736 -0.002330168 0.009196009 0.006097875 0.0050895517 0.010436673
-0.008756281 0.002296529 -0.006728025 -0.0077264523 -0.002635814 -0.0016684046 0.006251113 -0.0059812795
-0.0070107435 -0.008393036 -0.008848375 0.0038629586 -0.008762233 0.0020306886 0.008953469 -0.0059080156
-0.0065253177 -0.007021596 0.0049468945 -0.0020195665 0.007000128 -0.008821272 -0.0030474667 -0.007323569
-0.010627486 0.0011273061 0.00055085676 0.0070411414 0.006973503 0.008723226 0.007522347 0.0055448716
0.0074077495 0.0003585151 -0.004279426 0.0053403038 -0.0026674974 0.00080835604 -0.0050472347 0.0037098865
0.0021548176 -0.0057748794 -0.0076798936 -0.0077085346 0.0112985885 -0.00656121 0.0006342073 -0.0028937052
-0.0053783827 0.0013115363 0.0014117745 -0.0036649748 0.003260363 -0.0046247295 0.0047716624 -0.004924906
0.0020609493 0.0014863546 0.0029977555 -0.0040947488 0.01066539 -0.012642765 -0.007852077 0.009970361
-0.0058138883 0.00044810007 0.0010515252 -0.0036111232 0.010182338 0.0038336872 0.0022856826 0.0055167014
0.0067623365 -0.0092064105 -0.00293866 -0.0062638307 0.007123952 -0.0005189434 -0.008677446 -0.0006244332
-0.009328245 0.005881425 9.395453e-05 0.00611069 0.0074429917 -0.0068070847 0.0068030776 0.008490002
0.005997883 -0.002023366 0.0061842515 0.008906196 0.007297469 -0.0066952338 0.004126801 0.0048507256
-0.006053493 -0.0058257603 -0.0049125343 0.0049607353 0.0058231447 0.005606746 0.0029291527 7.1103175e-05
0.00916035 0.0063697575 0.008373121 -0.0010098086 0.0043665916 0.008095184 -0.00834836 0.0039214627
0.004786189 0.0044736685 0.004627931 -0.005730717 0.0023618236 -0.0038318369 -0.0007754339 0.006904569
00000000: 71af f63b 7e86 223b 7df0 153c 80fb 343c
00000010: 578a f13b 31ec 1c3c ff4d b8bb 1f94 0abb
00000020: 2855 1c3c 86ad 8bbb c979 20bc f199 9e3b
00000030: 250b 20bb e28e f3bb 2250 debb ceae 103c
00000040: a34d c8b7 1745 c9bb caf6 6cbb cc5f 11bc
00000050: 9961 a23b 7f5a d4bb c2e4 e4bb 5e14 fcbb
00000060: 2fc4 b3bb 88f8 0bbb 9b58 4c3b 5afb 2cbb
00000070: 2f80 b9bb 7d79 cbbb a91b 42ba 2561 0cbc
00000080: 890a 433b a8ba b93b 0c27 463b f69b 053c
00000090: ec23 a63b aedc 4d3c f10e b83b 2c80 ffbb
000000a0: 7468 8c3b ca13 debb e68f aa3b 54af 6c3b
000000b0: b79f fe3b 736b fa3b eb01 8a3b 6673 7bbb
000000c0: 860d 953b 521e a8bb b3b8 0cbb 00bc e23b
000000d0: 07cb 48bb 655b 7ebb 6b33 d0bb 89ed d2ba
000000e0: c3ce f4bb 3ba3 aabb 2bb0 e53b 2a51 913b
000000f0: 9af0 e83b 9a8b dabb 68e2 adbb 58ce 4cbb
00000100: 9564 843b 8c6a 49bc 95ce 44bc 5627 963b
00000110: 2818 a13b 034e 613b 1a02 eebb cef3 e53b
00000120: dbca 87bc b47c f2bb 1f11 263c 6518 0fbc
00000130: 64cc 7aba dd53 18bc e3a8 2b3b 8baf aa3b
00000140: 1ccc 5fba 52bb cabb 6d7f d2bb 2521 f43a
00000150: 19c8 07ba 3ce0 b23b c826 d2bb 882e d73b
00000160: 5475 063c a8b2 93bb 89c5 743b a4d7 2f3c
00000170: 3d6f 4cbc 3261 8c37 41dd d339 f157 053b
00000180: e6f3 2dbb 490c 16bc 4b74 f3bb 3e3e 6d3c
00000190: c61e c53b 4549 f3bb be74 07bc a1dd 3f3b
000001a0: 87fa 9f39 2ac0 0d3c 0833 06bc 784e a4bb
000001b0: 412f a6bb 1407 e6bb c57a 033c 2afd 093c
000001c0: 7bc9 33bc 9cec 193c 01d2 033c 6a34 d3bb
000001d0: 2f9f 54bb 7e17 9d3b cd58 3cbb 4059 b03b
000001e0: cafe 03bc c7f5 3abc fdb5 2ebb 73dd b6bb
000001f0: 3f5f 813b 2a5c 193c bcfe 00bc bd07 75bb
00000200: a0bb 9ebb 9c31 d03b 63fb 25bc bbb5 18bb
00000210: dbaa 163c afd0 c73b 41c6 a63b 94fe 2a3c
00000220: 8176 0fbc 5d81 163b c476 dcbb 2e2e fdbb
00000230: 9fbd 2cbb 5eae daba 23d6 cc3b 9cfe c3bb
00000240: 61ba e5bb f282 09bc c6f8 10bc b129 7d3b
00000250: 788f 0fbc 4d15 053b 92b1 123c 0798 c1bb
00000260: 55d2 d5bb 6b15 e6bb 8f19 a23b b45a 04bb
00000270: 5461 e53b 1987 10bc 02b8 47bb 8dfa efbb
00000280: e81e 2ebc 1ec2 933a 5f67 103a 60b9 e63b
00000290: fc81 e43b ddeb 0e3c 057e f63b c1b1 b53b
000002a0: b5bc f23b 15f7 bb39 6d3a 8cbb b7fd ae3b
000002b0: 2ed1 2ebb dbe7 533a 4663 a5bb 9121 733b
000002c0: d737 0d3b 333b bdbb 9ea7 fbbb e097 fcbb
000002d0: b71d 393c 6bff d6bb ee40 263a 51a4 3dbb
000002e0: 253d b0bb dbe7 ab3a 4b0b b93a 1330 70bb
000002f0: d0ab 553b 0b8b 97bb 9b5b 9c3b 1b61 a1bb
00000300: fe10 073b c9d1 c23a fe75 443b 3e2d 86bb
00000310: e3bd 2e3c 9a23 4fbc ffa5 00bc ba5a 233c
00000320: 6e82 bebb f9ee ea39 55d3 893a 98a8 6cbb
00000330: d2d3 263c 993e 7b3b 64cb 153b 72c5 b43b
00000340: 9796 dd3b 7cd6 16bc 8996 40bb d240 cdbb
00000350: 0a70 e93b b409 08ba d92b 0ebc 01b1 23ba
00000360: 7fd5 18bc f8b8 c03b 7409 c538 2f3c c83b
00000370: 57e4 f33b f70d dfbb 5aec de3b a619 0b3c
00000380: e489 c43b 739a 04bb 43a5 ca3b 4beb 113c
00000390: 9b1f ef3b b163 dbbb 1e3a 873b d6f2 9e3b
000003a0: 615c c6bb 05e6 bebb 53f9 a0bb aa8d a23b
000003b0: 14d0 be3b cbb8 b73b 07f7 3f3b 3a1d 9538
000003c0: 4b15 163c 66b9 d03b 6a2f 093c 8e5b 84ba
000003d0: a015 8f3b aaa1 043c 8fc7 08bc 9d7f 803b
000003e0: 77d5 9c3b da97 923b e6a5 973b bdc8 bbbb
000003f0: d3c8 1a3b 8e1f 7bbb 7d46 4bba b93f e23b

4.weight f4 [256, 256]
-0.063752525 -0.05492133 0.028834717 0.06532682 -0.049895562 0.03862447 0.011072983 0.04601841
0.014730552 0.06374981 0.04058829 0.01042703 -0.039443 0.062114652 -0.049054403 -0.018574573
0.0115499655 -0.04011425 -0.015355554 0.026127094 0.03323526 -0.046899665 0.063566096 0.051319867
-0.016210383 -0.02341178 -0.031189073 0.035033442 0.030977774 -0.01111904 0.020578498 -0.010902013
0.047759492 -0.021666035 0.038388364 -0.0027205616 0.049607776 0.05537267 -0.06665344 0.020156622
-0.061431438 0.06472904 -0.02676162 0.038063962 -0.050310764 -0.039975587 -0.05067693 0.05576814
-0.022872709 -0.01889858 0.029493792 0.06479383 0.0004413016 0.012668319 -0.023910841 -0.015020045
-0.029384194 -0.031700157 0.029789183 -0.016745917 -0.036583044 -0.035804056 0.026544362 0.0027816207
0.020003472 0.06346489 -0.025629276 -0.011425248 -0.036794893 0.005824358 0.02260852 0.05568064
-0.01246956 0.0024448226 0.019984758 0.025986172 0.05443337 0.05153117 -0.022734763 -0.05412757
0.029846868 0.011509325 -0.05711785 -0.015732326 -0.001767269 -0.030264204 0.020851491 0.019394558
0.028563567 0.04805699 -0.056845997 0.033863127 0.065029435 -0.019389255 0.058031343 -0.0035891049
-0.0046347976 -0.0016350452 0.03607305 -0.00031921576 -0.006386975 -0.026052792 -0.05508989 -0.010700344
0.03637491 -0.002339648 0.0033874384 0.014219021 -0.02072577 -0.02925041 0.012842098 0.03570817
-0.0034500249 -0.0329201 -0.01367873 -0.059222493 0.0008299796 -0.027568862 0.014075444 0.031540833
0.04489771 -0.009256132 -0.013037254 -0.051905338 -0.012835726 0.006693004 0.027859353 0.024731245
-0.027682377 0.022576595 0.015544324 0.039566316 -0.013274705 -0.0121458955 0.042967867 -0.038170442
-0.029108694 -0.042408753 -0.019417541 -0.044282846 -0.051227342 -0.039613273 0.040325627 -0.06174968
-0.06840245 -0.013448353 0.050619576 -0.018183434 0.03427063 -0.031040274 0.046506494 0.015539412
-0.023412837 0.03102324 0.061671663 -0.015190377 -0.06288385 -0.028342944 0.033619486 0.008785383
-0.0036920484 0.034367852 0.06434386 -0.023008756 -0.0037300906 -0.014610106 0.028752312 -0.033988137
-0.065607816 -0.0022223282 -0.005661029 0.04834153 0.045489416 0.051533386 -0.05153555 0.034659337
0.02514157 3.2007323e-05 0.041009404 0.054495174 -0.024083799 0.035302125 -0.019714035 -0.037735295
0.029074702 0.050998252 -0.06740772 -0.016982818 -0.039481338 -0.038788978 0.03030534 -0.00998918
0.0017464329 0.012136124 -0.0021975187 0.06674996 0.008539287 0.068375364 0.028514711 -0.045226388
-0.015201993 -0.036414485 -0.030475812 -0.06891469 0.044473484 -0.008643584 -0.01855735 0.021859657
-0.041334115 -0.0163281 0.025101932 0.038599536 -0.05343744 -0.04178734 -0.063123 -0.03558945
0.031514466 0.0014722291 0.033071507 0.062271945 0.02336387 0.022042809 0.014157027 0.013532292
-0.018051054 -0.044273958 -0.042673893 -0.024476789 -0.047925748 -0.062058344 0.046441056 -0.038873017
0.0347512 0.05515787 -0.056897864 0.066808216 -0.020939587 0.05198691 0.01450047 0.05513049
-0.013888363 0.023947991 0.02364993 0.058526922 -0.045288585 0.03678159 0.014965941 0.031193975
-0.015646206 -0.04991262 -0.010043938 0.020122606 -0.06337801 -0.022768743 0.0009191572 0.03849169
00000000: af90 82bd 30f5 60bd c936 ec3c 11ca 853d
00000010: 4a5f 4cbd b134 1e3d 756b 353c cd7d 3c3d
00000020: 6a58 713c 438f 823d e83f 263d 22d6 2a3c
00000030: fc8e 21bd ef6b 7e3d 45ed 48bd b429 98bc
00000040: 113c 3d3c d74e 24bd dd95 7bbc 7d08 d63c
00000050: b221 083d dd19 40bd f12e 823d c834 523d
00000060: a3cb 84bc 10ca bfbc 3a80 ffbc 3a7f 0f3d
00000070: 1ac5 fd3c a22c 36bc 3d94 a83c 5b9e 32bc
00000080: 759f 433d f87c b1bc 1e3d 1d3d 734b 32bb
00000090: 8631 4b3d 74ce 623d 9981 88bd 801f a53c
000000a0: 889f 7bbd a990 843d 2f3b dbbc f5e8 1b3d
000000b0: a912 4ebd 71bd 23bd 9d92 4fbd 226d 643d
000000c0: 8c5f bbbc 32d1 9abc f79c f13c a1b2 843d
000000d0: 805e e739 c88e 4f3c abe0 c3bc a316 76bc
000000e0: 1fb7 f0bc 06d8 01bd 7208 f43c bc2e 89bc
000000f0: 1ad8 15bd 46a7 12bd 9073 d93c da4b 363b
00000100: 52de a33c e1f9 813d 7df4 d1bc f730 3bbc
00000110: 3eb6 16bd 42da be3b 8135 b93c 6211 643d
00000120: 204d 4cbc 5139 203b 13b7 a33c f4e0 d43c
00000130: 86f5 5e3d 5912 533d 413e babc dfb4 5dbd
00000140: 6b81 f43c 9c91 3c3c 68f4 69bd 14e1 80bc
00000150: b5a3 e7ba a3ec f7bc bfd0 aa3c 56e1 9e3c
00000160: 24fe e93c 68d7 443d 59d7 68bd 10b4 0a3d
00000170: 272e 853d 37d6 9ebc 46b2 6d3d 3037 6bbb
00000180: 80df 97bb 034f d6ba 56c1 133d 6a5c a7b9
00000190: d449 d1bb aa6c d5bc f0a5 61bd 7f50 2fbc
000001a0: dcfd 143d c854 19bb c9ff 5d3b e6f6 683c
000001b0: 17c9 a9bc 8e9e efbc aa67 523c bb42 123d
000001c0: d019 62bb 3ad7 06bd c11c 60bc 4993 72bd
000001d0: fd92 593a 18d8 e1bc b19c 663c f630 013d
000001e0: a9e6 373d 08a7 17bc 359a 55bc b19a 54bd
000001f0: f04c 52bc fd50 db3b 4c39 e43c 2e99 ca3c
00000200: 27c6 e2bc 8df2 b83c 9fad 7e3c 4a10 223d
00000210: 267e 59bc 94ff 46bc 13ff 2f3d 9c58 1cbd
00000220: 5b75 eebc cdb4 2dbd 8911 9fbc ee61 35bd
00000230: c3d3 51bd 8741 22bd 7c2c 253d 3ced 7cbd
00000240: 9516 8cbd 7b56 5cbc 7956 4f3d 6df5 94bc
00000250: 5c5f 0c3d 2c48 febc 987d 3e3d 0599 7e3c
00000260: 47cc bfbc 7324 fe3c 6d9b 7c3d 0fe1 78bc
00000270: 3fc9 80bd 762f e8bc 96b4 093d 91f0 0f3c
00000280: 4bf6 71bb 4ec5 0c3d b7c6 833d dc7c bcbc
00000290: 8974 74bb 3a5f 6fbc f889 eb3c 2537 0bbd
000002a0: 645d 86bd 7ba4 11bb 2780 b9bb c501 463d
000002b0: 1c53 3a3d ac14 533d f116 53bd f3f6 0d3d
000002c0: b2f5 cd3c 9a3f 0638 7af9 273d 5536 5f3d
000002d0: 634b c5bc f698 103d 547f a1bc 5390 1abd
000002e0: 122e ee3c 8be3 503d 0f0d 8abd 8d1f 8bbc
000002f0: 2fb7 21bd 31e1 1ebd e842 f83c a8a9 23bc
00000300: 90e8 e43a 98d6 463c 3f04 10bb 34b4 883d
00000310: 5ee8 0b3c 6208 8c3d af97 e93c 4e3f 39bd
00000320: c811 79bc 5b27 15bd 69a8 f9bc 2523 8dbd
00000330: d429 363d d29d 0dbc 9505 98bc 0613 b33c
00000340: f64d 29bd 82c2 85bc 91a2 cd3c 8c1a 1e3d
00000350: 38e1 5abd 3429 2bbd a246 81bd 3ec6 11bd
00000360: 5015 013d d0f7 c03a fd75 073d de10 7f3d
00000370: 9665 bf3c 1f93 b43c e0f2 673c 8cb6 5d3c
00000380: cedf 93bc 9c58 35bd d2ca 2ebd 8c83 c8bc
00000390: ca4d 44bd e430 7ebd fa38 3e3d 5039 1fbd
000003a0: 4657 0e3d 38ed 613d bc0d 69bd bfd2 883d
000003b0: 7f89 abbc 3af0 543d 6193 6d3c 82d0 613d
000003c0: 048c 63bc 942e c43c 7fbd c13c edb9 6f3d
000003d0: 8680 39bd 4ba8 163d b533 753c 828a ff3c
000003e0: 792c 80bc 2d71 4cbd 548f 24bc 2ad8 a43c
000003f0: 55cc 81bd 8485 babc 98f3 703a 76a9 1d3d

4.bias f4 [256]
0.031983037 -0.031206187 -0.044266786 0.047529723 -0.0063105687 0.03026623 -0.03611783 -0.021669514
0.006592412 -0.02709297 0.028989254 0.04847921 0.004052216 0.00984131 -0.007413225 0.011709761
0.022490332 0.055011712 0.035887055 -0.011652409 -0.01379443 -0.063438244 -0.028999861 -0.020508291
0.007758256 -0.015521674 -0.04352469 -0.005611068 -0.038941354 0.018332647 -0.05403266 -0.024467219
-0.063514344 0.027616479 0.030201238 0.029907232 0.021060659 -0.0104879895 -0.06727584 0.039636176
-0.05190627 -0.013384651 -0.023970501 -0.043000158 0.030008748 -0.041044317 0.012493647 0.02470866
0.0074776923 0.025704337 -0.015050933 -0.07270119 0.05205835 0.018617896 0.039227 -0.017193276
-0.014450133 0.0569437 0.004671089 -0.011611922 -0.040840745 -0.023831375 0.04758427 -0.066992715
0.05620176 -0.021105392 0.053194273 0.041708544 0.043409076 0.01079644 0.037163198 0.047132727
0.037117478 -0.000996425 0.02197074 -0.04574233 0.04589164 -0.059067715 -0.022778401 -0.063578375
-0.017394513 0.055296835 -0.013813014 0.04093471 -0.029443664 0.057241835 0.03088401 -0.013394005
-0.03659102 -0.015478655 0.04600241 0.057917867 0.059573215 -0.02014076 -0.049137823 -0.06735682
0.053276163 -0.057857975 -0.032982092 0.007430573 0.0074169193 0.03902895 -0.062678725 0.02324538
0.03160121 -0.040363085 -0.06490842 0.057017233 -0.006893724 -0.028242553 -0.053299632 -0.013611302
-0.049703643 -0.03144996 -0.061145607 0.062859304 0.03605912 -0.047554847 0.002630206 0.048768856
-0.034049693 0.019625232 0.05863282 0.040576123 0.038544703 -0.030228466 0.03324591 0.015201061
0.011440228 0.009437399 0.0021275426 0.016765947 0.05596323 0.026737697 -0.033489153 -0.04595936
0.036840335 -0.05224506 -0.0021866802 -0.04096909 0.029665064 0.03182133 0.0024352078 -0.05329712
-0.0070180665 0.0012172894 -0.02440249 -0.0013890151 -0.033311732 0.047672484 0.0027039025 0.058162324
-0.021976054 0.025606852 0.06079681 -0.027443973 -0.055801075 0.027794112 0.005576475 -0.050065406
-0.018009065 0.019423127 -0.042110376 -0.013831874 -0.058539324 0.04385916 0.056527622 0.04704454
0.047254153 -0.054033235 0.06349721 -0.069986 -0.023631452 -0.057773013 -0.041437592 -0.050313324
0.027154682 -0.018786686 0.06551809 0.024738224 0.019006321 0.046694867 -0.02143702 0.014933454
-0.0070079356 -0.023227109 0.0122131705 0.032612618 -0.017507253 -0.013703761 -0.038627703 -0.015529602
-0.045736626 -0.046544544 0.06897158 0.03361418 0.014218826 -0.003657039 -0.008863574 -0.013766299
-0.05892518 0.033842415 -0.023365345 -0.036083974 0.034002956 -0.014214815 0.048563648 0.04839993
0.046266403 -0.031429153 0.023080634 -0.03902019 -0.0036683185 -0.019568063 0.05305024 0.047621105
-0.0021836208 -0.059116177 -0.0006128555 0.02826262 -0.055039372 -0.068995036 -0.041540384 -0.028022593
-0.038553 -0.060629006 0.018519508 -0.029168334 0.02196172 0.0032095313 -0.009333014 -0.0060226945
-0.015382551 -0.061371174 0.052925557 -0.029707592 0.021054868 -0.049250375 0.0055382564 -0.04463248
-0.021450926 0.041363735 -0.059202064 -0.0013709267 0.049423162 -0.044075664 -0.055779822 -0.022092449
0.0050323284 0.024301052 -0.0077022943 0.02654366 -0.017930504 0.011629012 0.008821787 0.0026989456
00000000: a500 033d 1ea4 ffbc 1751 35bd 87ae 423d
00000010: e3c8 cebb e3f0 f73c 4af0 13bd 4484 b1bc
00000020: 2905 d83b 14f2 ddbc df7a ed3c 2392 463d
00000030: 74c8 843b 723d 213c a3ea f2bb 4cda 3f3c
00000040: a53d b83c f653 613d 4efe 123d bfe9 3ebc
00000050: 0802 62bc e9eb 81bd 1e91 edbc 0101 a8bc
00000060: f838 fe3b 9f4e 7ebc f246 32bd 0ddd b7bb
00000070: f880 1fbd 592e 963c 5a51 5dbd 7a6f c8bc
00000080: cf13 82bd f43b e23c 9668 f73c 0300 f53c
00000090: 6787 ac3c d1d5 2bbc eac7 89bd 8b59 223d
000000a0: ab9b 54bd 4c4b 5bbc c95d c4bc ef20 30bd
000000b0: e8d4 f53c 161e 28bd 27b2 4c3c d169 ca3c
000000c0: 6e07 f53b e791 d23c 3098 76bc 5de4 94bd
000000d0: 233b 553d 8f84 983c 7eac 203d ead8 8cbc
000000e0: 40c0 6cbc cc3d 693d ef0f 993b ee3f 3ebc
000000f0: a048 27bd 043a c3bc b9e7 423d 7a33 89bd
00000100: d133 663d 37e5 acbc 3de2 593d 94d6 2a3d
00000110: b7cd 313d 8de3 303c 7038 183d 3f0e 413d
00000120: 7f08 183d 7a9a 82ba fbfb b33c 4f5c 3bbd
00000130: dff8 3b3d fdf0 71bd c599 babc 6135 82bd
00000140: f07e 8ebc ef7e 623d fb4f 62bc 28ab 273d
00000150: d733 f1bc 6a76 6a3d 7700 fd3c 8772 5bbc
00000160: 77e0 15bd 2f9a 7dbc 066d 3c3d 493b 6d3d
00000170: 0b03 743d 3cfe a4bc be44 49bd 5ff2 89bd
00000180: 1b38 5a3d 7cfc 6cbd 3b18 07bd 2a7c f33b
00000190: a109 f33b d2dc 1f3d b45d 80bd 186d be3c
000001a0: 4570 013d c353 25bd b5ee 84bd e78a 693d
000001b0: c0e4 e1bb ed5c e7bc b750 5abd f001 5fbc
000001c0: 0c96 4bbd acd1 00bd d173 7abd 61bc 803d
000001d0: bab2 133d dfc8 42bd 895f 2c3b dac1 473d
000001e0: b177 0bbd 18c5 a03c f828 703d 2633 263d
000001f0: 0de1 1d3d b0a1 f7bc dd2c 083d df0d 793c
00000200: cb6f 3b3c 529f 1a3c 3e6e 0b3b bd58 893c
00000210: b339 653d 0409 db3c ec2b 09bd e23f 3cbd
00000220: e4e5 163d ebfe 55bd 684e 0fbb 34cf 27bd
00000230: 2604 f33c 1557 023d 0298 1f3b 154e 5abd
00000240: cff7 e5bb 748d 9f3a bbe7 c7bc 9d0f b6ba
00000250: e271 08bd 3944 433d f533 313b 9e3b 6e3d
00000260: 2007 b4bc 76c5 d13c 1306 793d 2fd2 e0bc
00000270: ab8f 64bd 7ab0 e33c ddba b63b 6211 4dbd
00000280: bf87 93bc 401d 9f3c ee7b 2cbd 169f 62bc
00000290: eec6 6fbd aaa5 333d 8289 673d c7b1 403d
000002a0: 928d 413d f451 5dbd d30a 823d d254 8fbd
000002b0: bf96 c1bc 65a3 6cbd 77ba 29bd 5815 4ebd
000002c0: 7f73 de3c 89e6 99bc 592e 863d d1a7 ca3c
000002d0: 25b3 9b3c 1e43 3f3d b09c afbc 72ab 743c
000002e0: d3a2 e5bb c746 bebc c019 483c cf94 053d
000002f0: 5f6b 8fbc bd85 60bc 1538 1ebd df6f 7ebc
00000300: 5456 3bbd 7ea5 3ebd f940 8d3d 06af 093d
00000310: 14f6 683c efaa 6fbb 8638 11bc 0b8c 61bc
00000320: 885b 71bd 589e 0a3d ae68 bfbc cacc 13bd
00000330: af46 0b3d 41e5 68bc adea 463d 013f 463d
00000340: d781 3d3d dbbb 00bd 9913 bd3c a2d3 1fbd
00000350: 2c68 70bb 344d a0bc 354b 593d 590e 433d
00000360: 141b 0fbb ce23 72bd 09a8 20ba 0387 e73c
00000370: f770 61bd 454d 8dbd 4026 2abd a38f e5bc
00000380: c0e9 1dbd 1f56 78bd 39b6 973c 6ef2 eebc
00000390: 11e9 b33c 0057 523b 7fe9 18bc 065a c5bb
000003a0: 1807 7cbc 5760 7bbd 78c8 583d 565d f3bc
000003b0: 427b ac3c c3ba 49bd 437a b53b 8cd0 36bd
000003c0: dab9 afbc 056d 293d dd7d 72bd abb0 b3ba
000003d0: f16f 4a3d af88 34bd 6279 64bd 39fb b4bc
000003e0: 3be6 a43b 0013 c73c 8763 fcbb 1772 d93c
000003f0: fee2 92bc 9d87 3e3c 4289 103c cbe0 303b

5.weight f4 [256]
1.0087757 0.99536175 1.0091379 0.987302 1.0112869 0.9980568 1.0009555 1.0089724
0.9911393 0.99090266 1.0119443 1.0121864 1.0113425 1.0047066 0.9795922 0.99759483
0.9886357 1.0063831 0.9933328 0.99399847 0.99318635 1.0032111 1.0060732 1.0020866
0.9979276 1.0130167 0.99952316 1.0034051 1.0029159 0.98869956 0.9942866 0.98241335
0.9948884 1.0032239 0.9954697 0.98780876 0.9933232 1.0083493 1.0125755 1.0022488
1.0028796 1.0084131 0.9938722 1.0014756 0.99782336 1.0049244 0.99620163 1.005027
1.0077727 0.9774302 0.9940199 1.0078988 0.9939914 0.9931995 0.99112254 0.9913891
0.9938952 1.0046376 1.0124665 1.002956 0.99466604 0.9928553 1.0076411 0.9953053
0.98698884 1.0009899 1.0108405 1.0038615 0.9978678 0.9866605 0.9934855 0.9933158
0.99096304 1.0003549 0.9974547 1.012567 0.9861439 1.010358 0.9882008 1.004909
0.9887705 0.994525 0.99277467 1.0067896 1.0157565 0.9852367 0.99583834 0.99850804
1.0022401 0.9943999 0.9932294 0.99526405 0.98395485 0.9905732 0.9921304 1.0086921
0.98905534 0.99562854 0.99459755 0.9990321 0.99947935 1.0102987 0.9942157 0.99248403
1.0122672 0.9940992 0.9971091 0.98422724 1.0083817 0.9989885 1.0004463 0.98795635
1.0032706 1.000865 0.99096954 1.000263 1.0079918 0.997268 0.99294096 0.9946188
0.99229115 0.9902654 1.0027701 1.0093971 0.99148244 0.9990573 0.9965255 0.99239606
1.0079231 0.99896544 1.000298 1.0093185 1.0086946 0.9951308 1.0019969 1.0061109
0.9981691 0.99254847 1.0001101 0.9933332 1.0085496 0.9937372 0.98630166 0.99212676
0.98773354 0.9880711 0.99856806 0.9931862 0.9863223 0.99639684 0.9978997 1.0054489
1.0078962 1.0027905 0.99946654 0.9823079 0.98798275 0.99492466 0.9988722 1.000495
1.0046347 1.0065566 0.9892978 0.9946002 1.0006131 0.9839623 0.9944714 0.99090874
0.99531895 1.0075945 0.9982063 0.9792135 1.005 0.99233335 0.99688154 0.99395627
0.99641097 1.0058813 1.0046939 1.0154433 1.0021436 1.0077695 1.0035455 0.9864412
1.0023624 1.003954 1.0058391 0.9836736 0.9922389 0.9735089 1.0074863 1.0072244
0.9930206 0.99302226 1.0114202 0.9938933 0.99167395 0.98474866 1.0022053 1.0051092
0.9871892 1.0096711 0.99415714 0.9845532 0.9945422 1.0049316 0.9921776 1.0001916
0.9915511 1.0069417 1.0055356 0.9957389 1.0009232 1.01197 0.9912849 0.9950112
1.00757 0.98653835 0.9921191 1.0052986 1.0129348 0.9928386 1.0116005 0.9967516
0.99799263 1.0079393 0.9693002 0.9948464 1.0068744 0.9963756 1.0000288 0.99788594
1.0055611 1.0085428 1.0037937 0.9836507 1.0020485 1.0102929 1.0004605 0.9937296
0.9837379 1.0088856 0.99214023 0.99445766 0.99379367 1.0111488 1.0080732 1.0137743
0.99750525 0.9838106 1.0028955 1.0017202 1.0110257 0.99318165 0.9943822 1.0123863
00000000: 901f 813f 07d0 7e3f 6e2b 813f d3bf 7c3f
00000010: d971 813f a780 7f3f 4f1f 803f 0226 813f
00000020: 4ebb 7d3f ccab 7d3f 6487 813f 538f 813f
00000030: ac73 813f 3a9a 803f 8ec6 7a3f 6062 7f3f
00000040: 3b17 7d3f 29d1 803f 0f4b 7e3f af76 7e3f
00000050: 7641 7e3f 3969 803f 02c7 803f 6044 803f
00000060: 2f78 7f3f 88aa 813f c0e0 7f3f 946f 803f
00000070: 8c5f 803f 6a1b 7d3f 9189 7e3f 717f 7b3f
00000080: 02b1 7e3f a469 803f 1ad7 7e3f 09e1 7c3f
00000090: 6e4a 7e3f 9711 813f 139c 813f b049 803f
000000a0: 5c5e 803f ae13 813f 696e 7e3f 5a30 803f
000000b0: 5a71 7f3f 5da1 803f 1207 7f3f baa4 803f
000000c0: b2fe 803f de38 7a3f 1778 7e3f d402 813f
000000d0: 3876 7e3f 5342 7e3f 35ba 7d3f adcb 7d3f
000000e0: ea6f 7e3f f797 803f 8198 813f dd60 803f
000000f0: 6fa2 7e3f c42b 7e3f 62fa 803f 54cc 7e3f
00000100: 4dab 7c3f 7020 803f 3963 813f 897e 803f
00000110: 4474 7f3f c895 7c3f 1155 7e3f f249 7e3f
00000120: c1af 7d3f a10b 803f 3159 7f3f cc9b 813f
00000130: ed73 7c3f 6953 813f bafa 7c3f dca0 803f
00000140: 1020 7d3f 3199 7e3f 7b26 7e3f 7bde 803f
00000150: 4f04 823f 7938 7c3f 43ef 7e3f 399e 7f3f
00000160: 6749 803f fe90 7e3f 4844 7e3f a0c9 7e3f
00000170: 77e4 7b3f 3596 7d3f 42fc 7d3f d31c 813f
00000180: bb32 7d3f 83e1 7e3f f29d 7e3f 91c0 7f3f
00000190: e1dd 7f3f 7851 813f ec84 7e3f 6f13 7e3f
000001a0: f991 813f 497d 7e3f 8b42 7f3f 51f6 7b3f
000001b0: a712 813f b6bd 7f3f a00e 803f b5ea 7c3f
000001c0: 2c6b 803f 581c 803f 2eb0 7d3f 9e08 803f
000001d0: e005 813f f54c 7f3f 6131 7e3f 569f 7e3f
000001e0: cb06 7e3f 0982 7d3f c55a 803f ed33 813f
000001f0: cbd1 7d3f 38c2 7f3f 4c1c 7f3f ab0d 7e3f
00000200: a003 813f 33bc 7f3f c409 803f 5931 813f
00000210: e81c 813f e4c0 7e3f 6f41 803f 3ec8 803f
00000220: 0388 7f3f a817 7e3f 9c03 803f 164b 7e3f
00000230: 2718 813f 9065 7e3f 447e 7c3f 05fc 7d3f
00000240: 1bdc 7c3f 3af2 7c3f 28a2 7f3f 7341 7e3f
00000250: 9e7f 7c3f dd13 7f3f 5b76 7f3f 8db2 803f
00000260: be02 813f 705b 803f 0add 7f3f 8878 7b3f
00000270: 70ec 7c3f 62b3 7e3f 17b6 7f3f 3810 803f
00000280: df97 803f d9d6 803f 9f42 7d3f 1e9e 7e3f
00000290: 1714 803f f4e4 7b3f ad95 7e3f 32ac 7d3f
000002a0: 39cd 7e3f dbf8 803f 738a 7f3f bcad 7a3f
000002b0: d7a3 803f 8f09 7e3f a133 7f3f eb73 7e3f
000002c0: ca14 7f3f b8c0 803f cf99 803f 0cfa 813f
000002d0: 3e46 803f 97fe 803f 2e74 803f 6987 7c3f
000002e0: 694d 803f 9181 803f 56bf 803f 08d2 7b3f
000002f0: 5e03 7e3f e137 793f 50f5 803f bbec 803f
00000300: 9936 7e3f b536 7e3f 3876 813f cb6f 7e3f
00000310: 58de 7d3f 7d18 7c3f 4348 803f 6ba7 803f
00000320: 6eb8 7c3f e73c 813f 1581 7e3f ae0b 7c3f
00000330: 519a 7e3f 99a1 803f 5aff 7d3f 4706 803f
00000340: 4bd6 7d3f 77e3 803f 64b5 803f bfe8 7e3f
00000350: 401e 803f 3c88 813f d9c4 7d3f 0eb9 7e3f
00000360: 0ef8 803f c78d 7c3f 84fb 7d3f a0ad 803f
00000370: d9a7 813f ac2a 7e3f 207c 813f 1d2b 7f3f
00000380: 727c 7f3f 2804 813f 0f24 783f 41ae 7e3f
00000390: 43e1 803f 7912 7f3f f200 803f 7475 7f3f
000003a0: 3ab6 803f ee17 813f 507c 803f 88d0 7b3f
000003b0: 2043 803f 4751 813f 170f 803f 1065 7e3f
000003c0: 3fd6 7b3f 2a23 813f e7fc 7d3f c794 7e3f
000003d0: 4369 7e3f 536d 813f 8b08 813f 5bc3 813f
000003e0: 815c 7f3f 03db 7b3f e15e 803f 5e38 803f
000003f0: 4a69 813f 2741 7e3f d58f 7e3f e095 813f

5.bias f4 [256]
-0.0076095834 0.00019696269 0.010181145 0.0025458527 0.010881467 -0.0007105558 0.0049629384 -0.0077806246
-0.0045532905 0.0033515624 -0.009385066 -0.008214392 -0.009557233 0.0070648957 0.003443536 -0.00080902793
0.0030662876 0.007874001 -0.0035648467 -0.006151541 -0.0055208555 -0.005552221 0.0077888593 -0.0033733181
0.0030012603 -0.009461328 0.00020912175 -0.0026088872 -0.005995365 0.006711827 -0.00172209 0.0067620436
-0.002984527 0.0033922803 -0.0021361215 -0.0022300389 -0.0061451467 -0.0075193592 -0.008883979 0.004447253
0.007523444 -0.009062052 -0.0068308534 -0.0083424095 0.0031587835 0.006501224 0.003966754 0.011148562
-0.0068276054 0.020750612 -0.005820296 -0.007841131 0.00492231 0.004937109 -0.002723893 -0.0028819575
-0.0021958381 0.0053354455 -0.010249483 -0.00861928 -0.0042941845 0.003849511 -0.0069127986 -0.0064270343
-0.00042072532 -0.0049450207 -0.008379234 -0.007302595 0.0020737906 0.0010911347 -0.004944928 -0.0050708377
-0.0039848285 -0.005598535 -0.0019764202 -0.0085267015 -0.0020147902 -0.008741854 0.008468342 -0.007977683
0.0051648226 -0.001165829 -0.0056316517 0.0073776376 -0.010245078 -0.0040940745 0.0023634052 0.0018886935
0.007844465 -0.0031605174 -0.00059856713 0.0033160755 -0.0003497364 -0.002618525 0.0055236127 -0.0073633785
-0.0024815875 -0.00010906731 0.0072842147 -0.0006938442 0.0025694643 -0.007974067 -0.006792918 -0.008873462
0.010135012 -0.0068167006 -0.0062253866 -0.003339873 -0.0072861076 0.0017018187 -0.0022305783 0.0026576396
-0.005265722 0.0038645472 -0.0010786313 0.0046027075 -0.0067100325 0.0014234941 -0.0061318288 -0.0021293564
0.0034651915 -0.0009188992 0.0046986276 -0.0074446974 -0.0030315265 -0.0047318744 -0.005746841 -0.0011506286
0.009784673 -0.009200308 0.003660697 0.010237408 0.014629686 -0.00022464484 -0.009282095 -0.006268848
-0.0051930305 -0.007761783 0.00056705496 -0.006059154 -0.010016619 -0.006773263 0.00034669475 0.003130421
0.0079731485 0.006230899 -0.002078105 -0.006580604 -0.0006800161 -0.0021401977 0.004947343 0.00687649
-0.0078991195 0.008520212 0.0057829763 0.002179327 0.004401751 -0.005813077 -0.00286859 0.004240337
0.0061902106 -0.009794276 -0.0036947709 -0.004713598 0.0016851084 0.0037219771 -0.0047213295 0.004232412
0.00025738444 -0.0072860424 0.0054196115 0.008257572 0.0060672527 -0.008243509 -0.00086063915 -0.002055134
-0.0067836656 -0.008961089 0.01169331 0.011676048 0.0045572566 -0.011005099 0.005893027 0.0044374955
0.008585578 0.010040084 0.009182573 0.0014137577 0.0039738836 0.00021513752 -0.007797217 -0.0065052593
-0.00696475 -0.0052780663 0.011306727 0.007920708 -0.00502739 0.0036393867 0.005205024 0.0068732165
0.014029605 -0.0082202 -0.007156519 -0.0021107583 -0.0067223944 0.007857254 0.0051349998 -0.0021604616
-0.0070243343 -0.0065605086 -0.010069523 0.005621709 -0.0070762713 -0.011964645 -0.0033046468 -0.009105706
0.009055693 3.6166428e-05 0.008038486 0.0060280203 -0.009501368 -0.00771423 -0.012284668 -0.008534577
0.0108723175 -0.009722633 0.01676746 -0.008413712 -0.007186921 0.00418288 0.003841855 0.009321079
-0.009793226 -0.009662121 0.005587822 0.004485467 0.0042843926 -0.007881178 -0.0040769675 -0.001966149
-0.0086114155 0.009495697 0.0021548888 -0.0039628623 -0.0043400447 -0.0080718985 -0.010422822 -0.008408825
0.00096443447 0.0070263953 -0.006145404 0.0060666404 -0.009059542 -0.0055736452 0.0066695735 -0.0096891755
00000000: d059 f9bb c587 4e39 d1ce 263c 52d8 263b
00000010: 2e48 323c 9844 3aba 25a0 a23b 9cf4 febb
00000020: c533 95bb e3a5 5b3b d2c3 19bc a895 06bc
00000030: f195 1cbc a480 e73b f3ac 613b f214 54ba
00000040: c5f3 483b f401 013c 34a0 69bb de92 c9bb
00000050: 4be8 b4bb 68ef b5bb b039 ff3b e312 5dbb
00000060: cbb0 443b b003 1bbc b147 5b39 ddf9 2abb
00000070: c474 c4bb e3ee db3b c0b7 e1ba 2294 dd3b
00000080: 0e98 43bb 0551 5e3b 2cfe 0bbb d825 12bb
00000090: 3a5d c9bb f564 f6bb 1c8e 11bc 43ba 913b
000000a0: 3987 f63b 0079 14bc 5ad5 dfbb 9aae 08bc
000000b0: 9803 4f3b 3808 d53b 8bfb 813b 75a8 363c
000000c0: 1bba dfbb 30fd a93c 2eb8 bebb 1678 00bc
000000d0: 544b a13b 79c7 a13b 5783 32bb 39df 3cbb
000000e0: 0de8 0fbb f6d4 ae3b 73ed 27bc e137 0dbc
000000f0: 3bb6 8cbb 1448 7c3b c284 e2bb df99 d2bb
00000100: cc94 dcb9 d709 a2bb 0e49 09bc 9b4a efbb
00000110: 6fe8 073b 6804 8f3a 1009 a2bb 4529 a6bb
00000120: 2a93 82bb ea73 b7bb d486 01bb 94b3 0bbc
00000130: 920a 04bb fe39 0fbc cdbe 0a3c d4b4 02bc
00000140: ac3d a93b bbce 98ba b889 b8bb 1cc0 f13b
00000150: f9da 27bc 9627 86bb 5ce3 1a3b 0a8e f73a
00000160: 1286 003c af20 4fbb 29e9 1cba 8452 593b
00000170: d35c b7b9 8f9b 2bbb 6cff b43b 7f48 f1bb
00000180: 21a2 22bb 11bb e4b8 6cb0 ee3b 19e3 35ba
00000190: 7564 283b a9a5 02bc 2097 debb ff61 11bc
000001a0: 520d 263c a15e dfbb 54fe cbbb c5e1 5abb
000001b0: 4dc0 eebb 8f0f df3a e52e 12bb cb2b 2e3b
000001c0: 148c acbb 5844 7d3b dc60 8dba 4fd2 963b
000001d0: d5df dbbb 8994 ba3a 82ed c8bb ac8c 0bbb
000001e0: 4418 633b 48e2 70ba f2f6 993b a6f2 f3bb
000001f0: 93ac 46bb d70d 9bbb ff4f bcbb b0d0 96ba
00000200: e54f 203c e3bc 16bc 4ee8 6f3b cdba 273c
00000210: 5ab1 6f3c a48e 6bb9 ee13 18bc e96a cdbb
00000220: 4c2a aabb 8e56 febb 6aa6 143a de8b c6bb
00000230: bf1c 24bc 40f2 ddbb 95c4 b539 c027 4d3b
00000240: cfa1 023c 922c cc3b d130 08bb 1ba2 d7bb
00000250: 1c43 32ba 8f42 0cbb 521d a23b 2e54 e13b
00000260: 4f6b 01bc 5c98 0b3c 1f7f bd3b 0ad3 0e3b
00000270: 903c 903b a07b bebb f4fe 3bbb 86f2 8a3b
00000280: 40d7 ca3b 2c78 20bc f823 72bb 8774 9abb
00000290: dbde dc3a 6aec 733b 62b5 9abb 0cb0 8a3b
000002a0: 8ef1 8639 c1bf eebb ff96 b13b c44a 073c
000002b0: cecf c63b c80f 07bc 849c 61ba 6daf 06bb
000002c0: 8349 debb 88d1 12bc 4c95 3f3c e54c 3f3c
000002d0: 0a55 953b bb4e 34bc 4b1a c13b 6968 913b
000002e0: 86aa 0c3c 2a7f 243c 8172 163c d64d b93a
000002f0: 5a37 823b 8a96 6139 cc7f ffbb 122a d5bb
00000300: 8f38 e4bb a1f3 acbb da3f 393c dbc5 013c
00000310: cebc a4bb c782 6e3b e88e aa3b b838 e13b
00000320: 6edc 653c 05ae 06bc 3c81 eabb a654 0abb
00000330: 8847 dcbb b6bb 003c 8043 a83b 8896 0dbb
00000340: 632c e6bb 89f9 d6bb a4fa 24bc 5036 b83b
00000350: 11e0 e7bb 5c07 44bc c692 58bb 1930 15bc
00000360: 545e 143c 68b1 1738 dbb3 033c b386 c53b
00000370: a0ab 1bbc a7c7 fcbb a245 49bc 9cd4 0bbc
00000380: ce21 323c ae4b 1fbc ea5b 893c aad9 09bc
00000390: 4380 ebbb 8a10 893b a2c7 7b3b 70b7 183c
000003a0: c473 20bc df4d 1ebc 0c1a b73b d3fa 923b
000003b0: 1764 8c3b 0e20 01bc 1598 85bb 82da 00bb
000003c0: e516 0dbc d793 1b3c 0939 0d3b e6da 81bb
000003d0: ef36 8ebb ff3f 04bc 7cc4 2abc 2bc5 09bc
000003e0: 1ad2 7c3a ad3d e63b 635f c9bb abca c63b
000003f0: 796e 14bc 20a3 b6bb 708c da3b 59bf 1ebc
