MACHINE_LEARNING/checkpoints/o3_model_epoch1.pt (torch, 419225 bytes, 13 tensors)

0.weight f4 [256, 12]
000000 32 2e 16 3e 99 95 2e 3e 85 53 2c bd 09 be 19 bd
       0.1466606 0.17049254 -0.042071838 -0.037534747
000010 44 f8 84 bd b1 42 b0 3b 56 fe 23 3d 8c 42 52 b9
       -0.064926654 0.005379044 0.040037476 -0.00020051951
000020 43 2b 41 3e e2 0e 45 3e 88 76 7f 3c e0 de e2 3d
       0.1886416 0.19243959 0.015592225 0.11077666
000030 e2 c1 50 3e ac 3e 65 3e e6 ac 0c be 34 99 f3 bd
       0.2038646 0.22387189 -0.1373783 -0.118944556
000040 eb 74 93 3d 15 77 84 be 06 29 f1 3d 22 da 93 bc
       0.07200035 -0.25872102 0.11775403 -0.01804835
000050 5d a3 0e be a0 54 96 bd 3d 9e 41 be 33 fa cc bd
       -0.13929506 -0.0734036 -0.1890802 -0.10008659
000060 bb 68 38 3c c2 73 56 3e b7 be 10 3d a5 5f 29 3e
       0.011255438 0.20942596 0.03533813 0.16540392
000070 91 06 7a be 23 4c 03 3d df 6c 05 3e c3 8d 51 3e
       -0.24416567 0.03205503 0.13029812 0.20464234
000080 9d 33 d9 bd be 7d 89 be bf 92 40 be a1 50 42 be
       -0.106055476 -0.26853746 -0.18805979 -0.1897607
000090 eb 79 37 be a6 3b 08 be 23 9d 78 be b1 12 5d 3e
       -0.17917602 -0.13304004 -0.24278693 0.21589161
0000a0 e1 cc d3 3d 78 fb 20 3e 99 09 90 3e ac 7d 0a be
       0.10341812 0.15720928 0.28132322 -0.13524503
0000b0 4e 07 b4 bd 5b 6f 34 bd d2 d0 79 be 12 3b 5f be
       -0.08790456 -0.04405151 -0.24396065 -0.21799877
0000c0 f8 78 16 3d c0 84 25 be d1 77 8c 3e 80 7a 8f be
       0.03673646 -0.16163921 0.27435163 -0.28023148
0000d0 90 26 3d 3e 65 70 14 bd 62 b7 72 be 01 79 d9 3d
       0.18471742 -0.03624 -0.23702767 0.10618783
0000e0 fc 6c 1b 3e 3b f7 83 3a 12 ed 72 3e 2d 94 53 bc
       0.15178293 0.0010068187 0.23723248 -0.012913746
0000f0 21 a5 0c bc b0 e1 05 be ae f9 99 3d fa ec fb bd
       -0.008584292 -0.13074374 0.07518326 -0.12301059
000100 32 34 92 3d ab 87 61 3e cf df 31 be 4a 27 0d 3e
       0.07138862 0.2202441 -0.17370532 0.13784519
000110 78 2e 7f 3e d2 47 62 3c 09 56 51 be bb db 3c be
       0.2492007 0.013811069 -0.20442976 -0.18443196
000120 46 7f 12 3d e6 44 07 be 62 a1 2e 3e 2a d9 a8 bd
       0.03576591 -0.13209876 0.1705375 -0.08244546
000130 0c 5c 53 be f2 7a 5f 3e c9 8b d2 bd e5 a7 0d bd
       -0.20640582 0.21824244 -0.10280568 -0.034583945
000140 8d 02 a7 ba 92 d6 df 3c 81 ff 86 bd 2b f5 79 3e
       -0.0012741849 0.027323995 -0.06591702 0.2440993
000150 2d 95 48 be d3 1f f1 bd 40 ac 04 be a2 42 e4 3b
       -0.19588156 -0.11773648 -0.12956333 0.006965951
000160 a1 82 5e be 90 f8 7e be c1 99 77 be 88 04 82 be
       -0.21729518 -0.24899507 -0.24179746 -0.25394082
000170 8e 47 97 3d 19 f9 8f 3e a1 33 98 3d 0c 89 25 be
       0.07386695 0.28119734 0.074317224 -0.1616556
000180 f9 8d 5e 3e 4e b2 55 3e 69 f0 cb bd 37 84 4b 3e
       0.21733846 0.20868799 -0.09957964 0.19874655
000190 0d a1 1f 3e fa 96 35 3e 52 04 7e 3d 7b e7 83 be
       0.1558878 0.17733374 0.06201584 -0.25762543
0001a0 8a c1 ee ba 6d 91 d9 3d db 46 61 3e 13 4c 10 3e
       -0.0018215638 0.10623441 0.21999685 0.1409152
0001b0 74 d0 30 be 9c ff 6d be 17 bd e8 bc 41 bc 0c 3c
       -0.17267019 -0.23242038 -0.028410478 0.008589805
0001c0 d0 ce 86 3e 5e fd 91 be 1e 1b 84 3e 06 34 7f bd
       0.2632966 -0.28513616 0.2580194 -0.062305473
0001d0 a4 68 78 be 47 67 81 be da 6b 35 3d 70 af cd 3d
       -0.24258667 -0.25274107 0.04429231 0.10043228
0001e0 a1 62 8b 3e 5f 2f 8b bc cb bf 6b 3d 2a c1 3b 3e
       0.27223685 -0.016990362 0.057555955 0.18335405
0001f0 bd 78 57 be d6 b7 df 3d ec 4d 81 3d 90 f7 57 ba
       -0.21042152 0.10923736 0.063136905 -0.0008238489
000200 78 e7 85 3d 10 5d 00 be a1 77 3e be 2f 1e d0 bd
       0.0653829 -0.125355 -0.18600322 -0.10162007
000210 7c 79 65 be 88 85 8d 3e 35 df 1c be de 1f 84 3e
       -0.22409624 0.2764094 -0.15319522 0.25805563
000220 fa 38 8e 3e 5f 0e 58 3e 3a 74 31 bd 5d cb 66 3e
       0.27777845 0.21099232 -0.043323733 0.22538514
000230 ae cd 55 be 03 90 81 3d 9d 36 0e bd 6f 13 26 bd
       -0.20879242 0.06326296 -0.034720052 -0.040545877
000240 11 1b 2d be 82 cc 8f 3e eb d7 07 be 27 30 f5 3d
       -0.16904856 0.28085715 -0.1326596 0.11972075
000250 ef 49 3d be d8 0e 4a 3e 81 d3 46 3d 5f a7 50 3e
       -0.18485235 0.19732225 0.04854155 0.20376347
000260 ed 5d d9 bd d5 f3 05 be e3 b5 80 3e 70 f9 7b be
       -0.10613618 -0.13081296 0.2513877 -0.24606872
000270 f6 d3 ba bd 06 32 e5 bb 42 07 90 be 29 a5 87 3e
       -0.091224596 -0.0069944886 -0.28130537 0.26493195
000280 89 7b 0a be 0e 3b 27 3d da 33 09 3e a5 d2 44 be
       -0.13523687 0.040827803 0.13398686 -0.1922098
000290 b3 85 38 be 6a e8 7d 3e 1e 2b 0f be d5 a6 36 3d
       -0.18019752 0.2479569 -0.13981292 0.044592697
0002a0 e2 6d 42 bd 40 a6 3a be 90 f0 2f be d2 a1 55 3e
       -0.047468074 -0.18227482 -0.17181611 0.20862511
0002b0 a1 00 7f 3b 1f 71 03 be 9a 03 83 bc f0 84 6c be
       0.0038910287 -0.12836121 -0.015992928 -0.23097587
0002c0 ec 89 89 be 62 8f 7b bc ed 05 8e bd 0e d4 a0 3d
       -0.2686304 -0.015354009 -0.06934724 0.07852946
0002d0 b8 d7 94 3d 6f 53 0b 3e ae 8e 06 3e db 3b 5f bd
       0.072677076 0.13606046 0.13140365 -0.054500442
0002e0 13 71 9d 3d a4 6e a6 3d 9f 7f 07 be 9b ec b6 3b
       0.07687583 0.08126572 -0.13232277 0.005582405
0002f0 c3 bb bd bd 6e 2c 2e 3e 8b 97 87 3e cc b9 78 3e
       -0.09264328 0.17009136 0.26482806 0.24289626
000300 cd 75 31 3e 76 7f a4 bb 14 64 6f bc 2c 37 c5 3d
       0.17330094 -0.0050200773 -0.014611263 0.09629664
000310 45 34 6f 3e 65 ce 8e bd 7c dd 5e 3e c0 ba 15 be
       0.23359783 -0.069729604 0.21764177 -0.1462202
000320 98 68 ce bc a9 68 20 3e 2a c0 73 3e f5 fb 2a 3d
       -0.025196359 0.15664925 0.23803774 0.04174419
000330 2b 1d 50 bd 74 1c 90 3e 60 71 95 bd f0 bc 09 3e
       -0.050809067 0.28146708 -0.07297015 0.1345098
000340 fc 38 24 3e c8 a9 1d 3d 98 89 8c 3e d6 19 d6 bd
       0.16037363 0.038491994 0.27448726 -0.104541466
000350 86 09 81 be f8 45 a7 bd b8 21 62 3e cc 30 43 bd
       -0.25202578 -0.08167642 0.22083175 -0.04765396
000360 e6 d3 b5 3d 42 74 34 3e 16 fc e4 bc f9 8a 67 3e
       0.08878307 0.17622474 -0.027952235 0.22611608
000370 65 8e 17 3d a3 a0 84 be b6 70 15 bd aa c9 86 3e
       0.037001032 -0.25903806 -0.036484443 0.26325732
000380 10 59 4c be 26 c8 26 3e 43 d1 09 be 65 c3 c9 3d
       -0.1995585 0.16287288 -0.13458733 0.09851722
000390 c5 40 65 be 89 50 fa 3d 73 87 65 bd 53 10 84 bd
       -0.22387989 0.12222392 -0.056037378 -0.06448426
0003a0 ab 9b 31 3d 32 87 87 3e 91 2f f0 bd d1 71 68 3d
       0.043361347 0.26470333 -0.117278226 0.05674917
0003b0 82 99 37 ba 96 cd 63 be cc e2 4a bd be a8 3f be
       -0.00070037704 -0.22246394 -0.049532697 -0.18716714
0003c0 79 d8 a6 3b 08 03 73 be a5 e0 66 3e ce 2d 50 bc
       0.0050917235 -0.23731625 0.22546633 -0.012706233
0003d0 17 80 26 be 79 a5 cb bc 61 98 21 be 5e 10 d8 3d
       -0.162598 -0.024859177 -0.15780784 0.10549997
0003e0 b0 79 82 bd d0 9d 50 bd f0 4f 8a be 7f 24 81 bd
       -0.06370866 -0.05093175 -0.27014112 -0.06305789
0003f0 d8 da 61 3e b4 e7 7a be f8 22 93 be 0a f1 de bd
       0.22056139 -0.2450245 -0.28737617 -0.10885818

0.bias f4 [256]
000000 f9 03 c9 bd d2 97 82 3e e1 73 c5 bd 8c d0 dd bc
       -0.09815211 0.25506455 -0.09641243 -0.027076982
000010 18 d1 88 bd 66 b0 5a be 2e d1 73 3e 93 3a 83 3e
       -0.066805065 -0.21356353 0.23810264 0.25630626
000020 17 f4 6a be 09 65 94 bd 94 37 05 3e 9f a4 95 3d
       -0.22944675 -0.072458334 0.13009483 0.073067896
000030 fe 9a 1d be 78 77 28 be 65 8a 00 be a7 c5 1a 3d
       -0.15391156 -0.16451824 -0.12552793 0.037786152
000040 69 a5 91 be 24 c6 09 3d 00 ee 20 be 2b db 92 be
       -0.2844651 0.033636227 -0.1571579 -0.28682837
000050 ec 4b 55 3e 3e 94 40 bd 50 a3 ad 3d 42 16 58 be
       0.20829743 -0.047016375 0.08478415 -0.2110224
000060 8a 19 34 be e1 8f 89 be 85 f4 e6 3d 2d c6 d3 3d
       -0.17587867 -0.26867583 0.11277107 0.103405334
000070 e1 bd 8b 3d 8a a2 86 be 89 b0 72 3e f1 06 86 bd
       0.06823326 -0.26295882 0.23700155 -0.06544293
000080 6f 11 35 3d 51 0d ba bd 3c 62 de 3c 67 d6 af 3d
       0.04420608 -0.09084571 0.027146451 0.08585816
000090 95 b5 8a be 0b ce 67 3e d0 3c 9c bd cc 90 37 3d
       -0.2709166 0.22637193 -0.076287866 0.044815823
0000a0 7c 64 36 3d 2b 88 3c bb 4d a5 32 3e 7c 20 85 3e
       0.044529423 -0.0028767686 0.1744587 0.26001346
0000b0 88 04 46 3e c0 91 15 3e f2 77 88 3e 30 1f 95 bc
       0.19337666 0.1460638 0.2665401 -0.018203348
0000c0 1e de 48 3b 91 33 5f 3e 70 4a 7e 3e 03 47 c1 3c
       0.003064997 0.21797015 0.24833083 0.023593431
0000d0 32 21 97 3d 87 12 8e be aa 22 3e be 94 bd 1a 3e
       0.073793784 -0.2774851 -0.18567911 0.15111381
0000e0 3e 18 42 3e ff 94 e0 bd c8 c1 18 be 40 b2 4b 3e
       0.1895456 -0.10965919 -0.14917672 0.19892216
0000f0 9f 42 8f be 78 48 65 3e 86 59 8d 3e da 2c 42 be
       -0.27980515 0.22390926 0.27607363 -0.18962422
000100 e2 df 15 3e 65 75 a5 bd 5d ef 4e 3e 32 1f 44 be
       0.14636186 -0.08079032 0.20208497 -0.19152525
000110 3e ce 4e 3e e0 bb 21 be 27 e1 f7 bd c6 00 2a be
       0.20195863 -0.15794325 -0.12103491 -0.16601858
000120 fe 8b 17 3e 27 b7 7e 3d 2b 89 81 bc 90 5d 77 be
       0.14799497 0.062186386 -0.015812477 -0.24156785
000130 c6 fb 8b be 7d d8 06 3e c5 0a 7d be 34 15 1c bd
       -0.27340525 0.13168521 -0.2471114 -0.03810616
000140 2f 06 82 3d e9 4e 17 3d 4e 96 7e 3e c2 07 17 3e
       0.06348836 0.03694049 0.24862024 0.14749053
000150 01 c7 94 bc 88 39 86 3d 91 42 eb bd 9b a4 ea 3d
       -0.018161299 0.06553942 -0.11487306 0.11457177
000160 ce a3 50 be 56 d2 f0 bd 67 f4 7c 3e 1b be 88 3d
       -0.20374987 -0.117588684 0.24702607 0.06676885
000170 41 d8 60 3d 78 34 3c 3e f9 0c 6d be e6 00 b9 3c
       0.054893736 0.1837939 -0.2314948 0.022583436
000180 64 2f 8b be 12 71 49 be 12 c7 21 3e 70 80 da bd
       -0.27184594 -0.19672039 0.15798596 -0.10669029
000190 a7 6f 49 be 71 60 8e bd b0 9d 46 3e 73 16 6d 3e
       -0.19671498 -0.069519885 0.1939609 0.23153095
0001a0 8b e2 72 bd 11 24 02 be 92 39 6c 3e a5 50 4c 3e
       -0.05929808 -0.1270907 0.23068836 0.19952638
0001b0 45 82 f8 bd d0 06 2f 3e fc e4 72 be ab 48 95 3d
       -0.12134222 0.17092443 -0.23720163 0.07289251
0001c0 37 fb 7d be eb 67 72 be df 5a 36 be 78 5e 86 be
       -0.24802862 -0.23672454 -0.17808102 -0.2624395
0001d0 67 55 d2 3c ef 30 89 3d 83 7d 06 3e b3 35 64 3e
       0.025675489 0.066987865 0.13133816 0.2228611
0001e0 c3 2e 90 be a2 53 dd bd e2 fb 94 bd f2 da 3e 3c
       -0.28160676 -0.10806967 -0.07274605 0.01164888
0001f0 4c a1 73 be 38 f7 b1 bd df d3 58 3c 4e 0d 5f 3c
       -0.23791999 -0.08689731 0.013234108 0.013614012
000200 0d 6e 77 be 79 cc ef bd eb ed 75 be 36 09 0b 3e
       -0.24163075 -0.11708922 -0.2401654 0.13577732
000210 a0 00 7e 3e 18 ad 6d 3e f8 fb d2 bc 8f a3 41 3e
       0.24804926 0.23210561 -0.025754914 0.18910049
000220 41 d2 19 be 86 53 9e 3d 3d b9 83 3e 1e f7 08 3e
       -0.15021612 0.077307746 0.25727263 0.13375518
000230 4c 62 18 be 63 c7 3d be c1 fe 71 be 7a 61 b9 bc
       -0.14881247 -0.18533091 -0.23632337 -0.022629488
000240 8f bf 8c 3c 2b c8 98 bb 57 ea a2 3d 22 b9 88 be
       0.017181186 -0.0046625338 0.07954853 -0.26703745
000250 18 03 51 3e c9 b4 6f 3e 50 db 10 3e 22 b2 34 bc
       0.20411336 0.23408808 0.14146161 -0.011028798
000260 fc 77 8c 3e 4f df 50 bd a7 09 92 bd e1 0a 95 3c
       0.2743529 -0.050994214 -0.07130747 0.018193664
000270 9c da 22 3b ce 53 af 3d 50 e8 69 3d 20 3c 9f bd
       0.002484954 0.08560906 0.057106316 -0.0777514
000280 81 50 6f 3d a3 8d 1e be de a1 79 be 5d 22 64 be
       0.058426384 -0.15483718 -0.24378154 -0.22278734
000290 0b 8e ab bd 5a 26 f9 bd ce d5 62 3d 96 8c f0 3d
       -0.08376702 -0.12165518 0.05537968 0.11745565
0002a0 45 8a 6d 3e 71 7f 89 3e 05 e0 87 be 87 ec 53 be
       0.23197277 0.26855043 -0.265381 -0.20695697
0002b0 7a c1 7d 3e 29 9e f9 bd e4 d2 1a be bb b8 72 bd
       0.24780837 -0.1218837 -0.15119511 -0.059258204
0002c0 34 48 62 3e ed ff 48 be 26 9f 23 3e 4b 98 8a be
       0.22097856 -0.19628878 0.15978679 -0.27069315
0002d0 1d 97 53 3e 9f 97 45 be e7 7a 75 be b8 78 3c 3e
       0.20663114 -0.1929612 -0.23972665 0.18405426
0002e0 e1 75 6f 3e 6e 14 54 be 24 79 1d 3e fa 3d 44 3e
       0.23384811 -0.20710918 0.15378243 0.19164267
0002f0 61 b4 88 be 29 8d 15 be 30 92 ad bd e7 ed a5 3d
       -0.26700118 -0.1460463 -0.08475149 0.08102017
000300 63 8e 46 3e 2e 95 f4 3c 61 ff e0 3c b6 c5 01 3d
       0.19390254 0.02985629 0.027465524 0.031682692
000310 94 75 76 3e 73 ad 28 3e d1 ae d4 3d 39 52 29 be
       0.2406829 0.16472416 0.10384906 -0.16535272
000320 84 9e 81 bd 3b da 87 be 23 06 11 3e b7 f6 48 3e
       -0.063290626 -0.26533684 0.14162497 0.19625364
000330 51 ea f2 bd f7 2e 70 be e0 7b 8f be 05 e6 33 3d
       -0.118610986 -0.23455416 -0.28024197 0.043920536
000340 83 c8 0b be c7 d9 59 bc 46 52 3b 3c 5e 99 52 be
       -0.13650708 -0.013296551 0.01143319 -0.20566317
000350 48 83 22 3e 83 dc 8f 3e 52 7a 36 be 7f 83 87 3d
       0.15870392 0.28097925 -0.17820099 0.06616878
000360 6f db 29 3e 58 e1 3a be 36 dd 9d 3d 8a 26 87 be
       0.16587614 -0.18250024 0.07708208 -0.2639659
000370 3d a7 80 bd d8 eb 8b 3e 09 90 85 bc ce c6 8a be
       -0.06281898 0.27328372 -0.016304033 -0.271048
000380 d2 2f a2 3c ff 9d a2 bd 4c 43 4c 3e 09 4d d5 3d
       0.019798193 -0.079402916 0.19947547 0.10415084
000390 9f 03 5d 3e 77 90 df 3c 1c 7a 39 be 9b 87 67 3e
       0.21583413 0.027290566 -0.18112987 0.22610323
0003a0 e2 7c 0b 3d aa c3 8c be ce d2 61 3e 96 43 8e be
       0.034054644 -0.2749303 0.22053072 -0.2778594
0003b0 64 68 9e 3d 47 4c 70 bd f4 18 62 be dd a5 71 3d
       0.07734755 -0.058666494 -0.22079831 0.05899607
0003c0 24 ce d6 bc cf eb 59 be 4f fc 0e be 01 86 55 3d
       -0.026221342 -0.2128136 -0.13963436 0.05212975
0003d0 2e a1 82 be 86 82 54 3e 88 18 12 bd 4a e8 38 3e
       -0.25513595 0.20752916 -0.035667926 0.18057361
0003e0 ed 6c f5 3d 81 7d 62 be 08 9f 86 3e 36 09 91 be
       0.119836666 -0.22118188 0.26293206 -0.2832734
0003f0 ce 91 d1 3d ee 26 40 3e 88 1b ac bd e8 89 3e be
       0.10232888 0.1876485 -0.08403689 -0.18607295

1.weight f4 [256]
000000 35 9e 80 3f c8 2b 80 3f 17 b8 80 3f 66 95 7e 3f
       1.0048281 1.0013361 1.005618 0.99446714
000010 ea 3b 80 3f 21 97 80 3f 59 f6 7e 3f 78 51 80 3f
       1.0018284 1.0046121 0.99594647 1.0024862
000020 a7 af 80 3f e3 4e 80 3f c7 19 7f 3f 92 2a 7f 3f
       1.0053605 1.0024074 0.9964871 0.9967433
000030 8d 63 80 3f 1c ad 80 3f 9d 89 80 3f a7 9a 80 3f
       1.003038 1.0052829 1.0041996 1.0047196
000040 c3 27 80 3f 3d c4 7f 3f c0 e7 7e 3f 09 a2 80 3f
       1.0012134 0.9990881 0.9957237 1.0049449
000050 77 78 80 3f 3f ae 7e 3f 6a 54 80 3f e7 81 7e 3f
       1.0036763 0.9948463 1.0025761 0.99416965
000060 61 78 80 3f 22 c2 7e 3f e7 b1 7f 3f 05 29 80 3f
       1.0036737 0.99514973 0.9988083 1.0012518
000070 65 8f 80 3f 56 d0 7e 3f d0 17 80 3f ce 88 80 3f
       1.004376 0.99536645 1.0007267 1.004175
000080 71 cf 7f 3f 76 b6 7e 3f cf 5a 80 3f d1 a8 80 3f
       0.99925905 0.99497163 1.0027713 1.0051519
000090 74 1d 7f 3f 5f 76 7e 3f 73 9f 80 3f e3 9e 80 3f
       0.99654317 0.9939937 1.004866 1.0048488
0000a0 7a e7 7f 3f fb 4a 80 3f d0 72 80 3f 95 b9 80 3f
       0.9996258 1.0022882 1.0035038 1.0056635
0000b0 a4 a5 80 3f 66 c2 80 3f 38 89 80 3f 59 5b 80 3f
       1.005055 1.0059326 1.0041876 1.0027877
0000c0 71 eb 7e 3f 13 e1 7f 3f bb 52 80 3f a6 f4 7e 3f
       0.99578005 0.9995281 1.0025247 0.99592054
0000d0 a4 08 80 3f 5b 15 7f 3f 00 c7 7e 3f f3 9f 7f 3f
       1.0002637 0.9964196 0.995224 0.9985344
0000e0 ab d9 7e 3f e2 d0 7e 3f 9d b3 80 3f ba da 7e 3f
       0.99550885 0.9953748 1.0054814 0.995525
0000f0 97 be 7e 3f 9e 48 7f 3f 44 d7 7e 3f 13 04 80 3f
       0.9950957 0.9972018 0.9954722 1.0001243
000100 bc a3 80 3f f0 c8 80 3f 2a c7 80 3f 16 20 7f 3f
       1.0049968 1.0061321 1.006078 0.99658334
000110 cf 8d 80 3f fd 29 7f 3f 46 92 80 3f 28 ad 7e 3f
       1.0043277 0.99673444 1.0044639 0.99482965
000120 9e 76 7e 3f 22 d6 7e 3f 90 cb 80 3f 7b 9f 80 3f
       0.99399745 0.9954549 1.0062122 1.004867
000130 7e c3 7f 3f 88 3e 80 3f b8 2e 80 3f e0 e0 7e 3f
       0.9990767 1.0019083 1.0014257 0.9956188
000140 6e 44 80 3f 2c b6 7e 3f 82 c6 7e 3f c8 41 7f 3f
       1.0020883 0.9949672 0.9952165 0.9970975
000150 6d c2 7f 3f 02 77 80 3f 2e 8b 7e 3f 30 86 7e 3f
       0.99906045 1.0036318 0.9943112 0.99423504
000160 e7 99 80 3f d6 11 7f 3f 95 81 7f 3f 23 14 80 3f
       1.0046967 0.9963659 0.998071 1.0006145
000170 09 79 80 3f 92 f2 7f 3f 00 8f 7f 3f c7 7d 7f 3f
       1.0036937 0.9997951 0.99827576 0.99801296
000180 e2 25 80 3f a2 bf 80 3f 81 96 80 3f d3 ba 7e 3f
       1.0011561 1.0058482 1.004593 0.9950382
000190 2c cf 7e 3f 17 a0 80 3f 8d a6 7e 3f 27 67 7f 3f
       0.9953487 1.0048856 0.99472886 0.99766773
0001a0 66 48 80 3f fb 64 7e 3f 26 a5 80 3f 5d 30 7f 3f
       1.0022094 0.99372834 1.0050399 0.9968317
0001b0 a3 89 80 3f 47 8e 7e 3f 1c b7 7e 3f 7b ab 80 3f
       1.0042003 0.9943585 0.9949815 1.0052332
0001c0 5f 6c 80 3f 63 a9 80 3f ee 80 7e 3f ea 37 7f 3f
       1.0033072 1.0051693 0.9941548 0.99694693
0001d0 3e 85 80 3f bd bf 80 3f 85 65 7f 3f 56 9d 80 3f
       1.0040662 1.0058514 0.9976428 1.0048015
0001e0 93 b1 7e 3f 35 46 80 3f 4f 10 80 3f a5 65 80 3f
       0.99489707 1.0021425 1.0004977 1.003102
0001f0 4c 10 7f 3f 63 46 80 3f 43 94 80 3f 1b 18 7f 3f
       0.9963424 1.002148 1.0045246 0.9964616
000200 38 08 7f 3f 71 bf 80 3f c6 bb 80 3f d6 5e 7f 3f
       0.99621916 1.0058423 1.0057304 0.99754083
000210 8d c1 80 3f 96 a5 7e 3f f9 73 80 3f 98 69 80 3f
       1.0059067 0.99471414 1.0035392 1.0032225
000220 3b 71 7e 3f 2b 5d 80 3f 20 90 80 3f cc a4 7e 3f
       0.99391526 1.0028433 1.0043983 0.9947021
000230 17 fa 7e 3f 53 41 7f 3f b7 95 80 3f 69 78 7e 3f
       0.99600357 0.9970905 1.0045689 0.9940248
000240 ce c2 7e 3f 51 84 7e 3f 10 af 80 3f 33 08 80 3f
       0.99516 0.9942065 1.0053425 1.0002502
000250 fc b8 7e 3f 2a a5 7f 3f bf ad 80 3f d9 72 80 3f
       0.99501014 0.99861395 1.0053023 1.0035049
000260 d8 d4 7e 3f a1 ae 80 3f 13 97 7e 3f a7 3b 80 3f
       0.99543524 1.0053293 0.9944927 1.0018204
000270 5a 92 80 3f b7 b6 80 3f 7c 35 7f 3f f9 87 80 3f
       1.0044663 1.005576 0.99690986 1.0041496
000280 89 27 7f 3f a9 b7 7f 3f 4a 09 80 3f 0e 60 7f 3f
       0.996697 0.9988962 1.0002835 0.9975594
000290 2b a3 80 3f fa b0 80 3f 1b a4 80 3f 15 4c 80 3f
       1.0049795 1.0054009 1.0050081 1.0023218
0002a0 77 69 80 3f 81 3c 7f 3f 1f 89 7f 3f e2 2d 80 3f
       1.0032185 0.99701697 0.99818605 1.0014002
0002b0 34 2c 7f 3f fb 05 80 3f 0a 82 80 3f 85 3d 80 3f
       0.99676824 1.0001825 1.0039685 1.0018774
0002c0 e9 e3 7e 3f 44 bc 80 3f 60 9a 80 3f c7 4b 80 3f
       0.99566513 1.0057454 1.0047112 1.0023125
0002d0 b3 a1 80 3f a8 16 7f 3f 7a 2e 7f 3f cc 46 7f 3f
       1.0049347 0.99643946 0.9968029 0.997174
0002e0 64 6e 80 3f bc 67 80 3f 29 54 80 3f fe d6 7f 3f
       1.0033689 1.0031657 1.0025684 0.9993743
0002f0 27 b8 7f 3f 42 75 80 3f db 19 80 3f bf 79 80 3f
       0.9989037 1.0035784 1.000789 1.0037154
000300 44 f2 7f 3f 43 06 80 3f f6 a1 7f 3f 02 a2 80 3f
       0.99979043 1.0001911 0.9985651 1.0049441
000310 f4 ba 80 3f 42 c9 80 3f 3d 91 80 3f d7 82 7f 3f
       1.0057054 1.0061419 1.0044323 0.9980902
000320 3b 14 7f 3f 47 24 80 3f ad 1e 80 3f 1d 21 7f 3f
       0.99640244 1.0011071 1.0009362 0.996599
000330 e7 b3 80 3f 7c 71 80 3f b5 2f 80 3f e4 9d 7e 3f
       1.0054902 1.0034633 1.0014559 0.9945967
000340 36 d2 7e 3f 35 63 7e 3f 69 24 80 3f bd d2 7e 3f
       0.99539506 0.9937013 1.0011111 0.9954031
000350 56 21 7f 3f b9 60 7f 3f 23 9a 7e 3f c0 ed 7f 3f
       0.9966024 0.9975696 0.99453944 0.9997215
000360 3a 7f 80 3f 8d 91 80 3f a5 e3 7f 3f 48 19 7f 3f
       1.0038826 1.0044419 0.99956733 0.9964795
000370 74 ab 80 3f 01 9e 7e 3f dc 58 80 3f 20 9c 80 3f
       1.0052323 0.99459845 1.0027118 1.0047646
000380 45 32 7f 3f 9e 2a 80 3f d5 1d 7f 3f 95 a0 80 3f
       0.9968608 1.0013006 0.99654895 1.0049006
000390 69 a9 7e 3f f1 f3 7e 3f f2 5f 7f 3f 73 af 80 3f
       0.9947725 0.99590975 0.99755776 1.0053543
0003a0 00 5c 80 3f b1 12 7f 3f 72 fb 7e 3f 24 af 7f 3f
       1.0028076 0.99637896 0.99602425 0.9987662
0003b0 a9 0f 7f 3f 17 c7 7f 3f 4f 5e 7f 3f ef fe 7f 3f
       0.9963327 0.9991316 0.9975328 0.9999837
0003c0 98 96 80 3f 86 92 80 3f fb 97 7e 3f e3 83 7f 3f
       1.0045958 1.0044715 0.99450654 0.9981062
0003d0 3c 98 7f 3f 6f 76 80 3f 0a 76 80 3f 19 14 80 3f
       0.99841666 1.0036143 1.0036023 1.0006133
0003e0 37 08 7f 3f a8 f6 7e 3f 6e 7e 7f 3f ae f2 7e 3f
       0.9962191 0.9959512 0.9980229 0.9958905
0003f0 b1 51 80 3f 0d e1 7f 3f fe 24 7f 3f 9e ca 7e 3f
       1.002493 0.99952775 0.9966582 0.9952792

1.bias f4 [256]
000000 d4 2e 9e 3b 7d 46 ef 3a b5 c5 b5 3b 92 45 b4 3b
       0.0048273597 0.001825526 0.00554725 0.0055014575
000010 72 6d 91 3a 3c a7 bf 3b fd 15 80 bb 31 d2 22 bb
       0.0011095239 0.0058487933 -0.003908871 -0.0024844522
000020 2b 23 aa 3b 24 56 1a bb 08 62 68 bb bc 0f 53 3b
       0.0051921806 -0.002354988 -0.0035458822 0.0032205423
000030 82 81 47 bb 74 37 af bb aa 2a 8a bb 38 b0 9a 3b
       -0.0030442183 -0.0053471867 -0.0042165117 0.004720714
000040 28 ad ab 3a 50 44 4c 3a d2 c6 8b bb c2 b9 a2 bb
       0.0013097869 0.0007792162 -0.0042656446 -0.0049659917
000050 84 63 24 3b cf 43 a4 bb e0 1a 34 bb cd b9 90 bb
       0.002508373 -0.005012966 -0.002748184 -0.0044166804
000060 2f 35 69 bb 66 35 a7 3b 53 fd 87 3a 57 8e 30 bb
       -0.0035584678 0.005102801 0.0010375179 -0.002694031
000070 73 9f 8f bb 36 c3 97 bb d4 b8 43 3a de 19 87 bb
       -0.0043830215 -0.0046314253 0.0007466201 -0.0041229567
000080 76 6f b0 3a ce f4 a1 3b 8e 7d c4 3a db f0 a9 3b
       0.0013460952 0.004942513 0.0014991031 0.005186183
000090 f1 3f 57 3b e9 04 c7 3b fe bf 9f 3b 1c d9 9e bb
       0.0032844509 0.0060735834 0.004875182 -0.004847659
0000a0 0e 71 24 b9 3b 88 8f bb 65 f0 8c 3b ac 3f 03 3b
       -0.00015682375 -0.0043802536 0.004301118 0.0020026965
0000b0 66 a8 a7 3b bd ad c1 3b e8 fa 87 3b b5 52 3d bb
       0.00511651 0.005910604 0.0041497834 -0.0028888409
0000c0 58 7f 8f 3b b8 4a fd 38 17 8d 26 bb 10 3a 8e 3b
       0.004379194 0.000120778976 -0.0025413686 0.0043404177
0000d0 52 fe de 39 44 c7 68 bb 28 7c 9c bb b4 32 b8 b9
       0.00042532623 -0.0035519162 -0.0047755428 -0.00035132992
0000e0 94 d3 93 bb e0 24 42 bb 34 40 9c 3b 41 a1 8a 3b
       -0.004511306 -0.002962403 0.004768396 0.0042306487
0000f0 5e 7b a0 3b 39 82 34 bb 13 cd 8f bb 6a f2 3d b9
       0.004897519 -0.002754344 -0.0043884604 -0.00018114751
000100 99 27 6c 3b b4 27 c7 bb 82 8d ca bb 1f 1f 80 3b
       0.0036034344 -0.006077731 -0.00618142 0.00390996
000110 13 e5 8d 3b d3 a1 49 3b 7c 76 a0 bb 63 c0 a8 3b
       0.0043302863 0.003076662 -0.004896937 0.0051498874
000120 22 59 c0 bb e5 49 94 bb 95 b4 c7 3b d0 1f 9f bb
       -0.0058700005 -0.0045254105 0.006094525 -0.0048560873
000130 82 21 19 3a 3e b0 0e bb 72 b8 53 3b f2 cb 92 3b
       0.000584148 -0.002177253 0.0032305983 0.0044798786
000140 7d 5e 1f bb d4 d2 9e bb 99 d4 95 bb 1b f1 5f 3b
       -0.0024317794 -0.00484691 -0.0045724628 0.003417081
000150 f1 39 9d 38 4e 84 79 3b 02 b9 b8 bb 02 0a be 3b
       7.497136e-05 0.0038073245 -0.005637289 0.005799533
000160 d3 00 9a 3b 6e 6f 6e bb 4a 5a 4e ba d3 ab 5e 3b
       0.0046998053 -0.0036382335 -0.00078717305 0.0033976927
000170 38 e2 52 bb df 25 2a b9 70 72 d4 3a 9c fc 09 3b
       -0.0032178294 -0.00016226571 0.0016208421 0.0021055108
000180 90 61 86 3a 56 7e bf bb 55 8a 97 bb 0d cf ca 3b
       0.0010252465 -0.005843918 -0.0046246448 0.006189233
000190 80 82 90 3b 14 32 a0 bb f1 cc ac bb d5 be 18 3b
       0.004410088 -0.0048887823 -0.0052734544 0.0023307104
0001a0 6c ec 63 3a 0f 69 c4 3b fb d8 a4 bb 37 3b 54 bb
       0.00086945924 0.0059939693 -0.005030749 -0.0032383928
0001b0 f9 34 87 bb 32 ad b9 bb d1 fb a4 3b ea 24 ac 3b
       -0.004126188 -0.0056663984 0.0050349017 0.005253424
0001c0 a7 b0 26 bb 44 5e a7 3b 45 da bc 3b 54 39 51 bb
       -0.0025434883 0.005107673 0.0057633244 -0.003192504
0001d0 00 42 86 bb 22 e6 c0 3a 1a 04 1b 3a 52 86 9c 3b
       -0.0040972233 0.0014717022 0.0005913392 0.0047767544
0001e0 a9 f5 a5 bb ae 0c 42 bb 66 7e 0b ba 98 2c 4b bb
       -0.0050646854 -0.0029609608 -0.0005321264 -0.0031001922
0001f0 52 29 6c 3b d2 d2 63 3b 5c 88 a2 bb a0 f6 95 ba
       0.003603537 0.003476311 -0.004960103 -0.0011441298
000200 f8 f2 73 bb c4 0b a0 3b a4 ae b9 bb ee 7b d5 ba
       -0.0037223678 0.004884215 -0.0056665707 -0.0016287544
000210 ed 48 c2 3b 1f e1 a9 3b 24 c6 65 3b 52 15 c9 3b
       0.0059291036 0.005184307 0.0035060728 0.006136575
000220 35 00 c8 bb d6 82 36 3b 01 41 8e bb c0 c4 a5 bb
       -0.0061035403 0.002784898 -0.004341245 -0.005058855
000230 a3 33 82 bb 0b 23 34 bb 45 07 9d 3b 24 b4 c4 bb
       -0.0039734407 -0.0027486708 0.0047921264 -0.0060029197
000240 70 84 9e bb 0b ec 9d bb a3 90 ac bb 86 c0 16 3b
       -0.004837565 -0.0048193983 -0.0052662655 0.0023002937
000250 a0 16 a3 bb 9c a7 a1 3a 81 cf af 3b 2e 0c 65 bb
       -0.0049770623 0.0012333277 0.0053653126 -0.0034949887
000260 c2 8d 92 bb c8 93 a6 bb a9 ae 87 3b e3 ba f3 ba
       -0.0044724653 -0.005083535 0.004140694 -0.0018595125
000270 40 d5 90 3b c2 bc b2 bb 06 39 16 bb b7 19 87 bb
       0.0044199526 -0.0054546306 -0.0022922172 -0.0041229385
000280 54 d3 2d bb 68 d0 a3 3a e8 c9 57 b9 4e bb 1f 3b
       -0.0026523666 0.0012498023 -0.00020579214 0.0024373117
000290 7d b1 a2 3b e1 89 b5 3b 00 54 85 3b 5b 30 5b 3b
       0.004965006 0.005540118 0.0040688515 0.003344557
0002a0 b5 a7 82 3b e9 8e 2e 3b 83 91 ee ba bc 38 01 3b
       0.0039872774 0.0026635474 -0.0018201325 0.0019717654
0002b0 0e b8 55 bb 6d f4 fd b9 a8 94 81 bb 98 69 2c 3b
       -0.0032610926 -0.00048438032 -0.003954489 0.0026308056
0002c0 58 6a 89 3b f2 10 bc bb 0c 10 99 bb 25 f7 9a bb
       0.0041935854 -0.0057393247 -0.0046711024 -0.004729169
0002d0 40 ac a5 3b 8a 1b 5b bb 38 0b 59 3b 96 2c 31 bb
       0.005055934 -0.0033433163 0.003311826 -0.0027034632
0002e0 41 3d 97 bb 43 85 50 bb f6 31 34 3b 8b 18 3b 3a
       -0.0046154563 -0.0031817711 0.00274956 0.0007137141
0002f0 41 48 89 3a b4 3c 69 bb 2b 57 0b 3b 22 75 6d bb
       0.0010473804 -0.003558916 0.0021261673 -0.0036233147
000300 5e 6b 37 39 c1 da dc 3a d8 6f a7 ba ba 3c 9e bb
       0.00017492237 0.0016849862 -0.0012774421 -0.0048290165
000310 ba eb b9 3b 47 1d c9 bb bd 47 98 bb 53 56 01 3b
       0.0056738527 -0.0061375233 -0.0046472237 0.001973529
000320 c2 74 26 bb 07 97 b5 ba 6b 8e 79 3a 5c fb 33 bb
       -0.0025399183 -0.0013854214 0.0009519818 -0.0027463054
000330 dc 27 b6 3b 91 d8 79 3b 64 34 50 3a 59 61 ae 3b
       0.005558951 0.0038123468 0.0007942377 0.0053216633
000340 2b 69 96 3b 8b 72 cf bb c7 9c b8 ba 7f ad 8b bb
       0.0045901737 -0.0063307933 -0.0014084809 -0.0042626257
000350 12 99 5c 3b ea 47 05 bb ee fe b2 bb 5e 55 a5 ba
       0.0033660573 -0.0020337054 -0.005462519 -0.0012613942
000360 5b 11 85 bb 27 b9 95 3b b1 d8 0c 3a 43 ac 85 3b
       -0.004060907 0.004569191 0.00053728657 0.004079373
000370 52 af a3 3b 11 22 b3 bb a1 8d 38 3b df b4 9d 3b
       0.004995265 -0.0054667075 0.002816059 0.0048128213
000380 5e 4e 32 3b be db 9f ba 42 cf 78 3b 80 da a3 3b
       0.0027207355 -0.0012196226 0.0037965332 0.0050004125
000390 1b ba ab 3b 9d 1c 8a bb 35 69 1e 3b b5 1b 47 3b
       0.0052406914 -0.0042148368 0.0024171595 0.0030381505
0003a0 5c 35 8d bb 94 11 67 bb b9 cd 79 bb ea ce ed 3a
       -0.0043093394 -0.003525828 -0.0038117005 0.001814333
0003b0 43 1d 71 3b 8d 6c 74 3a 63 c1 2d 3b 03 c2 53 b7
       0.0036791123 0.00093240367 0.0026512973 -1.2621752e-05
0003c0 69 20 b6 3b 83 c0 91 3b 9a 20 ac 3b 3e 2d 07 3a
       0.005558063 0.004447998 0.00525291 0.0005156583
0003d0 55 c2 99 3a be 7a 83 3b 0a b8 8d bb 26 46 19 3a
       0.0011730889 0.0040124347 -0.0043249177 0.000584694
0003e0 a4 dd 80 3b f4 55 84 3b 2e d7 83 3a a7 85 83 bb
       0.0039326716 0.0040385667 0.0010058635 -0.0040137353
0003f0 3b 0f 25 3b 6f 4e 0f ba 5f 7d 47 bb 32 e4 9a 3b
       0.002518608 -0.00054667046 -0.0030439717 0.00472691

4.weight f4 [256, 256]
000000 25 ba 76 bd 8c 82 52 bd 02 2f 07 3d 84 08 7e 3d
       -0.060236115 -0.05139403 0.033003815 0.06201984
000010 75 9e 3f bd 4c 42 2e 3d e3 2c 65 3c 73 3b 2f 3d
       -0.046781976 0.042543694 0.013987753 0.042781305
000020 3a de 95 3c 54 b4 77 3d 38 e5 32 3d f6 de ea 3b
       0.018294442 0.06047471 0.04367563 0.0071676923
000030 a4 c9 2e bd ee 26 71 3d 19 36 56 bd 37 f1 79 bc
       -0.04267277 0.058875017 -0.052297685 -0.015255264
000040 d7 e9 73 3c 38 db 31 bd e5 cc 47 bc a9 92 bb 3c
       0.014887295 -0.043421954 -0.012194847 0.022897081
000050 68 fc 14 3d 47 17 32 bd 62 ee 76 3d 94 1b 3a 3d
       0.036373526 -0.04347923 0.060285933 0.045436457
000060 fa f0 a0 bc 33 0f db bc 43 4f 0d bd 91 08 00 3d
       -0.019646157 -0.026740646 -0.034499418 0.03125817
000070 24 d2 e2 3c 60 7d 03 bc 9a bb c2 3c 8c 89 67 bc
       0.027688093 -0.008025497 0.023771096 -0.014131915
000080 5b ec 36 3d 6c f6 cb bc 8e d3 2b 3d 02 de 21 3a
       0.044659 -0.024897777 0.0419498 0.00061747443
000090 49 2c 3e 3d 8c b4 55 3d 47 ac 81 bd 22 5e 8a 3c
       0.046428952 0.052174136 -0.063316874 0.01689059
0000a0 7a 18 6e bd 90 4a 57 3d 58 c1 ba bc b0 25 1f 3d
       -0.05812881 0.052561343 -0.022797272 0.0388543
0000b0 d8 a6 3f bd 89 48 14 bd 06 ae 42 bd 25 da 56 3d
       -0.046789974 -0.036201987 -0.047529243 0.052454133
0000c0 ab f2 d5 bc b7 8d 81 bc 72 db d6 3c 87 d8 7c 3d
       -0.02611669 -0.015814645 0.026227687 0.061729934
0000d0 ba c0 6a 3b 31 ab 81 3c 35 ed aa bc 2f df 3a bc
       0.003582044 0.0158287 -0.020865062 -0.01140575
0000e0 cd b3 d7 bc 6d 5e ec bc e0 ca 08 3d a8 e1 a3 bc
       -0.026330853 -0.02885362 0.0333966 -0.020005062
0000f0 1a 8e 23 bd 7d fb 05 bd 5a 00 f2 3c 4d 51 f3 b9
       -0.03993044 -0.03271054 0.029541183 -0.00046409146
000100 9c fe b5 3c e6 7f 75 3d c7 7b ee bc 86 02 80 bc
       0.022216134 0.059936427 -0.029111756 -0.015626203
000110 f6 84 08 bd 56 6a 82 3b f0 4e 98 3c df b9 56 3d
       -0.033329926 0.0039799614 0.018592328 0.052423354
000120 43 85 17 bc e0 a2 b3 3b 39 73 f9 3c 21 ad b9 3c
       -0.009248081 0.0054820627 0.03045045 0.022665562
000130 9f c7 51 3d 1c 86 45 3d a2 69 9d bc a9 68 6d bd
       0.051215764 0.0482236 -0.019215409 -0.05796114
000140 86 b4 d9 3c bc 7f 68 3c 44 d9 5b bd 51 82 9a bc
       0.026575338 0.0141906105 -0.053673998 -0.018860968
000150 b2 ef d6 3a fa 2d da bc 54 b0 c4 3c 93 5d 86 3c
       0.0016398339 -0.026633251 0.024009861 0.016402042
000160 b3 68 02 3d 0f 6b 51 3d d1 c8 59 bd bc 31 1a 3d
       0.03183813 0.05112749 -0.05317003 0.037645087
000170 31 bb 7c 3d 1e ff 83 bc f6 82 60 3d 88 f6 d8 bb
       0.061701957 -0.01611286 0.054812394 -0.0066211857
000180 0a 5e a9 ba 2c f8 9f bb 20 4e 05 3d 79 5c 66 bb
       -0.0012921703 -0.0048818793 0.03254521 -0.0035150333
000190 48 e8 1d bc 51 f4 ef bc bf 1f 55 bd 36 45 62 bc
       -0.0096379 -0.029291304 -0.05203223 -0.0138104465
0001a0 6f a0 07 3d d4 ad ae bb 4f 83 01 39 a2 ad 90 3c
       0.033111986 -0.0053307805 0.00012351315 0.01766092
0001b0 ea 4a c4 bc f5 08 d5 bc c5 cd 1b 3c 49 cd 1e 3d
       -0.023961503 -0.026005248 0.0095095085 0.038769994
0001c0 6b 5b 06 bc 00 ae f1 bc 82 8a 8b bc 2a 3d 67 bd
       -0.008200507 -0.029501915 -0.01703382 -0.056454815
0001d0 97 68 21 bb 80 a6 cb bc 7f 8e 92 3c 59 dc 0f 3d
       -0.002462899 -0.024859667 0.017890213 0.03512225
0001e0 12 0a 44 3d d3 78 4c bc 0b 75 85 bc 9f da 61 bd
       0.047861166 -0.012479979 -0.016291162 -0.055140134
0001f0 9c 5f 84 bc 39 3e 2e 3c 8c 43 c6 3c 8f 3b 9f 3c
       -0.016158871 0.010634952 0.02420213 0.01943758
000200 ac 1a c9 bc 0b f3 bb 3c 6d 24 48 3c 5c fb 2d 3d
       -0.024548851 0.02294304 0.012215716 0.042476043
000210 3b a5 17 bc 4e 4b 7c bc 8f 63 3e 3d 44 00 0e bd
       -0.009255703 -0.015398813 0.046481665 -0.034668222
000220 1e f7 d6 bc 40 a1 20 bd bb b1 b9 bc d6 0b 28 bd
       -0.026240882 -0.03921628 -0.022667756 -0.041026913
000230 78 ed 44 bd 66 66 15 bd 1d c9 31 3d d8 be 71 bd
       -0.04807803 -0.036474608 0.043404687 -0.059019893
000240 f1 90 85 bd 82 5f 39 bc 82 27 41 3d c7 cd 6c bc
       -0.06521786 -0.011314275 0.04715682 -0.014453358
000250 aa 05 19 3d a7 2f 0c bd 26 08 4d 3d b7 43 4a 3c
       0.037358917 -0.034225132 0.0500566 0.012345246
000260 75 7c a4 bc 69 99 dc 3c 7e e0 76 3d 27 d0 96 bc
       -0.020078877 0.02692862 0.060272686 -0.018409802
000270 7f 7e 72 bd b6 6e 01 bd dd e6 09 3d 67 6a b3 3b
       -0.059202667 -0.031599723 0.033667434 0.0054753306
000280 b7 2e 0f ba 2a b4 fe 3c 80 01 7a 3d f4 e7 d6 bc
       -0.0005461978 0.031091768 0.061036587 -0.02623365
000290 a9 9f ce b9 ce 49 3b bc 56 aa 05 3d 42 ec f6 bc
       -0.00039410338 -0.011431171 0.032633148 -0.030141953
0002a0 07 26 7e bd 51 ab a1 bb e2 79 25 bb 38 4f 5d 3d
       -0.062047984 -0.0049337526 -0.002524965 0.054030627
0002b0 d1 eb 46 3d 35 81 45 3d aa 69 60 bd 0e 3d 1c 3d
       0.048564736 0.048218925 -0.05478827 0.038144164
0002c0 2c 67 b3 3c 98 72 50 bb 36 7c 1b 3d e4 53 48 3d
       0.021899782 -0.0031806584 0.037960254 0.04890813
0002d0 74 5f a4 bc e4 44 1d 3d 78 1e bb bc b0 61 0c bd
       -0.020065047 0.038395777 -0.022841677 -0.03427285
0002e0 7f 27 d1 3c f8 b2 43 3d 53 e9 82 bd d1 f9 a5 bc
       0.025531529 0.0477781 -0.06392159 -0.020260723
0002f0 3e f1 2e bd ee 3f 2c bd eb bd 0a 3d 3d bc 58 bc
       -0.042710535 -0.042053156 0.033872526 -0.013228473
000300 59 17 a7 ba 41 ab 81 3c 03 51 98 3a eb 04 82 3d
       -0.0012748047 0.01582873 0.0011620823 0.06348594
000310 28 32 45 3c 33 33 85 3d 84 2d c9 3c ed 8d 46 bd
       0.012035884 0.06503906 0.024557836 -0.048475195
000320 8b 05 49 bc 14 7e 22 bd 58 e4 de bc 1e 99 85 bd
       -0.012269388 -0.03967102 -0.027208492 -0.065233454
000330 da 94 43 3d dd cd a8 bb b4 40 52 bc 08 a2 97 3c
       0.047749378 -0.005151494 -0.012832809 0.01850988
000340 66 8a 36 bd 35 17 5d bc eb 75 b3 3c e7 7d 29 3d
       -0.04456558 -0.0134943025 0.021906814 0.041379835
000350 92 1c 67 bd 40 1f 1e bd 31 1e 76 bd 0d 16 1f bd
       -0.05642373 -0.03860402 -0.060087387 -0.03883939
000360 0e ba e7 3c 6a 94 a6 3b 75 2d f5 3c 9f 95 71 3d
       0.02828696 0.0050836103 0.029928902 0.05898058
000370 fb 1a d8 3c 88 f6 ce 3c 79 d1 8e 3c 78 c5 89 3c
       0.026380053 0.02526404 0.017433869 0.016817793
000380 97 70 ae bc 8c ba 42 bd 8b a3 33 bd 30 c8 aa bc
       -0.021293921 -0.047541186 -0.04385714 -0.02084741
000390 b4 88 51 bd 67 9d 6f bd d7 0a 31 3d 8b 55 13 bd
       -0.05115576 -0.05849972 0.04322323 -0.035970252
0003a0 b6 0d 01 3d 56 34 5b 3d da dc 5c bd 24 75 82 3d
       0.031507216 0.05351671 -0.053921558 0.06369999
0003b0 43 9d c5 bc 15 f9 47 3d 61 00 39 3c ca 8c 54 3d
       -0.02412284 0.048821528 0.011291594 0.05189208
0003c0 2c b4 2e bc 82 62 e0 3c 58 52 b7 3c cd 74 60 3d
       -0.0106630735 0.027390722 0.022378132 0.05479889
0003d0 97 c9 46 bd 6c 5b 29 3d 45 d1 3c 3c a2 24 0d 3d
       -0.048532095 0.041346952 0.011524503 0.034458764
0003e0 e4 f3 9b bc 43 a8 59 bd d3 b0 5a bc 79 dc bf 3c
       -0.019037195 -0.053138983 -0.013347822 0.02342056
0003f0 be 37 77 bd c1 7b 9f bc 87 df 8f 3b cc c0 10 3d
       -0.060355894 -0.01946819 0.00439066 0.035340115

4.bias f4 [256]
000000 cf 4c 10 3d af 01 fd bc 5b 2f 46 bd d6 9e 42 3d
       0.0352295 -0.030884592 -0.048385005 0.04751476
000010 c3 66 2b bc a5 84 1a 3d 1a 37 18 bd 83 5f 99 bc
       -0.010461512 0.037724156 -0.037161924 -0.018722301
000020 d7 85 1e 3c cb 2a af bc 9d 4d 08 3d 42 68 52 3d
       0.009675465 -0.02138271 0.033277143 0.05136896
000030 e6 98 fd 3b 45 5b f1 3b 8a e9 13 bc ab 73 4e 3c
       0.007739174 0.0073656165 -0.009027848 0.01260082
000040 ad e0 f8 3c d4 58 57 3d f2 68 14 3d e0 72 23 bc
       0.030380571 0.052574947 0.036232896 -0.009976119
000050 c8 32 4c bc 1b e2 6d bd c9 86 01 bd 4f 96 61 bc
       -0.012463279 -0.05807696 -0.03162268 -0.0137687465
000060 cd c8 c1 3b d7 11 15 bc 13 1b 19 bd 43 80 fb 39
       0.00591383 -0.009098492 -0.037379336 0.00047970013
000070 c3 47 09 bd e2 07 5a 3c 4a 28 5a bd 85 0a db bc
       -0.033515703 0.0133075435 -0.05326108 -0.026738415
000080 1a 93 80 bd 22 96 d7 3c a2 d0 fb 3c cd 3a 02 3d
       -0.062780574 0.026316706 0.030739132 0.031794358
000090 e3 b0 c3 3c 72 95 c7 bb b9 e3 82 bd b3 27 1c 3d
       0.023888057 -0.0060908133 -0.06391091 0.038123798
0000a0 fc a2 62 bd 28 fb 21 bc f1 e8 b3 bc 1f 65 24 bd
       -0.055331215 -0.0098865405 -0.021961661 -0.0401355
0000b0 be 84 e7 3c 4b 82 34 bd 2b 24 8e 3c 5a 56 a6 3c
       0.028261539 -0.04406957 0.01735123 0.020304848
0000c0 b8 b2 2e 3c 7f 95 07 3d a0 da 52 bc 69 96 8b bd
       0.010662727 0.033101555 -0.012869507 -0.06815798
0000d0 74 04 50 3d b9 92 84 3c f1 de 21 3d 5c 9b 6b bc
       0.050785497 0.016183244 0.039519254 -0.014380302
0000e0 69 db 04 bc 9d 83 62 3d 6f 29 28 3c 2e 80 0f bc
       -0.008108952 0.055301297 0.010263785 -0.008758588
0000f0 67 11 24 bd fb fc 6e bc 7a 71 58 3d 25 77 85 bd
       -0.04005566 -0.014586682 0.052842595 -0.06516866
000100 e2 ee 6f 3d f1 69 9e bc 72 37 67 3d 9a a2 40 3d
       0.058577426 -0.019337626 0.05644936 0.04703007
000110 ee 53 29 3d e0 dd 23 3c 0a fe 1c 3d 23 8f 47 3d
       0.041339807 0.01000163 0.038328208 0.04872049
000120 79 af 1b 3d 73 c6 3e 3a 09 55 b8 3c 04 06 2f bd
       0.03800914 0.0007277496 0.022501485 -0.042730346
000130 7d 5a 45 3d fb 51 5e bd 4b 03 d8 bc f4 3f 67 bd
       0.048182 -0.0542774 -0.026368758 -0.056457475
000140 69 00 a3 bc c8 5c 64 3d 2c 13 3b bc 7f 2b 1e 3d
       -0.019897657 0.055752546 -0.011418145 0.0386157
000150 65 c5 c5 bc a2 10 7b 3d 9b 7a fd 3c 7c 3e 5e bc
       -0.024141977 0.06129516 0.030942252 -0.013564702
000160 0e 05 29 bd b6 94 79 bc 29 ba 37 3d 62 4b 6e 3d
       -0.041264586 -0.015233209 0.04485527 0.05817736
000170 02 ec 75 3d 7a bb 8e bc ce b0 50 bd b7 8c 84 bd
       0.060039528 -0.01742338 -0.050949864 -0.06472152
000180 97 59 61 3d 10 a0 4f bd 37 40 10 bd 05 12 4f 3c
       0.05501708 -0.050689757 -0.03521749 0.012638574
000190 e7 35 df 3b 5d bd 2a 3d 12 47 72 bd d8 29 d6 3c
       0.0068118456 0.041684497 -0.05914981 0.026143
0001a0 25 e0 e3 3c 79 55 1d bd a8 fb 80 bd 7a d2 74 3d
       0.027816841 -0.03841159 -0.062979996 0.05977104
0001b0 d0 ec 3a bb a3 f7 e6 bc f6 d7 3c bd d3 7c 68 bc
       -0.00285225 -0.028194254 -0.046104394 -0.014189917
0001c0 6a a8 43 bd cb 83 05 bd 50 6b 7d bd 1f 8e 7c 3d
       -0.047768034 -0.03259639 -0.06186992 0.061658975
0001d0 f8 18 21 3d 79 d6 43 bd 0b 50 8f 3b 35 10 49 3d
       0.039330453 -0.04781196 0.0043735555 0.04908772
0001e0 22 07 0e bd 8e 1a d4 3c 6e 96 69 3d 31 78 31 3d
       -0.03467477 0.025891569 0.057028227 0.043327514
0001f0 25 84 29 3d b0 08 d8 bc 39 0a 16 3d b7 a0 8d 3c
       0.04138579 -0.02637133 0.036630843 0.017288549
000200 75 ab a5 3b 45 05 4d 3c aa 04 b5 3a 74 c4 48 3c
       0.0050558397 0.012513463 0.0013810594 0.012253869
000210 52 4a 47 3d ed a8 d4 3c 32 c4 f0 bc 62 eb 34 bd
       0.04865486 0.025959456 -0.029390428 -0.04416979
000220 34 e9 24 3d 41 52 4c bd 45 20 9d b9 af 3d 20 bd
       0.040261462 -0.04988313 -0.00029969416 -0.039121326
000230 bb 02 0c 3d 3d 00 0a 3d 72 9f 9c 3b f7 18 4f bd
       0.03418229 0.033691633 0.0047797495 -0.050560918
000240 59 95 55 3a 9e 3f 4d ba 95 e8 a6 bc 88 f7 ff 39
       0.000814756 -0.0007829609 -0.020374576 0.00048821815
000250 d9 53 f5 bc 9d 1a 51 3d be 93 b7 b9 d4 cd 62 3d
       -0.029947208 0.05105077 -0.00035014556 0.055372074
000260 94 50 9f bc e0 52 a5 3c 7e f9 72 3d 67 9c d7 bc
       -0.019447602 0.02018112 0.059319966 -0.026319696
000270 5d 51 6b bd db 4b f7 3c 5f af 02 3c 55 77 59 bd
       -0.05745064 0.030187538 0.007976382 -0.05309232
000280 8a 3f a4 bc 0d 85 c7 3c 22 a7 21 bd e2 3c 52 bc
       -0.020049829 0.024355436 -0.03946603 -0.012831898
000290 01 ec 6e bd 28 0b 2c 3d 31 92 6b 3d 75 28 34 3d
       -0.05833054 0.042002827 0.057512466 0.043983895
0002a0 32 01 3d 3d b2 e8 4b bd 5c 26 7c 3d 4b 8d 7f bd
       0.046143718 -0.049782462 0.06156002 -0.062390607
0002b0 53 90 df bc de ab 62 bd 88 16 0d bd 3f 74 4b bd
       -0.027290499 -0.055339687 -0.034445316 -0.049671408
0002c0 d3 21 ef 3c f4 86 80 bc 0d 6b 71 3d 26 a6 9e 3c
       0.029190933 -0.01568935 0.058939982 0.019366335
0002d0 23 5a 78 3c 5e d2 54 3d e9 b8 c8 bc ce 7a 50 3c
       0.015158209 0.051958434 -0.024502235 0.012724591
0002e0 32 93 32 bc 70 ae dc bc 41 75 0d 3c a8 94 05 3d
       -0.010899352 -0.026938647 0.008633913 0.032612473
0002f0 8e 05 15 bc c2 ef 47 bc df e7 0d bd 13 e7 4f bc
       -0.009095563 -0.012203159 -0.034644958 -0.01268937
000300 2a 24 33 bd ce a4 38 bd 96 fd 83 3d 88 1b f9 3c
       -0.04373566 -0.045079045 0.06444852 0.030408636
000310 34 4b 82 3c b2 4d 8a bb 94 21 35 bc 40 1a 85 bc
       0.015905 -0.004220688 -0.011055369 -0.016247869
000320 ee d7 59 bd 15 25 1c 3d cc 64 ad bc 8e 70 ed bc
       -0.053184442 0.0381213 -0.021166228 -0.028984334
000330 3f 16 13 3d 5b f8 8e bc 0f 92 3f 3d bc 78 58 3d
       0.035909887 -0.01745241 0.04677015 0.052849516
000340 ed 49 45 3d 17 ba eb bc 5d 8d db 3c e8 92 29 bd
       0.048166204 -0.028775258 0.026800806 -0.041399866
000350 1a 4b 68 ba f1 ff 3f bc ce d0 54 3d 83 aa 50 3d
       -0.00088612887 -0.011718736 0.051956944 0.050943863
000360 1f a0 b4 bb 98 49 69 bd c7 ac e1 3b ff 83 d5 3c
       -0.005512252 -0.05695495 0.0068870517 0.026063917
000370 c6 da 52 bd 8b 6b 88 bd d5 96 f9 bc ba 55 c8 bc
       -0.05147817 -0.06661137 -0.03046743 -0.02445494
000380 a7 e1 30 bd b6 ba 5f bd 55 5b 26 3d 15 db d5 bc
       -0.04318395 -0.05462142 0.040614445 -0.026105443
000390 f1 86 db 3c 79 c4 00 3b 19 97 1b bc 1e 50 20 bc
       0.026797744 0.0019648357 -0.009496474 -0.009784726
0003a0 91 02 3a bc 5d 86 6d bd c3 d3 4f 3d c0 c9 02 bd
       -0.011353151 -0.057989467 0.05073906 -0.031930685
0003b0 4b d2 9e 3c 57 04 3e bd 36 4e 1c 3c 20 c5 34 bd
       0.019387385 -0.046390858 0.009540131 -0.044133306
0003c0 df c4 92 bc c3 9c 19 3d 66 d1 75 bd cf 55 34 ba
       -0.017916141 0.037503015 -0.06001415 -0.00068792416
0003d0 11 8c 4d 3d 74 ce 28 bd fa 8d 4b bd 91 d0 98 bc
       0.050182406 -0.041212514 -0.049695946 -0.01865414
0003e0 ad 98 81 3b 14 a1 ad 3c a9 6f 21 bb 7d d0 c1 3c
       0.003954968 0.021194972 -0.0024633205 0.023658985
0003f0 7d a0 5d bc 8f 41 7f 3c 42 4e 56 3c 46 f5 f5 3b
       -0.013527033 0.015579595 0.013080182 0.0075060455

5.weight f4 [256]
000000 29 87 80 3f be a7 7f 3f 89 ca 80 3f 6c 86 7e 3f
       1.0041248 0.9986533 1.0061809 0.9942386
000010 53 cd 80 3f 5f 65 80 3f 8e 98 80 3f 3f 94 80 3f
       1.006266 1.0030936 1.0046556 1.0045241
000020 92 d0 7e 3f 2e 5b 80 3f 33 ae 80 3f b8 aa 80 3f
       0.99537003 1.0027826 1.0053161 1.0052099
000030 eb 53 80 3f b5 73 80 3f 3c 06 7f 3f 37 20 80 3f
       1.002561 1.0035311 0.9961889 1.0009831
000040 db 2e 80 3f 18 98 80 3f b1 01 7f 3f ed e0 7e 3f
       1.0014299 1.0046415 0.99611956 0.9956196
000050 4f d8 7e 3f 84 e0 7f 3f 1d 82 80 3f ca 39 80 3f
       0.9954881 0.9995196 1.0039707 1.0017636
000060 f4 b0 7f 3f 0d 93 80 3f 20 3b 80 3f 36 88 80 3f
       0.99879384 1.0044876 1.0018044 1.0041568
000070 f6 58 80 3f 66 a0 7e 3f 8a 6d 7f 3f 85 1a 7f 3f
       1.0027149 0.994635 0.9977652 0.9964984
000080 e5 59 7f 3f 8c 7a 80 3f 81 5e 7f 3f c2 2a 7f 3f
       0.99746543 1.0037398 0.99753577 0.9967462
000090 9a 26 7f 3f 36 69 80 3f c0 a6 80 3f c6 4b 80 3f
       0.99668276 1.0032108 1.0050888 1.0023124
0000a0 47 c1 80 3f 65 8b 80 3f 34 d9 7e 3f c8 48 7f 3f
       1.0058984 1.004254 0.99550176 0.9972043
0000b0 f7 4a 80 3f ed 3b 80 3f 86 98 80 3f b2 6c 80 3f
       1.0022877 1.0018288 1.0046546 1.0033171
0000c0 0b 74 80 3f 5d be 7f 3f ca 17 7f 3f 32 be 80 3f
       1.0035414 0.99899846 0.99645674 1.0058043
0000d0 c3 82 7f 3f 69 3f 80 3f b2 01 7f 3f 3f cc 7f 3f
       0.998089 1.0019351 0.9961196 0.9992103
0000e0 f0 53 80 3f c8 91 80 3f 5d da 7f 3f 23 a6 7f 3f
       1.0025616 1.0044489 0.9994257 0.9986288
0000f0 d7 28 7f 3f a7 d9 7f 3f 37 77 80 3f c1 26 7f 3f
       0.9967169 0.99941486 1.0036381 0.9966851
000100 b7 73 7f 3f 67 e4 7f 3f 03 ba 80 3f 63 37 7f 3f
       0.9978594 0.9995789 1.0056766 0.9969389
000110 8b 5e 7f 3f d2 7f 7e 3f c1 dd 7e 3f 37 2a 7f 3f
       0.99753636 0.9941379 0.9955712 0.9967379
000120 b5 bc 7e 3f 5e fd 7f 3f 66 79 80 3f 7c ab 80 3f
       0.99506694 0.9999598 1.0037048 1.0052333
000130 a2 e2 7f 3f 41 96 80 3f 38 8d 7e 3f 18 0f 7f 3f
       0.9995519 1.0045854 0.9943423 0.99632406
000140 b7 d4 7e 3f 1e 80 7f 3f 12 54 7f 3f ba ac 80 3f
       0.9954333 0.99804866 0.99737656 1.0052712
000150 10 84 80 3f 65 83 7e 3f e4 4e 80 3f b8 48 80 3f
       1.0040302 0.9941924 1.0024076 1.0022192
000160 6f 2c 80 3f 12 02 7f 3f a0 04 7f 3f 32 02 80 3f
       1.001356 0.99612534 0.9961643 1.000067
000170 fa ad 7e 3f 8e 63 7f 3f 72 c1 7f 3f b2 95 80 3f
       0.9948422 0.99761283 0.9990455 1.0045683
000180 97 e3 7f 3f 46 55 7f 3f 26 0f 80 3f eb 04 80 3f
       0.9995665 0.9973949 1.0004623 1.0001501
000190 1b 44 80 3f 0c 8b 80 3f 0b 40 7f 3f 62 b9 7e 3f
       1.0020784 1.0042434 0.99707097 0.9950162
0001a0 19 ab 80 3f 93 e3 7e 3f 26 1d 7f 3f 53 5d 7e 3f
       1.0052215 0.99566 0.9965385 0.9936115
0001b0 30 82 80 3f 98 1b 80 3f cc 61 80 3f 12 9d 7e 3f
       1.003973 1.0008421 1.0029845 0.9945842
0001c0 40 69 80 3f d6 2b 80 3f d4 d9 7e 3f 64 27 80 3f
       1.003212 1.0013378 0.9955113 1.0012021
0001d0 9a 8e 80 3f 7b ff 7f 3f 89 f5 7e 3f ef 42 7f 3f
       1.0043519 0.9999921 0.99593407 0.9971151
0001e0 1a 8f 7f 3f 95 38 80 3f 97 4d 80 3f df c9 7f 3f
       0.9982773 1.0017267 1.0023679 0.99917406
0001f0 bf 77 7e 3f 8b 48 7f 3f bb cc 7e 3f a3 05 80 3f
       0.9940147 0.99720067 0.99531144 1.000172
000200 d0 61 80 3f d3 3c 7f 3f 90 5a 80 3f 37 cd 80 3f
       1.002985 0.99702185 1.0027637 1.0062627
000210 d9 cd 7f 3f 62 62 7f 3f b4 b6 7f 3f f7 79 80 3f
       0.99923474 0.99759495 0.9988816 1.0037221
000220 5c 1d 7f 3f bd b4 7e 3f cb a7 80 3f 98 e7 7e 3f
       0.99654174 0.99494535 1.0051206 0.99572134
000230 f9 0d 80 3f 29 e5 7e 3f fe 92 7e 3f 76 de 7e 3f
       1.0004264 0.9956842 0.9944304 0.995582
000240 91 20 80 3f 7c 97 7e 3f ef 9c 7f 3f 90 cd 7e 3f
       1.0009938 0.99449897 0.99848837 0.99532413
000250 d9 c5 7e 3f 64 41 7f 3f 9e 7a 7f 3f ff 96 80 3f
       0.9952064 0.99709153 0.99796474 1.004608
000260 cf 33 80 3f de 5a 80 3f b6 73 80 3f c1 61 7e 3f
       1.0015811 1.002773 1.0035312 0.9936791
000270 4b 80 7e 3f 92 3c 7f 3f 0f 33 80 3f 44 1a 80 3f
       0.9941451 0.997018 1.0015582 1.0008016
000280 f0 72 80 3f b7 ee 7f 3f 35 6e 7f 3f a5 fe 7e 3f
       1.0035076 0.99973625 0.9977754 0.99607307
000290 cb 5f 80 3f 87 f3 7e 3f 79 fc 7e 3f 9d a3 7e 3f
       1.0029234 0.99590343 0.9960399 0.99468404
0002a0 65 83 7f 3f d0 45 80 3f 2a 51 80 3f da c3 7f 3f
       0.9980987 1.0021305 1.0024769 0.9990822
0002b0 f7 59 80 3f 38 a8 7e 3f 58 eb 7e 3f 1c 4f 7f 3f
       1.0027455 0.9947543 0.99577856 0.99730086
0002c0 97 14 7f 3f 53 1e 80 3f 6b 92 7f 3f 0c b8 80 3f
       0.9964079 1.0009254 0.9983279 1.0056167
0002d0 5f 0d 80 3f dd 45 80 3f bc 22 80 3f 8e 4f 7f 3f
       1.000408 1.002132 1.00106 0.99730766
0002e0 8c a0 80 3f a9 c6 7f 3f 41 9e 80 3f e3 f9 7e 3f
       1.0048995 0.99912506 1.0048295 0.99600047
0002f0 c9 7d 7f 3f 37 62 7e 3f c7 30 80 3f 6f 7f 80 3f
       0.9980131 0.99368614 1.0014886 1.003889
000300 0a cb 7e 3f 38 1e 7f 3f 0f ca 80 3f ad 0d 80 3f
       0.99528563 0.99655485 1.0061663 1.0004174
000310 ad cb 7e 3f ac d6 7e 3f 81 a4 80 3f 09 8b 80 3f
       0.99529535 0.99546313 1.0050203 1.004243
000320 85 34 80 3f 8c 80 80 3f f2 19 7f 3f bb 64 7e 3f
       1.0016028 1.0039229 0.99648964 0.9937245
000330 3d fa 7e 3f f7 54 80 3f 42 ae 7e 3f 3c 4d 80 3f
       0.99600583 1.0025929 0.99484646 1.002357
000340 dd c3 7e 3f 44 6b 80 3f dc 86 7f 3f 1f a2 7e 3f
       0.99517614 1.0032735 0.99815154 0.9946613
000350 53 39 7f 3f aa ce 80 3f 72 d9 7e 3f bf f6 7e 3f
       0.99696845 1.0063069 0.99550545 0.99595255
000360 95 d2 80 3f 95 71 7e 3f d9 7d 7f 3f 04 8c 80 3f
       1.0064265 0.9939206 0.99801403 1.0042729
000370 6e c4 80 3f 06 c6 7e 3f 32 d0 80 3f ea 3d 7f 3f
       1.0059946 0.9952091 1.0063536 0.9970385
000380 74 b0 7f 3f 71 a3 80 3f 86 40 7f 3f 86 2b 7f 3f
       0.9987862 1.0049878 0.9970783 0.99675786
000390 e1 b0 80 3f f9 02 80 3f fe 6f 80 3f 66 ff 7f 3f
       1.0053979 1.0000907 1.0034177 0.9999908
0003a0 f6 0a 80 3f 62 47 80 3f c8 5e 80 3f f9 d7 7e 3f
       1.0003345 1.0021784 1.0028925 0.995483
0003b0 18 3b 80 3f 2f 77 80 3f bd 09 80 3f e8 49 7f 3f
       1.0018034 1.0036372 1.0002972 0.99722147
0003c0 8b 99 7e 3f 0d b6 80 3f 87 02 7f 3f cd 00 7f 3f
       0.9945304 1.0055557 0.9961323 0.99610597
0003d0 af 0f 7f 3f 29 a2 80 3f 08 13 80 3f ba 88 80 3f
       0.99633306 1.0049487 1.0005808 1.0041726
0003e0 c7 c9 7f 3f c9 ac 7e 3f e6 ac 7f 3f 1e 87 80 3f
       0.9991726 0.994824 0.998732 1.0041234
0003f0 a3 ba 80 3f d2 e7 7e 3f 55 0d 80 3f 83 70 80 3f
       1.0056957 0.9957248 1.0004069 1.0034336
