MACHINE_LEARNING/checkpoints/o3_model_epoch3.pt (torch, 419225 bytes, 13 tensors)

0.weight f4 [256, 12]
00000000: 3a8b 173e 60f1 2f3e 428b 25bd 69bd 19bd
00000010: ccaf 87bd 4f9c db3b 2a55 293d 563b 953a
00000020: 4239 413e fbe3 443e 3817 833c 77f4 e13d
00000030: d7b3 503e 8a2b 653e 124a 0bbe 5f99 f3bd
00000040: 3691 933d 177e 84be b7fd f03d 87a8 94bc
00000050: 5c5e 0ebe e1c1 96bd b86e 41be 6a0c cbbd
00000060: 16aa 633c de28 593e 1b14 1a3d df5f 293e
00000070: b5b8 7cbe d20e 0e3d 7f18 083e e23e 543e
00000080: 8c16 d9bd da73 89be c482 3fbe 22f0 43be
00000090: a9e9 36be feaf 07be 5c13 78be 9712 5d3e
000000a0: 4fc4 d23d 2a77 213e 9f32 903e e00a 0abe
000000b0: 4f01 b4bd f262 34bd e4ca 79be 1f3b 5fbe
000000c0: 6926 253d 7fda 21be 2cf1 8d3e 567a 8fbe
000000d0: ac85 393e 780d 06bd 4f3c 6fbe 5a9f e03d
000000e0: 8664 1b3e 16dc 5c3a ae78 733e 8761 61bc
000000f0: 7261 c4bb 993a 03be d322 9f3d a0ec fbbd
00000100: 8fed 8c3d 7f27 643e 1e52 2fbe b2c5 0f3e
00000110: d02b 7f3e 70ff 603c 98a1 50be eaad 3dbe
00000120: 38e2 0d3d 0b6a 08be a402 2d3e 40d9 a8bd
00000130: 7735 52be 0355 5e3e d4c2 d4bd bd1e 12bd
00000140: bb80 c7ba 249e e13c 2a40 88bd 6c13 7a3e
00000150: a014 4cbe f206 f8bd fa2c 08be 0a42 e43b
00000160: 2e32 5bbe c712 81be 9e2f 7abe 79b6 83be
00000170: c84c 973d 65f9 8f3e 3bf1 973d 486f 25be
00000180: 1b80 623e 97a3 593e 6e42 c4bd 9484 4b3e
00000190: 30b2 1b3e ec82 393e 69b3 863d 08ef 81be
000001a0: d1a8 c8ba 4b46 da3d c08b 623e cf2b 0e3e
000001b0: 27fd 33be 5622 71be ee07 01bd dbbb 0c3c
000001c0: ba51 883e b671 93be 8fe3 823e 92d2 85bd
000001d0: b465 78be aa6b 81be 20f6 343d 5a01 ce3d
000001e0: ec4c 893e 9864 acbc bdd1 573d cfc0 3b3e
000001f0: ef50 53be f76d d73d 9779 723d 0919 9ebb
00000200: 9d27 863d 7a3d 00be 3d4c 40be aed2 cebd
00000210: 56c5 67be 3063 8c3e 772a 1fbe c41f 843e
00000220: d150 8f3e 85f3 553e c291 38bd 3e8f 643e
00000230: fcca 55be fd98 813d e892 0ebd 279f 25bd
00000240: 6065 2fbe 74ab 8e3e 8ea5 0abe 0a30 f53d
00000250: 9c18 3bbe a1f0 473e 5daa 3f3d f76b 4e3e
00000260: 845c d9bd 4bf2 05be 77a8 803e 31e7 7bbe
00000270: 3a63 bfbd afc9 16bc f967 91be 0da5 873e
00000280: e840 08be 0a7a 1e3d 1f34 073e d910 47be
00000290: 2f87 38be 2beb 7d3e d452 0fbe 5bf6 373d
000002a0: 12b0 48bd de34 3cbe 03b0 31be aba1 553e
000002b0: d413 b13b 73fa 04be 2ee6 8ebc 5b12 6ebe
000002c0: c18e 89be c1de 7abc 1495 8ebd 0284 a13d
000002d0: 9c39 9a3d 5706 0e3e 9aaf 083e a83a 5fbd
000002e0: f813 983d 85c7 ab3d e7d0 04be fa33 073c
000002f0: 2ce5 bdbd a741 2e3e 39fd 873e 9a38 773e
00000300: b2f1 303e 1727 b5bb f8cc 72bc f336 c53d
00000310: 91b7 6f3e 35d4 8fbd 9566 5e3e 8934 16be
00000320: 8400 cfbc bb61 203e d39d 733e e38e 2c3d
00000330: 69a8 64bd 648e 8d3e 9b2d a0bd bfbc 093e
00000340: 2f44 293e 98c7 093d 6644 8a3e 7a2c e0bd
00000350: d00b 81be be66 a7bd 359d 613e 177b 40bd
00000360: 2130 b63d 78a3 343e bb0c e5bc ed8a 673e
00000370: d3d5 163d 8289 84be 93a9 14bd e5e3 863e
00000380: f19d 4cbe eedf 263e 03d1 09be 5305 c93d
00000390: ddc7 68be cd56 f33d 23a8 73bd 4310 84bd
000003a0: a71a 3f3d 1ee6 853e 19b0 f5bd 86ab 5a3d
000003b0: 906c 33ba 88d0 63be 7c6d 4bbd 1870 3fbe
000003c0: 8cbc c33b 591b 72be 148e 673e 2e2d 50bc
000003d0: 3365 27be cf89 c4bc aaab 20be fee6 d93d
000003e0: f59c 82bd c715 50bd 3a3c 8abe 81bb 81bd
000003f0: 7941 603e 3181 7cbe 75bb 93be 78f1 debd
0.14799204 0.17181921 -0.04041601 -0.03753415 -0.066253275 0.006701983 0.041340984 0.0011385481
0.18869498 0.19227593 0.016002283 0.11032956 0.20381103 0.2237989 -0.13602474 -0.118944876
0.07205431 -0.2587745 0.11767142 -0.018146766 -0.13903183 -0.07361198 -0.18889892 -0.09914477
0.013895532 0.21206996 0.03761683 0.16540478 -0.24679835 0.034682103 0.13290595 0.20727113
-0.106000036 -0.268462 -0.18702227 -0.19134572 -0.17862572 -0.1325073 -0.24226135 0.21589123
0.10291349 0.15768114 0.2816362 -0.13480711 -0.08789312 -0.044039674 -0.24393803 -0.21799897
0.040319834 -0.15806006 0.27723062 -0.28023022 0.18117398 -0.03272769 -0.2336285 0.10967894
0.15175065 0.00084251293 0.23776504 -0.0137561625 -0.0059930617 -0.12815322 0.07770314 -0.12300992
0.06881248 0.22280692 -0.17121169 0.14040259 0.24919057 0.013732776 -0.20374143 -0.18523374
0.034639567 -0.13321702 0.16895539 -0.08244562 -0.20528208 0.21712117 -0.10388723 -0.035673846
-0.001522086 0.027541228 -0.06652863 0.24421471 -0.19929743 -0.121107 -0.13298407 0.0069658803
-0.21405861 -0.25209638 -0.24432227 -0.25725153 0.07387692 0.2811996 0.07419058 -0.16155732
0.22119181 0.21253811 -0.09582983 0.19874793 0.15204692 0.18116349 0.065771885 -0.2537768
-0.00153091 0.106579386 0.22123623 0.13883899 -0.17577039 -0.23548254 -0.031501703 0.00858971
0.26624852 -0.28797692 0.25564238 -0.06534304 -0.24257547 -0.25277454 0.044180036 0.100588515
0.268165 -0.02104406 0.052690256 0.1833527 -0.20636342 0.10519021 0.05919799 -0.0048247618
0.065505244 -0.12523451 -0.18779083 -0.10098778 -0.22633871 0.27419424 -0.15543543 0.25805485
0.27991346 0.20893677 -0.04506088 0.22320268 -0.20878214 0.06328008 -0.03480807 -0.040434983
-0.17128515 0.27865183 -0.13539717 0.11972053 -0.18271106 0.19525386 0.04679333 0.20158373
-0.10613349 -0.13080709 0.25128528 -0.24599911 -0.09345098 -0.009203359 -0.28399637 0.2649311
-0.1330601 0.038690604 0.13203476 -0.1944002 -0.18020318 0.2479674 -0.1399644 0.044912677
-0.04899604 -0.18379542 -0.173523 0.20862453 0.005403975 -0.12986164 -0.017443743 -0.2324919
-0.26866725 -0.015311898 -0.06962028 0.078865066 0.07530519 0.13869606 0.13348237 -0.0544993
0.07425684 0.08387665 -0.12970315 0.008252138 -0.09272227 0.17017232 0.2656038 0.24142686
0.172797 -0.0055283415 -0.014819376 0.09629621 0.23409869 -0.07022897 0.2171882 -0.14668478
-0.0252688 0.15662281 0.23790674 0.042128455 -0.05582467 0.27647698 -0.078211986 0.13450907
0.16529916 0.033637613 0.2700531 -0.10945983 -0.25204325 -0.081738934 0.22032626 -0.046992388
0.088958986 0.17640483 -0.027960172 0.2261159 0.036825012 -0.2588616 -0.03629453 0.26345745
-0.19982125 0.1629636 -0.13458638 0.09815469 -0.22732492 0.1188179 -0.05948652 -0.06448414
0.046656277 0.26152128 -0.119964786 0.053386234 -0.0006844485 -0.22247517 -0.04966496 -0.18695104
0.0059734043 -0.23643245 0.22612792 -0.012706084 -0.16347198 -0.023991494 -0.15690485 0.106397614
-0.063775934 -0.05080202 -0.26999074 -0.06334592 0.21899976 -0.24658658 -0.28853956 -0.108859

0.bias f4 [256]
00000000: b2da c6bd 9c90 823e a4f4 c0bd bf3e ddbc
00000010: 8fbb 84bd fbda 58be 0cda 723e bfe1 823e
00000020: e7c7 67be 9ec3 95bd f1d9 013e 53a7 943d
00000030: a224 1ebe 5d52 29be ea71 01be 8849 233d
00000040: 73d7 91be 60fe 003d 1ac5 20be dc43 93be
00000050: 0ad2 553e 5ee2 45bd e9f7 ab3d cdf4 58be
00000060: f1bc 34be 1d4e 8abe 46ed e53d 237d d53d
00000070: 3f6e 8a3d 5338 87be 1069 713e 25c0 88bd
00000080: 88b0 373d 464a bbbd 3d18 e63c 2cc1 b33d
00000090: 9a63 8abe d377 683e 81ea 9bbd 400d 333d
000000a0: 0cee 3f3d c8be 84bb 6671 333e 317d 853e
000000b0: 7e03 483e 13e6 163e d796 883e 262f 98bc
000000c0: b01c 213b ed92 5d3e 156b 7e3e 29cf c93c
000000d0: 9180 933d ffcf 8dbe c6d3 3fbe 3a17 1b3e
000000e0: cf09 413e ce79 e1bd e39d 17be 184d 4b3e
000000f0: 8b03 8fbe 3995 613e c833 8d3e ef2f 43be
00000100: 4f33 153e ad7e a9bd 65a2 4c3e 7289 43be
00000110: 79a3 4f3e 0e02 21be 885a f9bd 2152 2abe
00000120: 8a95 133e 3cf8 763d 143a 5ebc d852 79be
00000130: 3f7a 8cbe 4a18 063e 1356 7ebe 6481 19bd
00000140: fccf 803d 8052 143d 9a66 7d3e 05e3 163e
00000150: eb36 98bc 34de 873d 182f edbd bf0e ed3d
00000160: 590b 4ebe 8733 f2bd 51c7 7e3e 7976 8e3d
00000170: 4bc8 5a3d dc6a 3c3e 4ff8 6dbe 466e bb3c
00000180: 6605 8cbe e296 4abe a392 203e 0b2d dbbd
00000190: 37f4 48be c0ec 8fbd fd20 443e 7256 6d3e
000001a0: 0745 76bd b4e4 00be 5e43 6b3e 0528 4b3e
000001b0: 171a fabd 9fcf 2d3e a4cc 72be 04b8 993d
000001c0: fe34 80be d936 70be 2731 35be 313d 87be
000001d0: 8c60 cf3c 1a52 8c3d 8225 043e fb24 653e
000001e0: 2196 91be 3a90 dfbd 4765 96bd d6bc 313c
000001f0: ddaf 73be 2b41 aebd 646d 403c 5dd4 4a3c
00000200: 7011 78be 36f0 edbd b95b 77be 6679 0a3e
00000210: 9a88 803e ee20 6d3e cead c9bc 9977 443e
00000220: 4a28 1cbe d83d 9d3d 6513 833e d2fa 063e
00000230: 1c23 18be 44bb 3cbe d4b4 70be 19ba bfbc
00000240: 30d3 803c f266 c9bb 955d 9e3d 2ae4 88be
00000250: 2dc2 4e3e 0a30 6f3e fe15 133e 17b3 44bc
00000260: 688f 8b3e 390e 55bd caf5 8fbd 308f 963c
00000270: e615 7a3b 95dc ac3d 4f64 663d 4ebf a1bd
00000280: 4fa0 6b3d 4360 1fbe 5912 7abe e4b4 64be
00000290: 30bf a7bd 82fc f3bd 9cd2 6a3d 1a4f f23d
000002a0: 925f 6f3e 8155 893e 0bf3 88be d290 52be
000002b0: 2daf 7d3e bd96 fabd a389 1bbe ff0f 71bd
000002c0: 12fd 613e a1dd 49be 4aa1 213e c773 8bbe
000002d0: d22f 573e 46a5 48be 07be 76be 8bb0 3b3e
000002e0: 4584 6e3e 0169 54be 4fb8 1c3e e617 433e
000002f0: 53e8 88be d989 16be 28db acbd 5ad7 a43d
00000300: ca9a 473e 791e f03c d61e eb3c 7dbb fd3c
00000310: 38d5 7a3e 2e60 263e 4ce0 d03d 1da9 29be
00000320: c342 82bd da30 88be 9829 113e 6f63 473e
00000330: f9a5 ecbd c240 70be 3dea 8ebe d487 353d
00000340: 3ed9 0abe 9c7b 7cbc 2d92 373c 2ba4 53be
00000350: 8bc5 233e 1307 913e ab9b 38be 9a55 863d
00000360: dbb5 283e 03a0 39be 2b82 9d3d a58c 86be
00000370: 2e9f 7cbd 3234 8b3e 0f46 4dbc f893 89be
00000380: fd5a 9d3c 7915 a4bd 33ff 4d3e ec45 d73d
00000390: 264c 5d3e 218e d33c aa68 39be 4eef 673e
000003a0: c9b3 083d 48a6 8dbe 06b4 603e b2ec 8dbe
000003b0: 8060 9e3d 04a7 6bbd a13c 62be 7680 6f3d
000003c0: ccbb c4bc e48f 58be feaa 0cbe d15e 513d
000003d0: b0ae 82be 206e 573e ead1 19bd d884 3a3e
000003e0: d0ea f63d 75d1 62be d54b 873e c7ac 91be
000003f0: 7637 d23d dbc0 3e3e 4489 aabd e888 3dbe
-0.097096816 0.25500953 -0.094216615 -0.027007459 -0.064810865 -0.21177284 0.23715991 0.25562856
-0.2263485 -0.07312702 0.12680794 0.07258477 -0.15443662 -0.16535325 -0.12641111 0.039865047
-0.28484687 0.03149259 -0.15700188 -0.2876271 0.20880905 -0.048311584 0.083968945 -0.21187134
-0.176502 -0.2701272 0.11226897 0.104242586 0.06759309 -0.2641016 0.23575234 -0.06677274
0.044846088 -0.09145026 0.02808773 0.08777079 -0.27029115 0.2270196 -0.076130874 0.043713808
0.04685788 -0.004051063 0.17523727 0.26072076 0.19532582 0.14736204 0.26677582 -0.01857717
0.002458375 0.21638079 0.24845536 0.024634914 0.072022565 -0.2769775 -0.18733129 0.15145579
0.18851398 -0.110095605 -0.14806323 0.19853628 -0.2793239 0.2202958 0.27578568 -0.19061254
0.14570354 -0.082761146 0.19983824 -0.190954 0.20277204 -0.1572344 -0.121754706 -0.16632892
0.14412513 0.06029533 -0.013563652 -0.24348009 -0.27437016 0.13095203 -0.24837522 -0.037476912
0.0628967 0.03621149 0.2474617 0.14735039 -0.018580874 0.06634179 -0.11581248 0.11575078
-0.20121516 -0.11826234 0.2488072 0.069561906 0.05341367 0.18400139 -0.23239253 0.02287973
-0.2734787 -0.1978412 0.15680937 -0.10701951 -0.1962441 -0.07027578 0.19153209 0.23177508
-0.060124423 -0.12587243 0.22974917 0.19839485 -0.122120075 0.16973732 -0.23710877 0.07505801
-0.2504043 -0.23458423 -0.17694531 -0.26413873 0.025314592 0.06851597 0.12904933 0.22377388
-0.28434852 -0.10916181 -0.07343536 0.010848245 -0.23797555 -0.085085236 0.011744831 0.012379733
-0.24225402 -0.11618082 -0.24156083 0.13522872 0.2510422 0.23157093 -0.02461901 0.19186248
-0.15249744 0.076778114 0.25600734 0.13181618 -0.14857143 -0.18430811 -0.2350648 -0.023404168
0.015725702 -0.0061463052 0.07732693 -0.26736575 0.2019126 0.23358169 0.14363858 -0.012005589
0.27257848 -0.052015517 -0.070293024 0.018378824 0.0038160025 0.0844051 0.056248005 -0.078978166
0.05752593 -0.15564065 -0.24421062 -0.2233463 -0.08190763 -0.119133964 0.05732976 0.11831494
0.23376301 0.26823047 -0.26747927 -0.20563057 0.24773856 -0.12235782 -0.15189223 -0.058853146
0.22069195 -0.19713451 0.15784183 -0.2723677 0.21014336 -0.19594297 -0.24095927 0.18329065
0.23292644 -0.20743181 0.15304683 0.19052085 -0.2673975 -0.14701022 -0.08440238 0.080488876
0.19492641 0.029311405 0.028701227 0.03097319 0.24495399 0.16247627 0.10199031 -0.16568418
-0.0636039 -0.2659977 0.14176023 0.19471525 -0.11555094 -0.23462203 -0.27913085 0.04431899
-0.13559434 -0.01541033 0.011204285 -0.20668094 0.15993325 0.2832571 -0.18028133 0.06559296
0.16475622 -0.18127446 0.07690843 -0.26279178 -0.061675243 0.2718826 -0.01252891 -0.26870704
0.019208426 -0.08011908 0.20116882 0.105113834 0.2161108 0.025824608 -0.18106332 0.22649881
0.03337458 -0.27665925 0.21943673 -0.27719647 0.0773325 -0.057532325 -0.2209344 0.05847212
-0.02401533 -0.2114864 -0.13737103 0.051115815 -0.255239 0.21038103 -0.037553705 0.18214738
0.12056506 -0.22150214 0.26425043 -0.2845213 0.102644846 0.18628256 -0.083269626 -0.18509257

1.weight f4 [256]
00000000: 19ca 803f 751b 803f b308 813f a089 7d3f
00000010: d299 803f 03e5 803f 9a97 7e3f e87c 803f
00000020: 0130 813f ab73 803f f70b 7e3f f1ec 7e3f
00000030: 9555 803f b8d6 803f 1db3 803f 06e8 803f
00000040: 1717 803f 8178 803f 75f1 7e3f a009 813f
00000050: 728e 803f 8d37 7e3f 39b3 803f e94d 7d3f
00000060: 469a 803f 14a4 7f3f 98b7 7f3f 5d77 7f3f
00000070: 0ca3 803f 527a 7e3f bbbd 7f3f c5c5 803f
00000080: 1a2d 7f3f aa7e 7e3f 0a91 803f 9414 813f
00000090: cbb2 7e3f 940f 7d3f e6a5 803f 80ea 803f
000000a0: 9f54 803f e1a5 7f3f 1277 803f 3016 813f
000000b0: a3ee 803f eabb 803f 5d92 803f 514b 803f
000000c0: 3203 7f3f c517 7f3f ab33 803f e66e 7e3f
000000d0: d769 7f3f 4336 7f3f db4d 7e3f 0f0a 803f
000000e0: ca66 7e3f 5c66 7e3f ebf4 803f ff74 7e3f
000000f0: 124a 7e3f 3428 7e3f fda8 7e3f a464 803f
00000100: f27d 803f ba4e 813f 3174 813f 23f6 7e3f
00000110: 33af 803f f64f 7f3f cd7c 803f e410 7e3f
00000120: d581 7c3f 7a3d 7e3f 5320 813f 56fe 803f
00000130: d432 803f b2e7 803f d38b 7f3f c28a 7f3f
00000140: 7905 803f fc50 7e3f 525f 7e3f a2ff 7e3f
00000150: 197e 7f3f 468e 803f a635 7e3f 2606 7e3f
00000160: 7ff8 803f a1db 7e3f 09eb 7f3f ea4b 803f
00000170: d745 813f 52f5 7f3f dfcf 7f3f 154d 7f3f
00000180: 0ac7 7f3f 781f 813f 00d0 803f 38f6 7c3f
00000190: d95b 7e3f e9f4 803f d6f3 7d3f 5e2d 7f3f
000001a0: 12b0 803f 2b04 7d3f f9f3 803f bed9 7e3f
000001b0: 24ad 803f 4c35 7e3f 1f10 7e3f 26f5 803f
000001c0: ebd3 803f 560d 813f b189 7d3f 66ff 7d3f
000001d0: 6781 803f 23ea 803f 2e0f 7e3f 64c5 803f
000001e0: e7ba 7d3f be43 813f 6e34 803f 05a3 803f
000001f0: c6a9 7e3f 0991 803f 46c7 803f 24e0 7d3f
00000200: c0d1 7e3f 8226 813f ab3b 813f a8b9 7e3f
00000210: 7a55 813f 0c68 7e3f 3b9e 803f 61be 803f
00000220: 6fbc 7d3f 4941 803f 7bd0 803f 19f0 7d3f
00000230: 140b 7f3f 7387 7f3f 23b6 803f 804d 7e3f
00000240: 9451 7e3f 687a 7e3f 1e0d 813f 84a4 7f3f
00000250: d8fe 7d3f 22a4 7f3f 42fe 803f 8eb1 803f
00000260: ee47 7e3f b3d5 803f 5ac4 7c3f 9c13 803f
00000270: 12c1 803f 6024 813f 240a 7e3f a9e0 803f
00000280: 607e 7e3f 97f9 7f3f a101 803f e5ef 7e3f
00000290: 98e4 803f cdfe 803f 9a3d 813f b552 803f
000002a0: 71ac 803f 2f54 7f3f 9dcf 7e3f da82 803f
000002b0: 9a15 7f3f d410 803f 85a8 803f 2c45 803f
000002c0: 50e4 7e3f 3603 813f 24d9 803f 44a5 803f
000002d0: 184e 813f 890c 7e3f e29f 7f3f aedd 7e3f
000002e0: c484 803f a016 803f dc32 803f d037 803f
000002f0: ce33 7f3f dbcb 803f 2807 803f 9f97 803f
00000300: 967f 7f3f 586f 7f3f 8913 803f 90ca 803f
00000310: a367 813f 1073 813f 1ac0 803f a2cb 7d3f
00000320: 5d4c 7e3f 6475 803f 6b20 803f ac49 7e3f
00000330: b43a 813f fe6a 803f 179f 803f 3236 7e3f
00000340: c560 7e3f a15b 7d3f 14f9 7f3f ac5d 7e3f
00000350: 6db9 7d3f edef 7f3f bc08 7e3f 3e5e 7f3f
00000360: 2c14 813f bebc 803f 0ef7 7f3f 6ee7 7d3f
00000370: 23bb 803f 9d28 7e3f 84f3 803f 4af2 803f
00000380: 533a 7e3f 616a 803f 7347 7e3f 1bdb 803f
00000390: b118 7e3f a688 7e3f 59db 7e3f 75de 803f
000003a0: a89c 803f 30cc 7e3f aa96 7e3f 7718 7f3f
000003b0: 02a3 7e3f e04c 7f3f 7f67 7f3f 94ef 7f3f
000003c0: 35b3 803f 1bc6 803f aa44 7d3f 11de 7f3f
000003d0: 2ba6 7e3f 45ed 803f 5eb0 803f 0e5d 803f
000003e0: d89a 7e3f 0b71 7e3f f582 7e3f de8c 7e3f
000003f0: 6759 803f a96e 7f3f 7f4c 7f3f db3c 7e3f
1.0061675 1.0008379 1.008078 0.99038124 1.0046942 1.0069889 0.99450076 1.0038118
1.0092775 1.0035299 0.99237007 0.99580294 1.0026118 1.0065527 1.0054661 1.0070808
1.0007046 1.0036775 0.99587184 1.0081062 1.0043471 0.99303514 1.0054694 0.98947006
1.004708 0.9985974 0.99889517 0.9979151 1.0049758 0.99405396 0.9989888 1.0060354
0.99678195 0.99412024 1.0044262 1.0084405 0.99491566 0.98851895 1.0050628 1.0071564
1.0025824 0.99862486 1.0036337 1.0084896 1.0072826 1.0057347 1.0044667 1.0022985
0.9961425 0.99645644 1.0015768 0.9938797 0.99770874 0.9969217 0.9933755 1.000307
0.99375594 0.9937494 1.0074743 0.9939727 0.9933177 0.99280095 0.99476606 1.0030713
1.0038435 1.010215 1.0113584 0.99594325 1.0053467 0.99731386 1.0038086 0.99244523
0.9863561 0.99312556 1.008799 1.0077617 1.0015512 1.0070708 0.9982273 0.998211
1.000167 0.9934232 0.993642 0.99608815 0.99801785 1.0043418 0.9930061 0.9922813
1.0075835 0.9955388 0.9996801 1.0023167 1.0099438 0.99983704 0.9992656 0.9972699
0.99913085 1.0087729 1.0063477 0.988132 0.993589 1.0074741 0.9920019 0.996786
1.0053732 0.98834485 1.0074455 0.99551 1.0052838 0.99300075 0.9924335 1.0074813
1.0064672 1.0082195 0.99038225 0.9921783 1.003949 1.0071453 0.9924191 1.0060239
0.99113315 1.0098798 1.0016 1.004975 0.99477804 1.0044261 1.0060813 0.99170136
0.99538803 1.0089877 1.0096334 0.9950204 1.010421 0.9937751 1.0048288 1.0058099
0.9911565 1.0019923 1.0063623 0.99194485 0.9962628 0.99816054 1.0055584 0.99337006
0.9934323 0.9940553 1.0082128 0.99860406 0.99216986 0.9985982 1.0077593 1.0054185
0.99328506 1.0065216 0.9873711 1.0005984 1.005892 1.0089226 0.99234223 1.0068561
0.9941158 0.9999022 1.0000497 0.995848 1.0069761 1.0077759 1.0096924 1.002524
1.0052625 0.9973783 0.9953554 1.0039933 0.99642336 1.0005136 1.0051428 1.002111
0.9956713 1.0079105 1.0066266 1.0050435 1.0101957 0.9923788 0.99853337 0.99557006
1.0040517 1.0006905 1.0015521 1.0017033 0.9968842 1.0062212 1.0002184 1.0046271
0.99804056 0.9977927 1.0005962 1.0061817 1.0109752 1.0113239 1.0058625 0.99138844
0.9933527 1.0035825 1.0009893 0.99331164 1.009604 1.0032651 1.004855 0.99301445
0.9936641 0.9896794 0.9998944 0.9936168 0.9911106 0.9997547 0.9923208 0.9975318
1.0084281 1.00576 0.9998635 0.9918126 1.005711 0.9928072 1.0074315 1.0073941
0.99307746 1.0032464 0.9932777 1.0066866 0.99256426 0.9942726 0.9955345 1.0067888
1.0047808 0.99530315 0.99448645 0.99646705 0.9946748 0.99726677 0.997673 0.9997494
1.005469 1.0060457 0.989329 0.9994822 0.994723 1.0072409 1.0053823 1.0028398
0.9945502 0.9939124 0.99418575 0.99433696 1.0027283 0.9977823 0.997261 0.9931161

1.bias f4 [256]
00000000: 20dc cc3b 8264 043b b688 053c a1d1 1b3c
00000010: 9966 923b 15a7 0a3c abb7 a6bb 3468 79bb
00000020: 5347 143c e2f5 60bb bc21 febb 824b 873b
00000030: 2971 2cbb 88b3 debb c517 b3bb 1c3e ee3b
00000040: cfbd 623a e02e 7dbb 17ff 84bb 6920 06bc
00000050: a6ad 603b b50e d4bb 4e82 bdbb 3948 c6bb
00000060: 4578 8dbb 16c2 a33a a4c8 3a3a f1a7 a2ba
00000070: 90e0 a4bb 0258 c2bb 5b84 7aba e2dd c9bb
00000080: 3567 7a3b 1dc6 c23b 5567 753b 9710 023c
00000090: d7c3 9f3b 3d59 413c e6db a63b 8533 eabb
000000a0: 4a86 3f3b b41e c2bb 69c1 b13b ca56 503b
000000b0: 8e42 f53b 09b3 fd3b 0af5 903b 99a5 2bbb
000000c0: 27f8 8e3b 0dda 2bbb 1226 d4ba 6b98 e63b
000000d0: 06b5 01bb a3fb 44bb 7f25 d8bb 6250 3c3a
000000e0: adf7 cabb a6cd 7bbb 1488 ce3b 5b72 b83b
000000f0: 19a8 d93b 6958 e9bb ebc2 9fbb 1a0d 4bbb
00000100: 1b4b 233b d491 24bc c5e9 39bc f1ab 9b3b
00000110: aac0 af3b e3e5 d03b fe86 c7bb 7846 f43b
00000120: cdd0 5cbc 2d85 e0bb e887 103c 087d f8bb
00000130: 94bd daba a543 e8bb d22b 0c3b e698 bc3b
00000140: 1ceb d2ba 08af bebb 52ff bebb 56b4 a23b
00000150: 10d9 a6b9 6e5f 9c3b 9f3a d9bb 9b29 fc3b
00000160: bf90 f93b e3d2 91bb d840 093b 7047 033c
00000170: fe1c 19bc 3294 d6b7 b611 f039 74a7 593b
00000180: f84e 89ba 4237 0fbc bcc9 d3bb 640f 463c
00000190: cfb3 c33b 438d f4bb 366d 03bc 1a83 553b
000001a0: bf7c 0cbb aed3 093c 1d61 f3bb ed9c 91bb
000001b0: 4b06 b7bb 4e77 e4bb fd91 f93b a380 f93b
000001c0: 6422 eebb e4bb 063c 529c fe3b 26db c8bb
000001d0: 7170 85bb c234 893b 44e9 2ebb fa61 c13b
000001e0: c59e 0cbc d0cb 31bc 1258 d7ba 793f a2bb
000001f0: 96b9 a13b df3d d43b 9f70 ecbb ed39 77bb
00000200: 6c9f 92bb bc71 cb3b 634b 18bc 5ac5 2ebb
00000210: 51a0 283c 251d c23b 7c10 9e3b f08c 1c3c
00000220: 39c6 11bc a672 0a3b db04 ccbb d904 febb
00000230: fa21 6fbb ec10 c8ba c948 cd3b 64b0 e1bb
00000240: 2cad d6bb 5939 efbb 38b7 02bc 2305 143b
00000250: a359 00bc 3740 9c3a 4848 013c 11b5 b0bb
00000260: 5adc dabb b98e e2bb 2e9a be3b c1fe 35ba
00000270: a3a9 c53b a28f 0fbc 62e4 52bb 5d24 e0bb
00000280: 60a6 9bbb 2210 d839 3c87 6d37 8519 873b
00000290: 2282 e43b c496 0c3c 333b 0d3c 4820 9f3b
000002a0: 5281 ce3b 2862 1e3b 5daa 98bb 66eb 863b
000002b0: 9efb 5abb 7fea 32ba 8e98 a8bb a15a 5a3b
000002c0: 8aeb 763b f237 01bc 848c e7bb 1869 debb
000002d0: 5551 213c 6d96 ebbb fe62 cc3a 56c4 6fbb
000002e0: 4419 ccbb 667b 4cba 885a 023b d088 d1ba
000002f0: 3d94 463b 7dda cdbb 6516 443b f247 8ebb
00000300: 8bdc ff3a 3b08 ac3a e069 823a d58c bdbb
00000310: 23a9 333c 1515 37bc 143f edbb 59f5 0d3c
00000320: 7cf4 80bb 5634 76bb 187d 873a 5a9f 96bb
00000330: c316 1e3c fc09 7b3b 0855 1b3b 64fe d53b
00000340: 1d7e d03b 03dc 29bc 9b2d 5dba 27c2 b6bb
00000350: d1c4 0c3c 6971 5e3a 0cec febb 7c82 e337
00000360: 2c0c 09bc a0cc c73b f8c1 fa39 0089 c93b
00000370: 79b5 d73b 7cfc eebb bd58 f53b 4152 f73b
00000380: 1934 c93b d602 49bb f29d c53b 3399 de3b
00000390: e070 f23b 1ab6 bebb f094 923b f23c 7b3b
000003a0: c97a e0bb 4310 b5bb b56a a8bb e4f3 9d3b
000003b0: 6d49 ae3b cdcc 9d3b 3003 3b3b 56ff 3739
000003c0: 853c 073c d6c0 c43b 01aa 073c fa4c 7cba
000003d0: da16 9c3b e548 f53b 1beb e4bb fc0c 3b3b
000003e0: 0ba0 b13b c499 c53b a534 873b ccde aebb
000003f0: 0693 373b bfc5 0ebb 0791 f5ba 04dc e23b
0.006251827 0.002020151 0.00815027 0.009510429 0.004467797 0.008462687 -0.005087813 -0.0038056495
0.009050208 -0.0034326245 -0.0077554863 0.0041288743 -0.0026312566 -0.006796304 -0.00546548 0.0072705876
0.00086494995 -0.0038632676 -0.0040587294 -0.008186438 0.003428319 -0.00647148 -0.005783356 -0.00605109
-0.0043173158 0.0012493755 0.00071252347 -0.001240967 -0.0050316527 -0.0059309015 -0.00095564657 -0.0061604837
0.003820849 0.005944027 0.0037445624 0.007938526 0.004875641 0.011801061 0.005092132 -0.007147255
0.002922433 -0.0059240703 0.0054246676 0.0031790012 0.0074847406 0.00774229 0.004423742 -0.0026191233
0.004363078 -0.0026222498 -0.0016185662 0.0070372126 -0.0019791736 -0.0030057214 -0.0065962668 0.0007183609
-0.006194076 -0.0038422137 0.006302843 0.0056288666 0.0066423533 -0.007121135 -0.004875531 -0.003098315
0.0024916593 -0.010044534 -0.011347239 0.0047507216 0.0053635435 0.006375061 -0.0060890904 0.0074546896
-0.013477516 -0.0068518133 0.008821465 -0.0075832643 -0.0016688579 -0.007088142 0.0021388424 0.0057555316
-0.0016091797 -0.005819205 -0.0058287764 0.0049653454 -0.00031823711 0.0047721183 -0.0066293026 0.0076953894
0.007616132 -0.0044501885 0.002094319 0.0080126375 -0.009345291 -2.5579797e-05 0.00045789563 0.0033211382
-0.0010475805 -0.008741202 -0.0064632576 0.01208863 0.0059723626 -0.007463129 -0.008021643 0.0032579363
-0.002143666 0.008412285 -0.0074273483 -0.004443756 -0.005585467 -0.00697223 0.00761628 0.0076142116
-0.0072672833 0.008223508 0.0077700997 -0.00612964 -0.004072242 0.0041871974 -0.002668933 0.0059015723
-0.0085827755 -0.010851815 -0.0016429445 -0.004951414 0.0049354536 0.006477102 -0.007215574 -0.0037723735
-0.004474571 0.0062086266 -0.009295317 -0.0026667924 0.010292129 0.0059238845 0.0048237424 0.0095550865
-0.008897358 0.0021125465 -0.0062261648 -0.0077520427 -0.0036488757 -0.0015263832 0.00626478 -0.0068874825
-0.0065514054 -0.0073005375 -0.007978253 0.002258607 -0.007833871 0.0011920993 0.007890768 -0.0053926785
-0.0066791 -0.0069139865 0.0058167195 -0.00069425633 0.006032185 -0.008762272 -0.0032179584 -0.0068402723
-0.004750058 0.0004121075 1.41577875e-05 0.004122915 0.006973521 0.008580867 0.008620071 0.004856143
0.0063020373 0.0024167392 -0.0046589808 0.004117417 -0.0033414136 -0.0006825104 -0.005145139 0.003331818
0.0037677013 -0.007886874 -0.0070663113 -0.0067874305 0.009846051 -0.007189563 0.0015593467 -0.0036585531
-0.006228598 -0.000780037 0.0019890387 -0.0015986208 0.003030076 -0.0062821493 0.0029920575 -0.0043420726
0.0019520683 0.0013125011 0.0009949766 -0.0057846108 0.010965618 -0.01117446 -0.0072401855 0.0086644525
-0.003935395 -0.0037567816 0.0010336963 -0.004596633 0.0096489815 0.0038305512 0.0023701806 0.00653057
0.00636269 -0.010367396 -0.00084372767 -0.005577344 0.008591847 0.00084855274 -0.007779604 2.712127e-05
-0.008364718 0.0060973912 0.00047828234 0.006150365 0.0065829125 -0.007293282 0.007487385 0.007547647
0.0061402437 -0.0030671856 0.0060307914 0.006793165 0.0073987097 -0.005820048 0.004473321 0.0038335887
-0.0068505746 -0.00552562 -0.0051396736 0.004820334 0.0053188116 0.004815674 0.0028535835 0.0001754736
0.008254175 0.006004433 0.008280278 -0.00096245075 0.0047634663 0.0074854963 -0.0069860346 0.0028541675
0.00542069 0.006030293 0.0041261488 -0.005336618 0.0028011217 -0.0021785346 -0.0018735238 0.0069232006

4.weight f4 [256, 256]
00000000: d8c3 7ebd f784 5abd fb4e fc3c 23f6 823d
00000010: 6d5b 47bd bc6b 253d 1b5c 473c 0fff 363d
00000020: c8af 853c ab85 7f3d e24a 2b3d 8b99 143c
00000030: 3511 27bd dcf0 783d 156a 4ebd bdd3 8cbc
00000040: b38e 543c 9709 2abd 053d 66bc 2f08 cb3c
00000050: 0c33 0d3d b7ce 39bd b7c5 7e3d 0119 3c3d
00000060: 8631 91bc 9e88 cbbc b488 05bd 8c20 083d
00000070: fa76 f23c 27d5 21bc c23b b33c 184f 48bc
00000080: c4a1 3e3d be75 bcbc 52df 233d 240b b1ba
00000090: 2cdb 453d 8672 5d3d f79e 85bd 2ff0 993c
000000a0: 3ce5 75bd 7c81 633d 386c cbbc a911 193d
000000b0: 05b4 47bd ad19 1dbd ac4f 4abd 23b0 5e3d
000000c0: 6a70 c6bc 56ea 90bc d487 e63c c737 823d
000000d0: 10b1 df3a 15ad 643c fff5 b9bc a8b7 5abc
000000e0: a6f4 e6bc a766 fbbc 88aa 003d 6049 94bc
000000f0: aba4 1bbd f69c 0dbd f9e8 e23c 5146 bc3a
00000100: a73e a73c 3c9b 7d3d 2a87 debc 7d24 65bc
00000110: 7c86 10bd 7357 b63b c127 a93c 5a7f 5e3d
00000120: 3ce8 35bc 1a03 6e3b 0d64 d93c 1583 c93c
00000130: d480 593d 135e 4d3d 1368 adbc 6068 66bd
00000140: 7154 e93c da46 4b3c 2fb5 63bd 562f 8bbc
00000150: bb9a 91b9 a178 eabc 387e b53c f022 953c
00000160: a330 f53c c6d7 493d 8cc8 61bd 520e 123d
00000170: 7347 823d d1a2 93bc df43 683d 5502 9cbb
00000180: 48ae 52bb 51af 43bb 5068 0d3d 345f d5ba
00000190: f10b febb 3a65 e0bc ddb1 5cbd d9ab 43bc
000001a0: a965 0f3d dfc6 6abb 43f7 043b 7001 813c
000001b0: 52bc b4bc 3271 e4bc 846d 3b3c df1e 173d
000001c0: bc1d c7bb 39ba 00bd e23a 7dbc 64aa 6ebd
000001d0: 016c 0fba 4804 dbbc 5a56 823c 6fc0 073d
000001e0: c68e 3c3d d985 2dbc 98a1 6bbc 541a 5abd
000001f0: 427c 69bc 2de4 0c3c f369 d63c cd8a b13c
00000200: 1780 d8bc 4394 b03c fda2 673c de7f 263d
00000210: 57d1 39bc be54 5dbc f169 363d 71a3 16bd
00000220: e8a4 e5bc d976 28bd b719 aabc 44b1 2fbd
00000230: e790 4cbd 4f16 1dbd 470b 2a3d 5b00 79bd
00000240: 1271 89bd 96c6 54bc 9f26 493d 83c7 86bc
00000250: 596d 113d d878 04bd f6fe 443d 2232 693c
00000260: 95fb b3bc 09d1 ed3c a4dc 7c3d 9552 87bc
00000270: b996 7abd b84a f3bc 4347 0f3d c104 f23b
00000280: 45ab 1fbb fc28 073d 27ef 803d fd79 c7bc
00000290: df3d 18bb af91 5abc e88e fa3c 34b4 03bd
000002a0: 891e 83bd 8495 51bb b4c9 8fbb 866b 533d
000002b0: 1544 3f3d d958 4d3d 26a3 58bd 7841 143d
000002c0: 64d3 c23c a512 a9ba d851 233d 08c3 493d
000002d0: 3b48 b5bc 68b8 153d 6cc6 abbc 9e30 14bd
000002e0: 0c33 e13c 5874 4b3d eef0 86bd c36c 96bc
000002f0: 8737 27bd a779 24bd c6bc 023d a7af 39bc
00000300: 6b36 143a de0b 633c ef5c 44ba 4fe5 853d
00000310: 360c 253c cb23 893d 689a d93c 01c9 3ebd
00000320: f33c 67bc a3ab 1abd 0a9d eebc ef80 89bd
00000330: 53c1 3b3d 3360 e8bb fc60 77bc 7f12 a73c
00000340: 1dd5 2ebd f91d 7abc f0f6 c23c 011b 223d
00000350: bc91 5fbd bedb 25bd c0b8 7dbd bb50 17bd
00000360: c835 f73c b453 4c3b 4748 023d a4f9 783d
00000370: bc16 c83c d7a2 bf3c 5380 7e3c 0b26 743c
00000380: 5dd7 9ebc 29e7 3abd c10e 2fbd 0d1b bbbc
00000390: 01c8 49bd a57d 77bd 7ac2 383d bf29 1bbd
000003a0: 69d4 083d ce54 623d c36a 64bd cf4b 863d
000003b0: a034 b6bc 7690 4f3d b3a7 573c c755 5c3d
000003c0: 838c 4ebc 4c56 d03c 8f5f c33c 4473 683d
000003d0: 2805 3fbd 2e7d 203d 4c68 5d3c 6a5d 053d
000003e0: d65a 8cbc badd 51bd a3a2 3bbc cd73 b03c
000003f0: 96b6 7ebd e214 afbc bbd4 223b 7b6f 183d
-0.06219849 -0.05334946 0.03079938 0.06394603 -0.048671175 0.040385947 0.012167956 0.044676837
0.01631917 0.062383335 0.04181946 0.009069811 -0.040787894 0.060776576 -0.050394136 -0.017190808
0.012973475 -0.04151305 -0.014052634 0.024784176 0.03447251 -0.045363154 0.062200274 0.045922283
-0.01772381 -0.024845418 -0.032601073 0.033234164 0.029597748 -0.00987748 0.02187908 -0.012225889
0.04654099 -0.023005363 0.040007897 -0.0013507348 0.04830472 0.054064296 -0.06524461 0.018791286
-0.060033068 0.055543408 -0.024831876 0.037370358 -0.048755664 -0.038354564 -0.049392387 0.054367196
-0.024223525 -0.017689865 0.02814094 0.06358295 0.0017066319 0.013957282 -0.022700308 -0.013349451
-0.02819283 -0.030688597 0.03141263 -0.018101394 -0.037998836 -0.034573518 0.02769898 0.0014364218
0.020415617 0.06191562 -0.02716406 -0.01398575 -0.035284504 0.005564624 0.020648839 0.05432067
-0.011102732 0.0036317767 0.026536966 0.024598638 0.053101376 0.050138544 -0.02116779 -0.056251884
0.028482648 0.012407029 -0.055592712 -0.016990345 -0.00027771838 -0.028621973 0.022154912 0.018205136
0.029930418 0.049278043 -0.055122897 0.03565819 0.06361284 -0.018021973 0.056705352 -0.00476102
-0.0032147337 -0.0029859135 0.03452331 -0.0016278983 -0.0077528884 -0.027392019 -0.05388056 -0.011942827
0.03500906 -0.0035824103 0.002028898 0.015747756 -0.022062454 -0.027886007 0.011439685 0.036894675
-0.0060765427 -0.031427596 -0.015455933 -0.058267966 -0.0005471111 -0.02673544 0.015910316 0.033142503
0.046034597 -0.010590994 -0.014381789 -0.053247765 -0.014250817 0.008599323 0.026173567 0.02167263
-0.026428265 0.021555072 0.0141379805 0.040649287 -0.011341414 -0.013508974 0.044534627 -0.036776964
-0.028032735 -0.041128967 -0.020764215 -0.042893663 -0.049942877 -0.038351353 0.04151466 -0.060791355
-0.067110196 -0.0129868 0.049109098 -0.016452556 0.035504673 -0.032341808 0.048094712 0.014233144
-0.02197055 0.02903034 0.061733857 -0.01651887 -0.061178897 -0.029698715 0.03498007 0.0073858206
-0.002436356 0.03299807 0.06295615 -0.02435016 -0.0023230237 -0.013340398 0.030585721 -0.032154277
-0.064023085 -0.0031979987 -0.0043880586 0.051616214 0.046695787 0.05013356 -0.052889965 0.03619525
0.02378244 -0.0012899233 0.039872974 0.049258262 -0.022129169 0.036552817 -0.020968638 -0.036179177
0.027490161 0.0496715 -0.065889224 -0.018362409 -0.04082444 -0.04015508 0.03191831 -0.011333383
0.0005653861 0.01385781 -0.0007490655 0.06537878 0.010073712 0.0669628 0.026562884 -0.04657841
-0.0141136525 -0.03776134 -0.029127616 -0.06714045 0.045838665 -0.007091546 -0.0150988065 0.020394562
-0.04268371 -0.015265935 0.02379939 0.039576534 -0.054582343 -0.040492766 -0.06194377 -0.036942225
0.030177012 0.003117782 0.03180721 0.06078495 0.024424903 0.023393078 0.015533525 0.014901648
-0.019389803 -0.045630608 -0.04273868 -0.022840047 -0.049263004 -0.06042256 0.045107342 -0.03788161
0.033405695 0.055256657 -0.05576588 0.06557428 -0.02224189 0.050674878 0.013162541 0.05379274
-0.012606743 0.025431775 0.023849277 0.05675055 -0.046635777 0.03918188 0.013513636 0.03255979
-0.017133158 -0.051236846 -0.01145235 0.021539593 -0.062185846 -0.021372262 0.0024846036 0.03721569

4.bias f4 [256]
00000000: c184 083d 26c6 01bd 1ca0 37bd 1e63 403d
00000010: f66b f7bb 4a7e 073d dc60 15bd 02b8 a8bc
00000020: 97e6 e23b b0d0 c4bc 4053 f93c 61fc 493d
00000030: 37d9 a53b 0a5e 193c 2b24 d9bb c61d 4b3c
00000040: c0fd d73c d20b 5c3d 5c1f 133d 545e 38bc
00000050: db84 60bc cc8d 7abd 74f7 f7bc 8ea6 85bc
00000060: 12b7 d53b 7ce0 5bbc a057 23bd 419b 31bb
00000070: 5e5d 15bd 4b00 903c 6005 60bd d898 c6bc
00000080: 9626 82bd 1601 e93c 2a78 f23c 1594 f63c
00000090: 85e1 ad3c beb6 16bc 5d5d 87bd 6d13 203d
000000a0: 614a 54bd b05c 4abc e26d c2bc bb0f 2cbd
000000b0: 95ff f33c b443 2cbd b699 803c f63b b93c
000000c0: fd72 0e3c 15de ef3c 4089 75bc 7017 92bd
000000d0: c01d 503d c625 9c3c a30f 1e3d 9659 93bc
000000e0: 6850 3dbc aeaf 693d e043 c53b 2bab 32bc
000000f0: 9c79 24bd f5b3 9abc cce1 4b3d dda5 88bd
00000100: 8da5 693d 77ab a5bc 056e 5d3d 321d 303d
00000110: 709c 2d3d f992 183c d421 183d f804 4a3d
00000120: 4a92 173d cada 1ab9 2184 ca3c 7589 37bd
00000130: 492a 3e3d afdd 6bbd 5685 c2bc 1865 79bd
00000140: 37a1 9bbc 5352 603d 1e05 5ebc 0ba8 253d
00000150: 966c e2bc e78f 6e3d 828e 003d b257 5dbc
00000160: d557 17bd 4d50 80bc acd2 393d 3886 673d
00000170: 40f9 723d 90fe a9bc 68b5 4abd 8857 88bd
00000180: 9fc7 603d 6e09 58bd 69f9 07bd 0d12 443c
00000190: ade4 de3b f086 223d 8dba 7fbd f8a6 c13c
000001a0: da25 fb3c 32bb 24bd 96f4 83bd 86c1 693d
000001b0: 6c4a 9bbb 74a6 eabc 603e 4ebd 0bea 71bc
000001c0: 3dcc 47bd 5503 03bd 26c0 7cbd 8a11 7f3d
000001d0: 8915 193d b051 45bd 6a50 393b 7ead 453d
000001e0: c026 10bd 5f32 b93c 4305 6f3d db46 2a3d
000001f0: 0aa3 213d 3462 e2bc 5cae 0d3d 91c2 793c
00000200: 48cf 253c 21e5 243c 0e74 113b aa55 883c
00000210: 60b3 5d3d a621 d33c 663b 04bd a848 3abd
00000220: 359e 1c3d 0a3f 56bd 4684 81ba 5145 28bd
00000230: f402 053d f6b7 033d ccb8 0b3b da25 54bd
00000240: 3f3e 0fbb 53b4 bf39 fa7d a7bc 80a7 88ba
00000250: bd8d fabc 0e4b 503d 1f1f 933a 1c53 6e3d
00000260: 8bbb adbc 07e7 d43c dfc2 773d 3b3f d9bc
00000270: be27 66bd 98e1 e73c 4e29 043c abc5 4fbd
00000280: 79f0 99bc 411d a83c cab0 25bd 4f95 62bc
00000290: 37a7 6ebd ef24 2a3d a023 683d e926 313d
000002a0: 12cd 3f3d e7b0 54bd 6671 813d 51de 86bd
000002b0: 96ad c3bc 2a32 6bbd 56ec 19bd 1735 50bd
000002c0: a4c5 e33c 702a 91bc 966d 7b3d 9aa1 c23c
000002d0: 91c7 9a3c c369 433d 003c b7bc 390c 823c
000002e0: a98c 0cbc 355f c5bc 9051 313c 0cd1 083d
000002f0: 96d5 62bc 4c4e 25bc b549 17bd 6e0e 6bbc
00000300: 04e4 3bbd 5a2e 39bd 4af9 8a3d a128 093d
00000310: 9628 713c 05da 08bb 47d2 05bc 9272 68bc
00000320: 2c16 65bd 433d 123d d299 bebc 3b1b 0dbd
00000330: 63a0 0c3d 1922 81bc 4c89 413d 561c 4f3d
00000340: 912e 3d3d 5a5f f7bc 8a30 c83c f4c2 25bd
00000350: 72f3 c2ba 9d6a 8bbc 230b 583d 25f5 443d
00000360: 6bee 35bb 5000 70bd 42c0 8c3b 6a46 e93c
00000370: 1528 5dbd ce84 8cbd 20d4 16bd fb52 e0bc
00000380: 716a 21bd 2632 72bd ab40 063d 438b e0bc
00000390: 5a8e c33c e9de 5c3a 32b5 20bc 9320 dbbb
000003a0: a3c4 6dbc 8f40 78bd ad27 583d 4116 e3bc
000003b0: ca71 ab3c 1277 45bd 8b8a 223c 7fc4 38bd
000003c0: 6bfe 8fbc 9ffc 253d 0bdc 74bd 229d b9ba
000003d0: d501 4c3d cf42 31bd 0836 5abd e8a0 aabc
000003e0: 5789 8e3b 6dc8 c43c 56e4 aebb c4b0 da3c
000003f0: 6cae 84bc 3742 3f3c 0242 383c 3371 933b
0.03332973 -0.03168311 -0.044830427 0.046969526 -0.0075507117 0.033079423 -0.036469325 -0.020595554
0.006924461 -0.024025291 0.030435205 0.049312953 0.0050612944 0.0093608 -0.006626626 0.012397235
0.026366115 0.05372221 0.03591858 -0.011252958 -0.01370355 -0.061170384 -0.030269362 -0.016314771
0.006522068 -0.01342022 -0.039878488 -0.0027100595 -0.036465995 0.017578265 -0.054692626 -0.024242803
-0.06355016 0.0284429 0.029598314 0.030099908 0.0212257 -0.009198843 -0.066096045 0.039081026
-0.051828746 -0.0123512 -0.023734037 -0.04200719 0.029784957 -0.042056754 0.015698295 0.0226116
0.0086944075 0.029280702 -0.014986336 -0.071333766 0.05080962 0.01906098 0.03858913 -0.017987054
-0.011554815 0.057052307 0.006020054 -0.010905067 -0.04015504 -0.018884638 0.049775884 -0.06672261
0.057042647 -0.020223362 0.05406 0.042996593 0.04238552 0.009312385 0.037141636 0.049321145
0.037004746 -0.0001476809 0.024721207 -0.044808824 0.046427045 -0.05758446 -0.02374522 -0.060887426
-0.018997772 0.05476601 -0.013551025 0.04044346 -0.027639668 0.058242705 0.031385906 -0.013509678
-0.036948998 -0.01566329 0.045366928 0.056524485 0.059319735 -0.020751268 -0.04948941 -0.0665732
0.054877874 -0.052743368 -0.03319684 0.011967194 0.0068021626 0.039679468 -0.062433768 0.023639187
0.030657697 -0.040217586 -0.064431354 0.057069324 -0.0047390964 -0.028643824 -0.050352454 -0.014765273
-0.04877876 -0.0319856 -0.061706685 0.062272586 0.037374053 -0.048173606 0.002827669 0.04826116
-0.035193205 0.022607027 0.058354627 0.04157148 0.039462127 -0.027634718 0.03459011 0.015244142
0.0101202205 0.010064394 0.0022194418 0.01664241 0.054126143 0.02577288 -0.03228321 -0.045479447
0.038236815 -0.052306212 -0.000988134 -0.04108173 0.03247352 0.03215786 0.0021319864 -0.05179391
-0.002185717 0.0003656471 -0.020445812 -0.0010425895 -0.030585164 0.050852828 0.0011224485 0.058184728
-0.021207592 0.025989069 0.060488578 -0.026519408 -0.056190245 0.028305814 0.008066488 -0.05072562
-0.018791424 0.020521762 -0.040451802 -0.013829543 -0.058264937 0.04153913 0.0566746 0.04325
0.04682643 -0.05192652 0.06320457 -0.06585372 -0.023886483 -0.057420887 -0.037578903 -0.05083188
0.027804203 -0.017720431 0.061383806 0.023758698 0.018893989 0.047708284 -0.022367477 0.015874969
-0.008578458 -0.02409325 0.010822669 0.033402488 -0.013844868 -0.010089468 -0.036935527 -0.014346702
-0.04587175 -0.04521022 0.06785829 0.033486012 0.014719149 -0.0020881903 -0.00816781 -0.014187472
-0.055929348 0.035702955 -0.023266707 -0.034449797 0.034332644 -0.01576333 0.047250077 0.050564133
0.046186987 -0.030196834 0.024437208 -0.040469125 -0.0014873578 -0.01701861 0.052744996 0.04808535
-0.0027760516 -0.058594048 0.00429538 0.028475959 -0.053993303 -0.06861268 -0.036823392 -0.027383318
-0.03940815 -0.059129857 0.032776516 -0.027410155 0.02387159 0.000842555 -0.009808825 -0.0066872328
-0.014512214 -0.060608443 0.052772213 -0.027720572 0.020928282 -0.048209257 0.0099207265 -0.04510927
-0.01757737 0.04052412 -0.05978016 -0.0014161209 0.049806435 -0.043276604 -0.053274184 -0.02082868
0.0043498683 0.024021352 -0.0053372784 0.026695617 -0.016196452 0.011673502 0.011246206 0.0044995784

5.weight f4 [256]
00000000: 67c9 803f be01 7f3f d73d 813f 9722 7d3f
00000010: 1e26 813f 7bf7 803f 3e43 803f 83da 803f
00000020: c6ed 7d3f 1b6f 7f3f b72e 813f 3a29 813f
00000030: cae9 803f 12b7 803f 6762 7d3f d8d6 7f3f
00000040: a20b 803f 6e8a 803f f073 7e3f 367e 7e3f
00000050: ca5f 7e3f 4c2f 803f e87e 803f 5321 803f
00000060: 0e79 7f3f 8854 813f 0303 803f 7296 803f
00000070: b966 803f 1ecc 7d3f cebb 7e3f 804f 7d3f
00000080: d9ed 7e3f 2fc0 803f 17e3 7e3f 1b2d 7e3f
00000090: 7067 7e3f 45d7 803f be1b 813f 2c52 803f
000000a0: 2849 813f e9d0 803f 057c 7e3f 3e5b 7f3f
000000b0: 4026 803f e681 803f fff3 7f3f 953e 803f
000000c0: 5fbc 803f a855 7e3f 358b 7e3f 0e12 813f
000000d0: 257a 7e3f a70b 803f 4423 7e3f 654f 7e3f
000000e0: 7734 803f 99ca 803f a3de 803f bc03 803f
000000f0: 66e6 7e3f 845f 7f3f 4dc9 803f 36d1 7e3f
00000100: f0a4 7d3f bcdc 7f3f 9e24 813f 98ce 7f3f
00000110: 2555 7f3f b92e 7d3f 7773 7e3f 0349 7e3f
00000120: cf1d 7e3f afb9 7f3f fe97 803f 391f 813f
00000130: bb7c 7d3f e211 813f 4212 7e3f 0314 7f3f
00000140: c49a 7d3f c7b4 7e3f 9482 7e3f 19de 803f
00000150: f171 813f bb9f 7c3f b0e7 7f3f 33f4 7f3f
00000160: 849c 803f fbb1 7e3f 7a8a 7e3f 2fc9 7e3f
00000170: b29e 7c3f c512 7e3f a239 7f3f cee3 803f
00000180: 51ed 7d3f afb0 7e3f 61a2 7f3f 4e32 7f3f
00000190: 9203 803f 72e1 803f d5a6 7e3f 3d29 7e3f
000001a0: bd47 813f 2489 7e3f 2913 7f3f 3294 7c3f
000001b0: 659a 803f 43c2 7f3f d7ac 803f 1f28 7d3f
000001c0: c732 803f d216 803f 970e 7e3f 7805 803f
000001d0: 12c1 803f 6580 7f3f 8f71 7e3f 8bc2 7e3f
000001e0: 3527 7e3f 44e0 7f3f f068 803f 4c74 803f
000001f0: 1466 7d3f 4fe8 7e3f e135 7e3f d96e 7e3f
00000200: bbe5 803f c84c 7f3f 8d42 803f cd7f 813f
00000210: 589c 803f d2e7 7e3f 7197 7f3f da91 803f
00000220: efac 7e3f 0b2a 7e3f 9b54 803f 478b 7e3f
00000230: 7a0d 803f 326d 7e3f 8beb 7c3f 412f 7e3f
00000240: e5f8 7e3f fbbc 7d3f 1a32 7f3f c651 7e3f
00000250: 5dc1 7c3f b5c0 7e3f 7f62 7f3f bafb 803f
00000260: 0a80 803f 69f2 803f 7130 803f 8aae 7c3f
00000270: bdd6 7d3f 5e97 7e3f 415f 7f3f 1c42 803f
00000280: 0880 803f 187c 803f 50ff 7d3f 07b0 7e3f
00000290: 7e3d 803f a4f1 7c3f f1a8 7e3f 08ac 7d3f
000002a0: 254d 7f3f ca69 803f 793f 803f d6b5 7d3f
000002b0: e7bb 803f 611d 7e3f 3de1 7e3f bfbf 7e3f
000002c0: d4b8 7e3f 971a 803f 7d9a 7f3f b13c 823f
000002d0: 8b71 803f 3bdb 803f 9367 803f b7a9 7e3f
000002e0: ff8d 803f 343b 803f 3aa0 803f 7766 7d3f
000002f0: e979 7f3f 372f 7c3f 288f 803f b5ac 803f
00000300: 504b 7e3f 328f 7e3f b44e 813f fee7 7f3f
00000310: 8641 7e3f 56c1 7d3f 1fea 803f a9c6 803f
00000320: bc18 7f3f 10d2 803f 46b5 7e3f e21f 7c3f
00000330: c29f 7e3f 1e70 803f 71bf 7d3f fc24 803f
00000340: c10c 7e3f 1390 803f 1504 803f 3951 7e3f
00000350: 0d9c 7e3f 0e80 813f c153 7e3f d0b4 7e3f
00000360: b00e 813f 97e7 7c3f 3daa 7e3f 28e0 803f
00000370: 5b36 813f 8445 7e3f 5e6b 813f 1519 7f3f
00000380: f7be 7f3f 4045 813f 5ea9 7e3f 0090 7e3f
00000390: 8eed 803f 8fe2 7e3f d60b 803f ccfc 7f3f
000003a0: d76b 803f e9af 803f d2a2 803f 325c 7e3f
000003b0: 256b 803f 5cc7 803f aa68 7f3f 7591 7e3f
000003c0: bd16 7d3f 754a 813f a365 7e3f 9aab 7e3f
000003d0: 67a7 7e3f ef14 813f 185d 803f 6415 813f
000003e0: e968 7f3f bfb0 7c3f 5b0f 803f 31ef 803f
000003f0: 990e 813f a8c2 7e3f d63a 7f3f ac04 813f
1.0061463 0.99612033 1.0096997 0.98880905 1.0089757 1.0075525 1.0020521 1.0066684
0.9919094 0.9977891 1.0092381 1.0090706 1.0071347 1.0055869 0.98978275 0.999372
1.000355 1.0042245 0.99395657 0.9941133 0.9936491 1.0014434 1.0038729 1.001017
0.9979409 1.0103922 1.0000919 1.0045912 1.0031348 0.99139583 0.9950532 0.9894943
0.99581677 1.005865 0.9956526 0.99287575 0.99376583 1.0065695 1.0086591 1.0025077
1.010045 1.0063754 0.9940799 0.997486 1.0011673 1.0039642 0.99981683 1.0019099
1.0057486 0.9934945 0.99431163 1.0083635 0.9940513 1.0003556 0.9927256 0.99339896
1.0016011 1.0061828 1.0067943 1.000114 0.9957031 0.9975512 1.0061432 0.9953798
0.990798 0.9994619 1.00893 0.9992461 0.99739295 0.9889942 0.99394935 0.9933016
0.99264234 0.99892706 1.0046384 1.0087653 0.9901845 1.0083582 0.9924661 0.9963991
0.9906428 0.99494594 0.99417996 1.0067779 1.0112897 0.9868123 0.999629 0.99981993
1.0047765 0.99490327 0.9943005 0.9952573 0.9867965 0.9924739 0.99697316 1.006952
0.9919024 0.9948835 0.99857146 0.99686134 1.000109 1.00688 0.99473315 0.99281675
1.0100018 0.9942801 0.9963861 0.9866363 1.0047117 0.99905795 1.0052747 0.98889345
1.0015496 1.0006964 0.9924101 1.0001669 1.005892 0.9980529 0.99392027 0.995156
0.99278575 0.9995158 1.0032024 1.0035491 0.98983884 0.99573225 0.9930096 0.9938789
1.0070108 0.99726534 1.002031 1.0117127 1.0047712 0.9957248 0.99840456 1.004451
0.99482626 0.992829 1.002582 0.9943127 1.0004113 0.9938537 0.9879691 0.99290854
0.9959853 0.99116486 0.99685824 0.99343526 0.9873255 0.995128 0.9975967 1.0076821
1.0039074 1.0073978 1.0014783 0.98703825 0.9915579 0.9944972 0.9975472 1.0020175
1.0039072 1.003787 0.992177 0.99487346 1.0018766 0.98806214 0.99476534 0.99090624
0.9972709 1.0032284 1.001937 0.99105585 1.0057343 0.9926358 0.99562436 0.9951133
0.99500775 1.0008115 0.99845105 1.0174772 1.003465 1.0066904 1.0031608 0.99477714
1.0043334 1.0018067 1.0048897 0.98984474 0.99795395 0.98509544 1.0043688 1.0052706
0.9933367 0.9943725 1.0102143 0.99963367 0.9931873 0.9912313 1.0071448 1.0060626
0.99647117 1.0064106 0.9949535 0.9848615 0.9946252 1.0034215 0.9912024 1.0011287
0.9923821 1.0043968 1.0001246 0.99342686 0.99456865 1.0117204 0.9934655 0.9949465
1.0082607 0.9879088 0.99478513 1.0068407 1.0094713 0.9932482 1.0110891 0.9964765
0.99900764 1.0099258 0.99477184 0.99438477 1.0072496 0.9956445 1.0003612 0.9999511
1.003291 1.0053684 1.0049689 0.9935943 1.0032698 1.006084 0.9976908 0.994407
0.9886282 1.0100847 0.99373835 0.99480593 0.99474186 1.0084513 1.002841 1.0084653
0.99769455 0.98707193 1.0004686 1.0072995 1.008258 0.9951577 0.9969915 1.0079551

5.bias f4 [256]
00000000: 01a0 bbbb 1f42 33ba 86e0 213c 2d92 e13a
00000010: 38de 143c 1f19 06bc 6bc4 9b3b 5a0b c8bb
00000020: 24b4 8abb 8667 8bba caa0 fbbb 47b3 ddbb
00000030: 82ac 04bc f6a6 d63b a4fe c13b e57a 9d3a
00000040: e2ff 99bb ca7a b93b 00ef 69bb 21a3 afbb
00000050: 7d6e b3bb ecc1 6dbb da08 b33b 202e 0dbb
00000060: badf 853a be9c 05bc fce1 eab8 4f11 90bb
00000070: 795a bfbb 3553 c83b eafe 3fbb dc10 013c
00000080: c51b 34bb 0c10 cd3b 23a4 53bb ac20 f3ba
00000090: 0e76 c7bb e6a9 ccbb f17f debb 48ff 813b
000000a0: be53 173c d752 00bc 3df0 d3bb d95e d2bb
000000b0: 0349 913b baeb a33b e755 073a d975 f63b
000000c0: 3c0d afbb aae3 243b 1dc6 bfbb c81a 09bc
000000d0: 12de 3a3b a6db f03b 2a8d 87bb 7f36 5abb
000000e0: a4eb a1bb e548 ca3b 8abd 0bbc e057 efbb
000000f0: 419f 24bb 9433 e2b9 ae0d c0bb 8862 c7bb
00000100: da28 bf3a b159 48bb 8ae6 f4bb b9ff b5bb
00000110: 9de9 4f39 c07c a3ba 71a3 a4bb 0241 12ba
00000120: 73af 83bb 4a48 7dbb 7a6f b63b 2efa e2bb
00000130: d7f1 b2b9 50be f6bb d2cb fa3b 86c4 9cbb
00000140: 5c75 5e3b ca04 05bb 0c6a 9ebb 6952 e43b
00000150: b194 04bc ea2e 13bb b8c6 793b 64ae 233b
00000160: 070c 093c c799 5ebb 525c d5ba 6fd1 8a3a
00000170: 06fd 1fba d2ed 66bb bec4 b33b 5380 ccbb
00000180: 2e37 9eb9 e6ae f73a 7b2a f73b 36b7 633b
00000190: 1e2f 013b a729 e5bb a7dc d9bb f087 05bc
000001a0: efb3 0c3c be70 dbbb bf82 acbb 9a19 4dbb
000001b0: 445c 9abb 7349 823a e1df 9cbb 7fe4 363a
000001c0: a91a 84bb 30af 453b 347c 16bb 512d 6f3b
000001d0: 9289 b1bb 199a 123a d40e b3bb acfe 4fbb
000001e0: 2472 f83a 672c 97bb 8cea 923b f96c b0bb
000001f0: 755b c5ba 11e6 89b9 e2f2 4dbb 5434 6eba
00000200: 157a 0b3c 373a 05bc fad6 913b f533 383c
00000210: 5c40 453c 8da7 d3ba e46c fdbb 5591 b2bb
00000220: 688b 30bb 93f0 03bc aba5 603b 1655 d8bb
00000230: 2840 94bb 84ae cbbb 9072 8637 a1dc 5e3b
00000240: 1f14 163b de0f ae3b b963 283b cf88 c5bb
00000250: c97d 513b 6eb2 213b 2d98 1e3b f021 023c
00000260: 9e1a d4bb 3d41 313c b893 be3b 22fc 8c3b
00000270: 5fb6 8f3b af02 a4bb d22d 343a 89e5 823b
00000280: f109 a33b 43ab 0dbc a0ec 10ba ac43 9dbb
00000290: ab38 313b c8ef 5639 c216 92bb ecf7 02bb
000002a0: 5ce2 6139 e4e7 9ebb a2ea af3b e399 04ba
000002b0: e53c d23b 0fda fbbb 378d 003b 9bcd 4cbb
000002c0: 19a7 b5bb e82e ecbb 0db8 b13b 620c 343c
000002d0: cbf5 a63b 7107 28bc 6847 9b3b 02d4 ee3b
000002e0: 2513 f53b f6f4 0f3c 39fd ea3b ce2d 763b
000002f0: f5b9 76ba 2522 f03b 03d4 a6bb 01dc a4bb
00000300: 8e22 f3bb 63c4 0abb bf65 223c ff75 123c
00000310: af39 7fbb 03db e13b 5ec3 043c ef91 db3b
00000320: cd7c 7a3b 9f32 c5bb 82fa ecbb b632 45b9
00000330: 9a53 cabb 20b3 b43b 29db 3f3b 35ad 31bb
00000340: 8334 f6bb 619b 96bb e5c9 f9bb 9251 403b
00000350: ea81 3ebb a2cf 3fbc 259a 3fbb e7cb 0dbc
00000360: 158a 0e3c 4341 9e3a e3b8 a53b 11dd ed3b
00000370: 545d 02bc aa34 e4bb d606 3ebc 6add fcbb
00000380: a2a2 243c 3224 29bc fbd7 8b3b 1e40 90bb
00000390: 83b3 e9bb ba50 a33a 2090 503b a6b0 0e3c
000003a0: 04e9 0dbc c796 0abc 988b c33b 09b8 183c
000003b0: 62c4 953b ef5c c7bb 2765 153b 7c0e 45bb
000003c0: 8aa9 f1b9 24f4 0f3c ae91 a63a 3f6c 88bb
000003d0: 199f 5bbb bf2c debb 4e3f 01bc d6d2 cfbb
000003e0: 88ee 4938 56c4 eb3b 6e45 4fbb 625a f43b
000003f0: 195e f3bb 132c c4bb 0cf0 4e3b 079d eabb
-0.005725861 -0.0006838161 0.009880191 0.0017209701 0.009086184 -0.0081847 0.0047536395 -0.006104869
-0.0042329 -0.0010635711 -0.0076790797 -0.0067657563 -0.00809777 0.006550665 0.005920248 0.0012014775
-0.004699693 0.0056603896 -0.0035695434 -0.0053600227 -0.0054758177 -0.0036278917 0.0054637017 -0.0021542385
0.001021377 -0.008155046 -0.000112000824 -0.0043965946 -0.0058396426 0.0061134347 -0.0029296228 0.007877555
-0.0027482372 0.0062580165 -0.0032293878 -0.0018549166 -0.0060870713 -0.0062458394 -0.006790154 0.0039671995
0.009236274 -0.007832251 -0.0064678476 -0.006419998 0.0044337525 0.005002466 0.0005162642 0.0075213728
-0.005342154 0.0025160112 -0.0058524744 -0.008368202 0.0028513712 0.007350403 -0.004136701 -0.0033296642
-0.0049414206 0.0061732405 -0.008529076 -0.0073041767 -0.0025119337 -0.00043144508 -0.0058610057 -0.006084744
0.0014584318 -0.0030571038 -0.0074737715 -0.005554166 0.00019828086 -0.0012473091 -0.0050243665 -0.0005579145
-0.004018718 -0.0038647824 0.0055674883 -0.0069267964 -0.0003413099 -0.0075300112 0.007653692 -0.0047841696
0.0033944463 -0.0020297044 -0.004834419 0.006967832 -0.008092091 -0.0022458383 0.003811283 0.002497577
0.008364684 -0.003396617 -0.0016278124 0.001059098 -0.0006103072 -0.0035236967 0.0054861 -0.0062408834
-0.0003017722 0.0018896728 0.007542906 0.0034746653 0.0019711922 -0.0069934907 -0.0066486183 -0.008150086
0.008587821 -0.0066967895 -0.0052646096 -0.0031295777 -0.004710706 0.0009940102 -0.0047874306 0.00069767976
-0.0040314985 0.0030164234 -0.0022962214 0.0036495517 -0.005418011 0.00055924203 -0.005464414 -0.003173749
0.0018954915 -0.0046134475 0.0044835266 -0.0053840843 -0.0015057164 -0.0002630209 -0.0031425287 -0.0009086777
0.008512993 -0.008131555 0.004450676 0.011242856 0.01203927 -0.0016147956 -0.007733928 -0.005449454
-0.0026938561 -0.008052963 0.0034278433 -0.00660194 -0.0045242496 -0.0062158722 1.6027392e-05 0.0034006017
0.0022900177 0.00531195 0.0025694205 -0.0060282717 0.0031965843 0.0024673003 0.002419959 0.007942662
-0.0064728996 0.010818777 0.0058159493 0.0043025175 0.004385754 -0.0050052027 0.0006873283 0.003994648
0.0049755503 -0.008646789 -0.0005528424 -0.004799327 0.0027041833 0.00020497956 -0.0044582793 -0.0019984199
0.00021541998 -0.004849421 0.0053685466 -0.00050583313 0.0064159506 -0.0076859067 0.001961542 -0.003125048
-0.0055436012 -0.00720774 0.005423552 0.01098928 0.005095219 -0.01025568 0.004738737 0.007288457
0.007479089 0.008786431 0.0071713 0.0037563923 -0.0009411865 0.007328289 -0.0050911917 -0.0050311093
-0.0074198907 -0.0021174185 0.0099119535 0.008939265 -0.0038944294 0.0068925633 0.00810322 0.0067007462
0.003822136 -0.0060179974 -0.0072320113 -0.00018806275 -0.006174517 0.0055145174 0.0029274917 -0.0027111296
-0.007513584 -0.0045961593 -0.0076229447 0.0029345495 -0.0029069134 -0.011707218 -0.0029236164 -0.008654571
0.0086999135 0.0012073893 0.0050574406 0.007259019 -0.0079568215 -0.006964286 -0.0115983095 -0.0077168243
0.01004854 -0.010323571 0.0042676902 -0.0044021746 -0.007131995 0.0012459971 0.0031824186 0.008709108
-0.008661512 -0.0084588 0.0059675686 0.009321221 0.00457053 -0.0060840766 0.0022795887 -0.0030068448
-0.00046093418 0.008786235 0.0012708211 -0.0041632946 -0.0033511578 -0.0067802365 -0.007888628 -0.0063422723
4.8144284e-05 0.007195036 -0.0031627077 0.0074570635 -0.007426989 -0.0059866994 0.0031576185 -0.0071598324
