MACHINE_LEARNING/checkpoints/o3_model_epoch2.pt (torch, 419225 bytes, 13 tensors)

0.weight f4 [256, 12]
00000000: 830e 173e 5075 2f3e 1b32 28bd 9abd 19bd
00000010: 74b7 86bd d723 cc3b be66 273d e8b0 303a
00000020: 4a3c 413e eaef 443e 9caa 813c d03a e23d
00000030: 207f 503e 5cf8 643e 14e7 0bbe 6799 f3bd
00000040: 39fa 933d 4c98 84be 169a f03d f841 96bc
00000050: d66b 0ebe fe8d 96bd 288a 41be 7e62 cbbd
00000060: 5a0f 583c a96e 583e 5ccf 173d d85f 293e
00000070: a4ff 7bbe 652c 0b3d 0e5f 073e 4586 533e
00000080: ed05 d9bd 0376 89be ccbd 3fbe 457e 43be
00000090: f982 36be f74b 07be 5fbe 77be a412 5d3e
000000a0: 390f d23d bbc9 213e c04e 903e e99f 09be
000000b0: e803 b4bd 8164 34bd 46ca 79be 123e 5fbe
000000c0: 5153 243d 6f10 22be 830d 8e3e 657a 8fbe
000000d0: c4b9 393e f0db 06bd c46a 6fbe 754c e03d
000000e0: 185c 1b3e 5a29 703a 4974 733e 9bf5 5ebc
000000f0: 0af8 d1bb 59a7 03be 5b5b 9e3d b4ec fbbd
00000100: 8dc5 8d3d 3bbc 633e dfb9 2fbe 385e 0f3e
00000110: 692c 7f3e 9d3d 613c 65bb 50be f88f 3dbe
00000120: 0888 0f3d 8001 08be 979b 2d3e 40d9 a8bd
00000130: a49e 52be ebbd 5e3e 92f6 d3bd 9a92 10bd
00000140: 8e55 bcba 1f39 e13c 5ac4 87bd 4f0e 7a3e
00000150: ea47 4bbe 3874 f6bd be59 07be 2e42 e43b
00000160: f3f1 5bbe bab7 80be a39f 79be 3653 83be
00000170: fb49 973d 87f9 8f3e 73fc 973d 5b73 25be
00000180: 57c2 613e 0de6 583e 25cb c5bd 8f84 4b3e
00000190: 3f6f 1c3e 94c6 383e 194f 853d ed4d 82be
000001a0: 544a d6ba de39 da3d 145b 623e 4389 0e3e
000001b0: 120d 33be ad35 70be be0f fbbc fbbb 0c3c
000001c0: 85e0 873e 8d05 93be 4a3c 833e 63f2 83bd
000001d0: 5f67 78be c36a 81be 1b0e 353d 24ed cd3d
000001e0: 3ddb 893e 1e8d a3bc 7785 5d3d e9c0 3b3e
000001f0: 696c 54be 11a3 d93d c0b7 763d 4ac1 75bb
00000200: cb10 863d 2751 00be c3dd 3fbe acef cebd
00000210: 8612 67be 49bb 8c3e 4a70 1ebe d11f 843e
00000220: 7efc 8e3e d094 563e 4981 36bd f13c 653e
00000230: c5cb 55be e795 813d 6179 0ebd 46bd 25bd
00000240: efb4 2ebe 4802 8f3e a1cf 09be 1730 f53d
00000250: 1cc0 3bbe 5e91 483e b7bc 413d b718 4f3e
00000260: 135e d9bd 6ff2 05be c8ab 803e d0eb 7bbe
00000270: 5a1e bebd d1bc 0cbc 1f01 91be 1aa5 873e
00000280: fcde 08be 79e4 203d 9ebe 073e 4272 46be
00000290: ab86 38be 86e9 7d3e 0a49 0fbe 77ad 373d
000002a0: 465a 45bd 2860 3bbe 83d5 30be bfa1 553e
000002b0: f5ae 963b 3029 04be ad95 88bc e63d 6dbe
000002c0: 328e 89be 5427 7bbc 2255 8ebd ed1d a13d
000002d0: 7215 993d 4873 0d3e ca55 083e f03a 5fbd
000002e0: f136 993d b8a5 aa3d 1261 05be 5c67 fb3b
000002f0: b8ce bdbd c942 2e3e 2bf0 873e ae9b 773e
00000300: 04b9 303e 7027 bcbb 2318 78bc 0037 c53d
00000310: fcef 6f3e 5644 90bd 632a 5e3e 706c 16be
00000320: 67fb cebc 7761 203e 2d88 733e 0394 2c3d
00000330: 04f1 5fbd 5b24 8e3e 8b8d 9dbd d0bc 093e
00000340: 9b1c 283e 3b52 0e3d 39c5 8a3e 3fe9 ddbd
00000350: 940a 81be de64 a7bd abb9 613e 2bfe 40bd
00000360: ed84 b63d 87cd 343e 7369 e3bc fd8a 673e
00000370: ee2c 163d 7f74 84be 50fc 13bd 19f8 863e
00000380: ac94 4cbe 9dda 263e 28b9 09be be07 c93d
00000390: 00b5 67be e774 f53d 4d4f 6fbd 5010 84bd
000003a0: 0d08 3b3d 3163 863e 8514 f4bd f1d8 5e3d
000003b0: 4503 35ba 4ccf 63be ab48 4bbd e67d 3fbe
000003c0: 3a3f 933b df9e 73be 5f25 663e 2a2e 50bc
000003d0: 5fe4 25be ad7c d0bc f12d 22be c3eb d63d
000003e0: 8075 82bd 8146 50bd 7669 8abe c2ef 80bd
000003f0: 9f8b 603e ea36 7cbe a2a6 93be 6ff1 debd
0.1475163 0.17134595 -0.04106341 -0.037534334 -0.0657796 0.0062298584 0.040869467 0.0006740228
0.18870655 0.19232145 0.015828423 0.11046374 0.20360994 0.22360367 -0.13662368 -0.118944936
0.072254606 -0.25897443 0.117481396 -0.018342003 -0.13908324 -0.073513016 -0.18900359 -0.09930895
0.013187254 0.21135963 0.037062988 0.16540468 -0.24609238 0.033977885 0.13219854 0.20656689
-0.105968334 -0.26847848 -0.18724746 -0.19091137 -0.178234 -0.13212572 -0.24193715 0.21589142
0.1025681 0.1579961 0.2818508 -0.13439907 -0.087898076 -0.04404116 -0.24393567 -0.21801022
0.04011852 -0.15826581 0.27744684 -0.28023067 0.1813727 -0.032924592 -0.23380572 0.10952083
0.1517185 0.00091614353 0.23774828 -0.013608362 -0.0064077424 -0.12856807 0.077322684 -0.12301007
0.069224454 0.22239773 -0.17160748 0.14000785 0.24919285 0.0137476 -0.20383985 -0.18511951
0.03504184 -0.13281822 0.16953884 -0.08244562 -0.20568329 0.21752135 -0.10349764 -0.03529606
-0.0014368759 0.027493058 -0.06629248 0.24419521 -0.19851652 -0.12033886 -0.13217828 0.006965897
-0.21479015 -0.25140172 -0.24377303 -0.25649422 0.073871575 0.28120062 0.07421198 -0.16157286
0.22046791 0.21181507 -0.09657887 0.19874786 0.15276812 0.18044502 0.06509227 -0.25450078
-0.0016349056 0.106555685 0.22105056 0.13919549 -0.17485455 -0.23457976 -0.030647155 0.00858974
0.26538482 -0.28715172 0.25631934 -0.06442716 -0.24258183 -0.25276765 0.044202905 0.100549966
0.26925078 -0.01996475 0.05408236 0.18335308 -0.2074448 0.106268056 0.06023383 -0.0037499242
0.06546172 -0.12530957 -0.18736939 -0.101043075 -0.2256566 0.27486637 -0.15472522 0.25805524
0.2792701 0.20955205 -0.04455689 0.22386529 -0.20878513 0.0632742 -0.034783725 -0.04046371
-0.17061208 0.27931428 -0.1345811 0.11972063 -0.18335003 0.19586703 0.047299113 0.20224272
-0.10613646 -0.13080762 0.2513106 -0.24601674 -0.09283133 -0.008589939 -0.28321168 0.2649315
-0.13366312 0.03928039 0.13256308 -0.19379523 -0.18020122 0.24796113 -0.13992706 0.044843163
-0.048181795 -0.182984 -0.17268948 0.20862482 0.004598493 -0.12906337 -0.016672933 -0.23168144
-0.268663 -0.015329201 -0.069498315 0.07867036 0.074747935 0.13813508 0.13313976 -0.054499567
0.07481182 0.083323896 -0.1302531 0.0076722335 -0.09267944 0.17017664 0.2655042 0.24180481
0.17258078 -0.005742006 -0.015142473 0.09629631 0.2343139 -0.07044284 0.21695857 -0.14689803
-0.025266362 0.1566218 0.23782416 0.042133342 -0.05467321 0.27762112 -0.07693013 0.13450933
0.16417162 0.03474639 0.27103594 -0.10835504 -0.25203383 -0.08173536 0.22043483 -0.047117393
0.08912072 0.17656527 -0.027760243 0.22611614 0.036663942 -0.2587013 -0.036129296 0.26361158
-0.19978589 0.16294332 -0.13449538 0.0981593 -0.2262764 0.11985188 -0.058425236 -0.06448424
0.045661975 0.26247552 -0.11917976 0.05440611 -0.0006905089 -0.22247046 -0.04962985 -0.1870037
0.004493621 -0.23791073 0.22475193 -0.012706319 -0.16200398 -0.025450075 -0.15837838 0.10494187
-0.063700676 -0.050848488 -0.27033585 -0.0629573 0.21928261 -0.24630323 -0.28838068 -0.108858936

0.bias f4 [256]
00000000: d098 c7bd 4a7c 823e eb1e c2bd b0f3 dcbc
00000010: def5 84bd e520 59be e12f 733e d6f2 823e
00000020: 375a 68be 3a6b 95bd 22b7 023e 45e9 943d
00000030: 3901 1ebe 081d 29be 0afb 00be 7a93 213d
00000040: 1fea 91be a7d4 023d dda2 20be 8328 93be
00000050: 47df 543e 52f6 44bd 8d69 ac3d 5e76 58be
00000060: 2091 34be 551f 8abe 6afb e53d 57cc d53d
00000070: 40ae 8a3d 9612 87be 7a7e 713e cca6 87bd
00000080: 829d 373d ebf4 babd 06db db3c 8e90 b23d
00000090: 487b 8abe f643 683e 298d 9cbd bb23 343d
000000a0: a271 3e3d 22e2 80bb 7018 333e 1858 853e
000000b0: 2e8a 473e 2626 173e 0e77 883e b6b7 96bc
000000c0: f68b 263b 46c9 5d3e 497c 7e3e 0a5c c63c
000000d0: 233e 943d d3da 8dbe a06a 3fbe 12ba 1a3e
000000e0: 2383 413e 6fef e0bd 08c0 17be 167b 4b3e
000000f0: c004 8fbe ab26 623e ca7e 8d3e 73ed 42be
00000100: 6e83 153e d241 a8bd 6f1b 4d3e 33e7 43be
00000110: 4396 4f3e 2473 21be 0920 f8bd 1c3e 2abe
00000120: d7dc 143e 9ace 793d da56 66bc 99fc 78be
00000130: bc56 8cbe 104d 063e bf7b 7ebe 10da 1abd
00000140: fd08 813d 9f69 163d e5c8 7d3e 93ff 163e
00000150: e0ea 95bc 7945 873d 5d7b ecbd f7d3 ec3d
00000160: 88ec 4ebe c388 f1bd 4271 7e3e 2506 8e3d
00000170: d2a6 5c3d 0334 3c3e 9bce 6dbe 605f bd3c
00000180: 28f1 8bbe 4e60 4abe 37b9 203e 4dfc dabd
00000190: 6a2e 49be 4096 8fbd d7bd 443e f63a 6d3e
000001a0: 64ac 75bd e9f9 00be f67a 6b3e dc9d 4b3e
000001b0: 83ae f9bd 9a11 2e3e c9d3 72be 42ba 983d
000001c0: 7ad3 7fbe 025b 70be ed13 35be e132 87be
000001d0: 4845 d03c 0c3b 8c3d b0c6 043e daef 643e
000001e0: 6348 91be 0401 dfbd 2316 96bd 6b36 363c
000001f0: 51b8 73be 3f37 aebd e303 463c 19b8 4a3c
00000200: a0cc 77be 4125 efbd f71a 77be a9b7 0a3e
00000210: 4240 803e 2a56 6d3e 887f cdbc 44f7 433e
00000220: 9093 1bbe a0a9 9c3d 7643 833e 2477 073e
00000230: 3961 18be e7e0 3cbe 6503 71be 6516 bebc
00000240: ea71 833c 21d7 afbb ca80 9f3d 56ed 88be
00000250: 9695 4f3e eb45 6f3e 168f 123e 8cc9 3fbc
00000260: a7dd 8b3e b0dd 53bd 9a4f 90bd d315 963c
00000270: 67a2 6a3b c96d ad3d 9dda 653d b62c a1bd
00000280: bb60 6b3d 787b 1fbe 6eed 79be 9c8e 64be
00000290: 8ba9 a8bd cdb3 f4bd 6e30 683d 93f0 f13d
000002a0: 6126 6f3e 664a 893e b2bd 88be 3a08 53be
000002b0: d897 7d3e 4eb8 fabd c55a 1bbe 8fee 71bd
000002c0: 3d50 623e f9bb 49be 3e21 223e 6c63 8bbe
000002d0: 183d 563e f151 48be 3d77 76be db6f 3b3e
000002e0: 1bc8 6e3e d951 54be 33bd 1c3e ab57 433e
000002f0: a1dc 88be 144f 16be 9dba acbd 4640 a53d
00000300: c176 473e 7281 f03c 9a24 e73c ad58 ff3c
00000310: 13fd 793e d0ea 263e 88fa d13d 1289 29be
00000320: 1667 83bd 6a1c 88be c331 113e d0a5 473e
00000330: 2e1e eebd 78c5 70be 120e 8fbe 03c6 353d
00000340: ee05 0bbe e191 78bc 601b 3c3c 864a 53be
00000350: 6b67 233e 1ea7 903e 1c48 38be b4a3 863d
00000360: ea00 293e 51cc 39be 9f6f 9d3d 44d3 86be
00000370: 1330 7ebd 6134 8b3e a6f9 5abc 1f71 89be
00000380: 29c3 9e3c 9acb a3bd d293 4d3e f06e d63d
00000390: 0342 5d3e f551 d63c 8f50 39be 0dcf 673e
000003a0: 6c66 093d a46f 8dbe 4d1f 613e e1e9 8dbe
000003b0: 6f4d 9e3d d0ea 6cbd ed7d 62be 113d 703d
000003c0: 36c5 c6bc d5e4 58be 7c2c 0dbe bfd3 503d
000003d0: 0fae 82be 62f3 563e 4ccc 17bd 3592 393e
000003e0: 2c5e f63d 52a6 62be 202d 873e 388e 91be
000003f0: af3d d23d cbf1 3e3e 7ce4 aabd 2ad4 3dbe
-0.097459435 0.2548545 -0.094785534 -0.026971668 -0.06492208 -0.21203955 0.23748733 0.25575894
-0.22690664 -0.072958425 0.12765172 0.07271055 -0.15430154 -0.16514981 -0.12595764 0.039447285
-0.28498933 0.031941082 -0.15687127 -0.28741845 0.20788299 -0.04808647 0.0841857 -0.21138903
-0.17633486 -0.2697703 0.11229594 0.10439365 0.06771517 -0.26381367 0.23583403 -0.06623611
0.044827946 -0.09128746 0.026837837 0.08718978 -0.2704718 0.22682175 -0.07644112 0.043979388
0.046495087 -0.003933207 0.17489791 0.26043773 0.19486305 0.14760646 0.26653332 -0.018398147
0.0025413013 0.21658811 0.24852099 0.02421381 0.07238414 -0.27706012 -0.18693018 0.15110043
0.18897681 -0.10983168 -0.14819348 0.19871172 -0.2793331 0.22085063 0.27635795 -0.19035892
0.14600918 -0.08215679 0.20029996 -0.19131164 0.20272164 -0.15766579 -0.12115485 -0.16625255
0.14537369 0.060988046 -0.014058793 -0.24315108 -0.27409923 0.13115335 -0.24851893 -0.037805617
0.063005425 0.036721822 0.24783666 0.14745931 -0.018300474 0.06605048 -0.11546967 0.115638666
-0.20207417 -0.11793663 0.24847892 0.06934766 0.05387003 0.18379216 -0.23223345 0.023116767
-0.27332425 -0.197633 0.15695654 -0.10692654 -0.19646612 -0.0701108 0.19213043 0.23167023
-0.059978858 -0.12595333 0.22996125 0.19884437 -0.121914886 0.16998902 -0.23713602 0.07457401
-0.24983016 -0.23472217 -0.17683382 -0.26406005 0.02542366 0.068472 0.12966418 0.22357121
-0.2837554 -0.108888656 -0.07328441 0.011121373 -0.2380078 -0.08506631 0.012085888 0.012372994
-0.24199152 -0.116770275 -0.2413138 0.13546623 0.25049025 0.231774 -0.025085226 0.19137293
-0.1519301 0.07649541 0.25637406 0.13229042 -0.14880838 -0.18445168 -0.23536451 -0.023204038
0.01604553 -0.0053662215 0.077882364 -0.26743573 0.20271906 0.23366515 0.14312395 -0.011705767
0.27317545 -0.05172509 -0.07046433 0.018320953 0.0035802366 0.084682055 0.05611669 -0.07869856
0.057465296 -0.15574443 -0.24406978 -0.22320026 -0.08235463 -0.11948357 0.05668681 0.11813464
0.23354484 0.26814574 -0.26707226 -0.20608607 0.24764955 -0.122421846 -0.15171345 -0.059065398
0.22100921 -0.19700612 0.15832993 -0.2722429 0.20921743 -0.19562508 -0.24068923 0.18304388
0.23318522 -0.20734347 0.15306549 0.19076411 -0.26730826 -0.14678603 -0.08434031 0.080689
0.19478895 0.0293586 0.028215695 0.031170214 0.24412946 0.16300511 0.10252863 -0.16556194
-0.064161465 -0.26584178 0.14179139 0.19496846 -0.1162685 -0.23512828 -0.27940422 0.04437829
-0.13576481 -0.015171499 0.011481136 -0.20633897 0.1595742 0.282525 -0.17996258 0.06574193
0.16504255 -0.18144347 0.07687306 -0.26333058 -0.062057566 0.271884 -0.013365185 -0.26844117
0.019380169 -0.07997818 0.2007592 0.104703784 0.21607213 0.026162127 -0.18097137 0.22637577
0.033544943 -0.27624238 0.21984597 -0.27717498 0.07729613 -0.057841122 -0.2211835 0.058651987
-0.02426396 -0.21181042 -0.137865 0.050983187 -0.2552342 0.2099128 -0.037060067 0.1812218
0.120296806 -0.22133759 0.26401615 -0.28428817 0.102656715 0.18646924 -0.08344361 -0.18537965

1.weight f4 [256]
00000000: 09ba 803f aa18 803f abf3 803f 6bc7 7d3f
00000010: 679f 803f 1fdb 803f d5b9 7e3f 0ba5 803f
00000020: 2618 813f c16a 803f 4954 7e3f a1fe 7e3f
00000030: be5a 803f 15cd 803f 0e9a 803f 3dd9 803f
00000040: 270f 803f 0b58 803f d2fb 7e3f 16ea 803f
00000050: 655f 803f 454f 7e3f 0f96 803f 60ba 7d3f
00000060: 5b90 803f fc69 7f3f b4d1 7f3f c899 7f3f
00000070: f9a0 803f 3b90 7e3f d6c2 7f3f d2aa 803f
00000080: a34a 7f3f 9a7d 7e3f 7d47 803f 7dec 803f
00000090: 81d2 7e3f 8884 7d3f dd97 803f b3d7 803f
000000a0: 9644 803f 381d 803f 826d 803f 1409 813f
000000b0: b8dc 803f 0bfe 803f 1e8a 803f b442 803f
000000c0: 0c13 7f3f 8933 7f3f b835 803f 99a6 7e3f
000000d0: c98c 7f3f a730 7f3f c76b 7e3f 26b9 7f3f
000000e0: e599 7e3f 8090 7e3f feea 803f 2e63 7e3f
000000f0: e15e 7e3f 9755 7e3f 09db 7e3f 3948 803f
00000100: f59c 803f d821 813f 404e 813f f014 7f3f
00000110: ccad 803f a233 7f3f 5a6e 803f 7441 7e3f
00000120: 922f 7d3f 8875 7e3f 020b 813f 34ed 803f
00000130: f213 803f 63a6 803f 4e9a 7f3f 8b2a 7f3f
00000140: a62f 803f ee86 7e3f 8b80 7e3f 02fd 7e3f
00000150: 139f 7f3f 2785 803f 6d55 7e3f 0d19 7e3f
00000160: 2bd7 803f d2f6 7e3f b2dd 7f3f 3b55 803f
00000170: ebfa 803f d7e7 7f3f 57ca 7f3f 6625 7f3f
00000180: bcd4 7f3f be11 813f 9aca 803f 2383 7d3f
00000190: 9c86 7e3f c1f0 803f a820 7e3f db44 7f3f
000001a0: 5ead 803f 386c 7d3f fce3 803f 27fe 7e3f
000001b0: 31a4 803f 6248 7e3f 5243 7e3f 0ee5 803f
000001c0: a7cd 803f ac07 813f c7e2 7d3f 2e4a 7e3f
000001d0: 6382 803f d3fa 803f f267 7e3f 70bb 803f
000001e0: 79fc 7d3f ecfe 803f 813b 803f 0a82 803f
000001f0: 3bd5 7e3f 13a0 803f 53bc 803f c55a 7e3f
00000200: 1fe7 7e3f 090c 813f c126 813f 8ff2 7e3f
00000210: 3b38 813f 715c 7e3f d88c 803f baba 803f
00000220: e2e9 7d3f 7938 803f 69bc 803f b319 7e3f
00000230: e9f6 7e3f f77b 7f3f 13ad 803f 7857 7e3f
00000240: 226b 7e3f fa7a 7e3f aff4 803f afa8 7f3f
00000250: 7344 7e3f 52b2 7f3f 94ea 803f 9d96 803f
00000260: c776 7e3f a1d6 803f b758 7d3f 0521 803f
00000270: a8bb 803f 1e0b 813f 3564 7e3f b6cb 803f
00000280: 7c8e 7e3f f40c 803f 3f00 803f 5110 7f3f
00000290: 75d4 803f 92fb 803f 4911 813f ae55 803f
000002a0: aea5 803f 955b 7f3f d8f3 7e3f 2560 803f
000002b0: 6912 7f3f 561d 803f 419f 803f 063d 803f
000002c0: 72a8 7e3f d10c 813f e7ca 803f 2b74 803f
000002d0: 941c 813f 322a 7e3f d28a 7f3f 42d2 7e3f
000002e0: 4379 803f 812d 803f ad34 803f 3729 803f
000002f0: 7d69 7f3f 04bc 803f c110 803f ef8a 803f
00000300: d693 7f3f 4592 7f3f 67f1 7f3f 3fb9 803f
00000310: e844 813f ea46 813f 34b7 803f 7915 7e3f
00000320: 3551 7e3f 59a3 803f 6322 803f 867b 7e3f
00000330: e417 813f da53 803f 4378 803f 8f45 7e3f
00000340: 9779 7e3f 0c7b 7d3f f7e7 7f3f a482 7e3f
00000350: 6036 7e3f abb2 7f3f ba1c 7e3f 5a8f 7f3f
00000360: 4fe9 803f 60b6 803f a3fa 7f3f 8b7d 7e3f
00000370: b4bd 803f 1128 7e3f 23cf 803f 5300 813f
00000380: af41 7e3f 756c 803f 3b95 7e3f abbf 803f
00000390: 723e 7e3f 7ea5 7e3f 72e5 7e3f a8dc 803f
000003a0: f68e 803f b7e4 7e3f c6bb 7e3f 490d 7f3f
000003b0: f3cd 7e3f 6567 7f3f a97e 7f3f 33de 7f3f
000003c0: 35be 803f 16b9 803f 44c9 7d3f 14ea 7f3f
000003d0: 27f6 7e3f d2d6 803f 979a 803f 3430 803f
000003e0: c8c2 7e3f 896e 7e3f 63bc 7e3f 81a1 7e3f
000003f0: cd5b 803f 9580 7f3f 6a44 7f3f 5368 7e3f
1.0056773 1.0007527 1.0074362 0.9913241 1.0048646 1.006687 0.9950231 1.0050367
1.0085495 1.0032579 0.9934736 0.9960728 1.0027692 1.0062586 1.0047014 1.0066296
1.0004624 1.0026869 0.99603 1.0071437 1.0029112 0.99339706 1.0045794 0.9911251
1.0044054 0.99771094 0.99929357 0.99844027 1.0049125 0.9943883 0.9990667 1.005213
0.9972326 0.994104 1.0021816 1.007217 0.99539953 0.9903035 1.0046345 1.0065826
1.0020931 1.0008917 1.0033419 1.0080895 1.0067358 1.0077528 1.004215 1.0020356
0.9963844 0.9968801 1.0016394 0.9947296 0.99824196 0.9968361 0.99383205 0.9989189
0.99453574 0.9943924 1.0071714 0.99370086 0.99363524 0.9934935 0.9955297 1.0022041
1.00479 1.0088453 1.0102005 0.99641323 1.0053039 0.9968816 1.0033677 0.99318624
0.9890071 0.9939809 1.0081484 1.0072389 1.0006087 1.0050777 0.99844825 0.9967429
1.0014541 0.99424636 0.9941489 0.9960481 0.99852103 1.0040635 0.993491 0.99256974
1.0065664 0.9959537 0.99947655 1.002601 1.0076574 0.99963135 0.9991812 0.9966644
0.9993398 1.008354 1.0061829 0.99028224 0.9942415 1.0073472 0.9926858 0.9971444
1.0052907 0.98993254 1.0069575 0.99606556 1.0050107 0.993292 0.9932147 1.0069902
1.006276 1.0080466 0.9917416 0.9933194 1.0039791 1.0076545 0.9937736 1.0057201
0.9921337 1.0077796 1.0018159 1.0039685 0.99544114 1.0048851 1.0057472 0.99357253
0.9957141 1.0081798 1.0089952 0.99588865 1.0095285 0.99359804 1.0042982 1.0056984
0.99185 1.0017234 1.0057498 0.99257964 0.99595505 0.9979853 1.0052818 0.99352217
0.9938222 0.994064 1.0074672 0.99866766 0.99323195 0.9988147 1.0071588 1.0045964
0.9939999 1.00655 0.98963493 1.0010077 1.0057268 1.0081518 0.99371654 1.0062168
0.99436164 1.0003953 1.0000075 0.9963427 1.0064837 1.0076773 1.00834 1.0026147
1.0050561 0.9974912 0.99590826 1.0029341 0.99637467 1.0008953 1.00486 1.0018623
0.9947578 1.0082036 1.0061921 1.0035452 1.0086846 0.99283135 0.998212 0.9953958
1.0037006 1.0013887 1.0016075 1.0012578 0.9977034 1.0057378 1.0005113 1.0042399
0.99834955 0.99832565 0.99977726 1.0056533 1.0099154 1.0099766 1.0055909 0.99251515
0.9934266 1.004985 1.0010494 0.9940723 1.0085416 1.002559 1.0036701 0.9932489
0.9940428 0.9901588 0.99963325 0.9941809 0.9930172 0.99882 0.99262583 0.9982811
1.00712 1.0055656 0.99991816 0.99410313 1.0057893 0.99279886 1.0063213 1.0078224
0.99318975 1.0033098 0.9944646 1.0058492 0.99314034 0.9947127 0.99568856 1.0067339
1.0043628 0.9956774 0.9950527 0.99629647 0.99533004 0.9976714 0.99802643 0.99948424
1.0058047 1.0056484 0.9913523 0.9996655 0.9959435 1.0065558 1.0047177 1.001471
0.9951596 0.99387413 0.99506205 0.99465185 1.0028015 0.99805576 0.99713767 0.99377936

1.bias f4 [256]
00000000: 8ec4 bb3b 81df e33a 2954 f43b 3ec7 0c3c
00000010: 4976 8d3b a080 033c b3ce 98bb 4c65 a4bb
00000020: 9f27 083c 25e2 50bb 10df d8bb 9c5e 7d3b
00000030: ad77 36bb d94c d3bb b854 9abb b0d0 dc3b
00000040: 33d2 1d3a 2aa9 3abb 3306 80bb a6e9 ebbb
00000050: 13cd f93a 7806 ccbb 09d5 9ebb 6a06 a7bb
00000060: c598 86bb 8b4d 163b 104a d839 cf65 7aba
00000070: 9540 a2bb ea79 b7bb 6f1b 69ba 0d7c abbb
00000080: 6dce 623b b3d5 be3b d08c 913a 5f8f e63b
00000090: 41f6 8e3b 503e 223c 99ff 983b 3d79 d7bb
000000a0: 1291 1d3b 0103 bdbb ef32 a23b b081 323b
000000b0: 11fd e13b 7efd 053c eb55 883b 8ef8 14bb
000000c0: da99 833b e962 14bb 5938 dbba db31 c23b
000000d0: 910e c2ba 0003 4bbb 7f5e c9bb 5255 0fb9
000000e0: 1550 b1bb 8ce6 5abb 3282 c73b 5a10 c23b
000000f0: 38b8 cf3b f28e d3bb f829 87bb d814 14bb
00000100: 4d0a 4c3b 51f3 0ebc 49be 27bc 59fd 8a3b
00000110: b935 ae3b d340 953b 0d81 a4bb fb13 dd3b
00000120: 9537 31bc 803d c4bb 4221 063c a0da e8bb
00000130: 902c 50ba e456 aabb 7ecf e13a ed1b a73b
00000140: 0176 26bb 9b0e a8bb cd2b b1bb b380 a13b
00000150: f00d b837 20c1 903b 1cb3 ccbb ff29 f43b
00000160: 360d d83b b056 84bb e380 c03a 3cda f63b
00000170: 00ea e8bb 6faa 89b9 84ce 1e3a 1a99 723b
00000180: 441f 63ba b776 08bc 9fcf ccbb 390a 2a3c
00000190: a206 ac3b 5591 f0bb 4441 f0bb a404 3e3b
000001a0: 1135 11bb d4d5 063c e557 e3bb b2da 81bb
000001b0: 807d a9bb f22f dbbb 8eb7 df3b b0f2 e73b
000001c0: 0fd1 c5bb a2a9 023c ee9f 023c 867a c0bb
000001d0: 5494 85bb feb3 853b f559 e3ba d8c0 b83b
000001e0: 14e3 fdbb f6c1 0fbc 0223 f3ba d3c2 81bb
000001f0: c0f7 8e3b 8654 d13b 99ab dabb 849b 79bb
00000200: 7d91 88bb 0000 b13b b446 0fbc 41c0 13bb
00000210: d215 1a3c 3ef5 c93b dbc8 8b3b 3b31 123c
00000220: 8203 06bc bf85 e63a c0bf b8bb 2e29 e6bb
00000230: 1678 82bb fe7b e1ba a005 c13b 25e2 d9bb
00000240: a909 cabb dc73 c0bb 7262 eebb ccc5 053b
00000250: 206d ddbb 1e0e 813a fa3d ee3b e203 96bb
00000260: f146 c1bb 72fe cdbb 6062 b33b 4fc3 8eba
00000270: 50ee ba3b 71fd 02bc 7cbb 6dbb 6d99 cabb
00000280: d6b8 98bb 9b1e e6b8 4298 9738 2683 6e3b
00000290: 644e d43b 5249 063c 2680 e43b ae0b 933b
000002a0: d397 c33b faa9 0a3b 65ba 86bb 3b3c 5b3b
000002b0: ccdf 63bb 1662 9dba 25bb 9ebb bb2f 453b
000002c0: a8a4 9f3b 0315 06bc 5c5b d3bb b39a dabb
000002d0: 6a72 0b3c de9f e0bb ac78 fd3a a7e6 8cbb
000002e0: f15f bcbb 5a63 beba ae13 013b ef37 95ba
000002f0: 48a7 113b 8d60 bcbb c14a 453b b987 83bb
00000300: 3245 d83a a877 a53a 6c74 ca38 1490 aebb
00000310: 52e7 213c 0c0b 22bc 6903 d3bb d95d f73b
00000320: ea41 9ebb f089 abbb bb6f 8e3a 918f 8dbb
00000330: 1123 0d3c 0bd5 4c3b 116f 003b f73c d53b
00000340: 9e37 c33b 0756 23bc 647c a4b9 cf1b a8bb
00000350: 9745 e33b ee48 82b9 4eda f3bb 58eb fdb9
00000360: 04dd e9bb 496a c03b ba29 ba39 8720 aa3b
00000370: fcdb c53b 48b6 efbb 5d8f d13b 5369 013c
00000380: 179e cb3b 17da 4ebb 7454 b33b 48d3 c63b
00000390: 1d4f e03b c1b8 b2bb e382 8d3b 6e5d 6c3b
000003a0: 8cb1 cebb 1a0f a5bb 0b0f 98bb 4ceb 963b
000003b0: 6416 993b e8a6 6b3b e051 1a3b 3211 f139
000003c0: 7c64 023c 70e8 b73b ffe8 f73b 2777 bbba
000003d0: 0542 693b 72ab e13b a94c ccbb 6463 be3a
000003e0: 6deb 9e3b 7758 c73b bced 613b 2eef a6bb
000003f0: 3aa3 3a3b 3185 02bb 6fa3 0dbb da70 cc3b
0.0057302183 0.0017385335 0.0074563217 0.008592425 0.004317079 0.008026272 -0.0046633123 -0.0050169583
0.008310228 -0.0031873074 -0.006618388 0.0038661128 -0.0027842328 -0.00644837 -0.0047098063 0.0067387447
0.0006020397 -0.0028482177 -0.003906989 -0.007199484 0.0019058309 -0.006226357 -0.004847173 -0.0050972
-0.004107567 0.0022934403 0.0004125391 -0.0009551914 -0.0049515464 -0.00559925 -0.00088923326 -0.005233294
0.0034607903 0.005823815 0.0011104587 0.007036134 0.004362852 0.009902552 0.0046691415 -0.006575732
0.0024042767 -0.0057681804 0.0049499194 0.0027237944 0.006896623 0.008178113 0.004160633 -0.0022731158
0.0040161433 -0.0022641963 -0.0016725167 0.0059263534 -0.0014805367 -0.003097713 -0.006145298 -0.00013669327
-0.005411158 -0.0033401577 0.0060885185 0.0059223594 0.0063390993 -0.0064562494 -0.004124876 -0.0022595432
0.003113407 -0.008725003 -0.010238239 0.004241627 0.005316463 0.004554847 -0.005020267 0.0067467666
-0.010816474 -0.0059887767 0.00818664 -0.0071061403 -0.00079412106 -0.0051983465 0.0017227975 0.0050997646
-0.0025399926 -0.005128694 -0.005406833 0.004928672 2.1941e-05 0.0044175535 -0.0062469374 0.0074512954
0.0065933717 -0.0040386543 0.0014686849 0.00753334 -0.007107973 -0.0002625766 0.0006057995 0.0037017525
-0.0008664022 -0.008329085 -0.0062503363 0.010378414 0.005249814 -0.0073415437 -0.007331999 0.0028994465
-0.0022156874 0.008229692 -0.006937968 -0.003962838 -0.0051724315 -0.006689065 0.0068273013 0.007078491
-0.0060368846 0.007975014 0.0079727005 -0.005873981 -0.00407652 0.0040802946 -0.0017345535 0.005638223
-0.007748017 -0.008774271 -0.0018549862 -0.0039599924 0.00436303 0.00638825 -0.006673288 -0.003808708
-0.004167734 0.0054016113 -0.008744884 -0.0022545012 0.009404616 0.0061632684 0.004265887 0.00892287
-0.008179547 0.0017587467 -0.0056380928 -0.007023952 -0.0039816005 -0.001720309 0.005890563 -0.006649273
-0.0061657024 -0.0058731865 -0.007274919 0.0020412086 -0.0067573935 0.0009846126 0.007270572 -0.0045780996
-0.0058983495 -0.0062864358 0.0054743737 -0.0010891947 0.0057046786 -0.007994995 -0.003627508 -0.0061828406
-0.004660706 -0.00010972955 7.228601e-05 0.0036394089 0.0064790715 0.008196192 0.0069732843 0.0044874763
0.0059690266 0.0021158443 -0.0041115754 0.0033452648 -0.0034770845 -0.0012007381 -0.0048440867 0.0030088264
0.0048719235 -0.0081837205 -0.0064501 -0.0066712736 0.008511165 -0.006854995 0.0019338331 -0.004299957
-0.005748742 -0.0014525459 0.0019695568 -0.0011384467 0.0022224952 -0.0057488144 0.0030104371 -0.004013982
0.0016500114 0.0012624161 9.653796e-05 -0.005327234 0.009881811 -0.009890329 -0.0064396155 0.0075490293
-0.004829635 -0.0052349493 0.0010867039 -0.004320093 0.0086143175 0.0031254913 0.001959745 0.0065075117
0.005957558 -0.009969241 -0.00031373196 -0.005130268 0.006935786 -0.0002484987 -0.0074417954 -0.00048431265
-0.007136943 0.005872045 0.00035507773 0.005191866 0.006038187 -0.007315431 0.006395264 0.007898646
0.006213914 -0.0031563097 0.005472714 0.006067667 0.0068453685 -0.0054541533 0.0043185814 0.003606643
-0.0063077863 -0.0050372006 -0.004640465 0.0046056863 0.0046718586 0.0035957638 0.0023547336 0.00045979914
0.007958528 0.0056124255 0.007565617 -0.0014302478 0.003559233 0.006886893 -0.0062347245 0.001452547
0.0048498423 0.006083544 0.0034473976 -0.0050944304 0.0028478638 -0.0019915814 -0.0021612307 0.006239039

4.weight f4 [256, 256]
00000000: fc94 7bbd 6d5d 57bd cd0f 023d e36f 813d
00000010: c868 44bd 5e38 293d 8f52 523c a706 343d
00000020: 5a2c 8c3c 6181 7c3d 2525 2e3d 389d 083c
00000030: 7406 2abd 88f3 753d ec66 51bd f9a5 86bc
00000040: 10a6 603c b811 2dbd b1b9 5abc 3625 c53c
00000050: c227 103d 63d2 36bd 45c0 7b3d 2ae5 383d
00000060: 3a5a 97bc 6084 d1bc 558a 08bd e3e2 043d
00000070: 536c ec3c a972 16bc 1f29 b93c ce44 54bc
00000080: 31bb 3b3d b162 c2bc 9802 273d 38d5 18ba
00000090: 4af1 423d e581 5a3d 0618 84bd b3f1 933c
000000a0: dadf 72bd 0393 5a3d a486 c4bc 0b38 1b3d
000000b0: d384 44bd 5557 19bd f65c 47bd bca7 5b3d
000000c0: bc62 ccbc 9e22 8bbc 6681 e03c 84ca 803d
000000d0: af61 1e3b eb4c 703c 7a5e b4bc 0804 4ebc
000000e0: 3a45 e1bc 63e4 f5bc bbf0 033d 8347 9abc
000000f0: 16b9 1ebd f5be 0abd 3788 e83c 4075 393a
00000100: 0984 ac3c 435a 7a3d 90d6 e4bc f26f 70bc
00000110: 3c69 0dbd 9b71 a63b f326 a23c 0883 5b3d
00000120: d36a 2abc 00b3 8d3b db33 ec3c 645a c33c
00000130: 468b 563d c45a 4a3d a11f a7bc 971d 69bd
00000140: 9156 e33c c8ac 553c 11a9 60bd c5fd 90bc
00000150: 9605 f739 9cf3 e3bc b139 bb3c f0cc 8f3c
00000160: e838 fb3c 18b2 4c3d 2c8c 5ebd e15c 153d
00000170: 5ac1 803d 81a6 8dbc 024e 653d d3b9 b2bb
00000180: b303 22bb 9b67 73bb 3c30 0a3d 01de 19bb
00000190: 6bd6 0abc 835b e6bc fbe0 59bd 7c32 4fbc
000001a0: 8066 0c3d 35cf 89bb ad1e aa3a 6e20 873c
000001b0: e5b4 babc 9895 debc 5635 2f3c 330f 1a3d
000001c0: 9b98 e6bb 1e35 fbbc 9127 83bc 0a03 6cbd
000001d0: eded a8ba 7f10 d5bc fde2 883c 6100 0b3d
000001e0: 8c51 3f3d e35d 39bc 1ea2 77bc 3114 5dbd
000001f0: ba81 75bc 8fd0 1a3c a2ea cf3c 5cef a83c
00000200: ddb1 d2bc ce7b b43c 6e69 5b3c c345 293d
00000210: 4353 2bbc 362c 69bc 7792 393d 160e 13bd
00000220: cd5d e0bc 7d78 25bd 1318 b0bc 61ca 2cbd
00000230: 67ae 49bd f92e 1abd 53fe 2c3d 2071 76bd
00000240: c4f7 87bd 6be2 4bbc f2fb 453d 4112 80bc
00000250: 0049 143d 7f6b 07bd 9935 483d cd5d 5d3c
00000260: 060c aebc 028f e63c cb45 7b3d 713e 8dbc
00000270: cd52 77bd 4a46 f9bc 61cf 0d3d e7dd d93b
00000280: 2c1f e2ba 922a 043d 82d6 7e3d 8a66 cdbc
00000290: 3f90 ceba 7898 4ebc dbc0 003d b953 00bd
000002a0: c181 81bd 44c4 79bb c8a8 71bb d85f 583d
000002b0: cb1e 423d 8e51 4a3d 399f 5bbd f264 173d
000002c0: 9dec bc3c 89e2 03bb 1457 203d a546 463d
000002d0: 4d3e aebc e78f 183d 1797 b1bc b029 11bd
000002e0: 7dd2 da3c 627b 483d 795b 85bd 5c66 9cbc
000002f0: a12c 2abd dc74 27bd f3ec 053d 5d9c 45bc
00000300: a293 fdb8 2cf7 6f3c 2450 42b7 0269 843d
00000310: c2c7 313c 089a 873d c4c6 d23c 05c4 41bd
00000320: c329 5cbc 1baa 1dbd fa97 e8bc 88f6 87bd
00000330: 9fcb 3e3d de6e cfbb 13a9 64bc 0b2a a13c
00000340: b9c7 31bd 23d4 6fbc b710 bd3c 16c2 243d
00000350: a05d 62bd 68ea 22bd fce0 7abd eb4c 1abd
00000360: 4146 f13c 9b9e 7f3b 25b5 fe3c de2f 763d
00000370: 0762 ce3c 6d6e c53c 4f48 853c 4130 803c
00000380: 05d5 a4bc ace9 3dbd d2d2 2fbd c08e b4bc
00000390: f3bc 4cbd 766a 74bd 8fce 353d b823 18bd
000003a0: 3ed8 053d f6cf 5f3d 029e 61bd 26da 843d
000003b0: 2d12 bcbc 0cb7 4c3d 09fc 4b3c 6358 593d
000003c0: 3b3d 42bc 71a9 d63c 8d3e c03c 4235 653d
000003d0: d501 42bd b366 243d 8c58 503c d35c 083d
000003e0: 865b 92bc 93da 54bd 358d 47bc ca58 b63c
000003f0: 27de 7bbd 6911 a9bc 64b5 533b 1188 153d
-0.06142138 -0.052579332 0.03175335 0.06320169 -0.04795149 0.04131352 0.012837066 0.043951657
0.017110992 0.061646823 0.042515893 0.008338265 -0.04151006 0.060046703 -0.051123545 -0.016436564
0.013711467 -0.042253226 -0.013349936 0.024065595 0.035194166 -0.044634234 0.06146266 0.045140423
-0.01847564 -0.025575817 -0.03333505 0.03244294 0.028860247 -0.009182611 0.022602616 -0.012955857
0.045832817 -0.0237287 0.040773958 -0.0005830112 0.047593392 0.053346533 -0.064498946 0.018059587
-0.059295513 0.053362858 -0.023989983 0.037895244 -0.047978234 -0.037436802 -0.04867264 0.05362676
-0.024949424 -0.01698428 0.027405452 0.06288627 0.002416711 0.014666776 -0.022017706 -0.012574203
-0.02749883 -0.03001613 0.032212 -0.018832928 -0.03875073 -0.033873517 0.028385265 0.00070746616
0.021059053 0.061121237 -0.027934343 -0.014675127 -0.034524187 0.005079461 0.019793963 0.053591758
-0.010401445 0.004324317 0.02883332 0.023846813 0.052378915 0.049402967 -0.020400824 -0.056912985
0.027751239 0.013041683 -0.054848734 -0.017699132 0.00047115673 -0.027826123 0.022854658 0.017553777
0.030666783 0.04997453 -0.054332897 0.03646553 0.06286879 -0.01729131 0.055982597 -0.005454281
-0.0024721443 -0.003714061 0.033737406 -0.0023478272 -0.008473973 -0.028119808 -0.053193074 -0.012646314
0.03427744 -0.004205609 0.0012979113 0.016494956 -0.022791335 -0.027170941 0.010693869 0.03761215
-0.007037235 -0.030664977 -0.016010078 -0.057620086 -0.001288829 -0.026008843 0.016709799 0.03393591
0.04670863 -0.011313888 -0.015114335 -0.053974334 -0.0149845425 0.009449138 0.025380436 0.020621948
-0.025719577 0.02203169 0.013391836 0.041326296 -0.010456863 -0.014231732 0.045305695 -0.035902105
-0.027388478 -0.04039811 -0.021495854 -0.04218519 -0.04923859 -0.037642453 0.04223473 -0.06016648
-0.066390544 -0.012444119 0.048335977 -0.015633704 0.03620243 -0.0330615 0.04887924 0.013511133
-0.021245968 0.028144363 0.061345857 -0.017241688 -0.0603817 -0.030429024 0.0346216 0.0066487673
-0.0017251722 0.03226716 0.06221629 -0.025073308 -0.0015759541 -0.012609594 0.03143392 -0.031329844
-0.06323577 -0.0038111368 -0.0036874283 0.05282578 0.047392648 0.049394183 -0.053618643 0.036961503
0.023062045 -0.002012404 0.039145544 0.048407216 -0.021269942 0.03724661 -0.02167849 -0.035440147
0.026711697 0.048945792 -0.06511588 -0.019091778 -0.041546468 -0.04088293 0.032696676 -0.012061206
-0.00012091479 0.014646333 -1.158196e-05 0.06465341 0.010850849 0.06621176 0.025729544 -0.04730608
-0.013437691 -0.038492303 -0.02839278 -0.06638819 0.046580907 -0.006330355 -0.013956326 0.019673368
-0.04340336 -0.01463798 0.02307926 0.040224157 -0.05526507 -0.03977433 -0.061249718 -0.03767101
0.029452445 0.0039004448 0.031092236 0.060104243 0.025193227 0.024100507 0.016269831 0.01564801
-0.020121107 -0.046365425 -0.042925663 -0.022040725 -0.049984884 -0.05967184 0.044386443 -0.03714344
0.032676928 0.054641686 -0.05508233 0.06486921 -0.022957886 0.049979255 0.012450227 0.053062808
-0.011855419 0.026203843 0.023467327 0.055958994 -0.04736503 0.040137004 0.012716424 0.03329165
-0.017865907 -0.05196626 -0.0121796625 0.022259135 -0.061491158 -0.020638185 0.0032304162 0.036506716

4.bias f4 [256]
00000000: 9080 0b3d 9ca7 00bd 0f97 3abd 6065 3f3d
00000010: 141c 09bc bf43 0d3d 9ccf 15bd db26 a4bc
00000020: c150 f43b ef7c bcbc 0c58 ff3c 355f 4c3d
00000030: ca94 ba3b e2c4 0c3c 2cbe dcbb 62e5 463c
00000040: 23f8 e33c 9eef 593d c3fd 133d 81a1 30bc
00000050: 9d1e 5abc 2dc6 76bd a351 f9bc d5a2 6abc
00000060: d2d3 c43b d3d5 47bc 1e3b 1fbd b669 daba
00000070: 7157 11bd 85f6 8f3c 147f 5fbd 9d2c c6bc
00000080: 9b6f 81bd 48c5 e13c 921b f33c 3ce1 f53c
00000090: c0e3 b13c ebf9 09bc f647 86bd 1d44 1e3d
000000a0: a564 57bd 86b5 3fbc eca0 bebc dd4b 2abd
000000b0: a903 ec3c b759 2ebd 6c2c 873c 34d1 b03c
000000c0: b9dc 183c e2e5 fc3c 9985 6fbc d22c 90bd
000000d0: edd2 4e3d 6aee 963c 8487 1e3d 833d 8ebc
000000e0: cd2d 2cbc 0500 683d 47a7 ea3b e1f3 29bc
000000f0: b754 24bd 6b43 92bc 1d11 4f3d e2c1 87bd
00000100: 496b 6f3d 5aaf a1bc b436 603d 46a9 343d
00000110: c6b7 2c3d f6b0 1d3c 2945 183d 64e0 483d
00000120: b98e 193d 707e c739 56ed c33c 0118 35bd
00000130: 4d73 473d e942 68bd 0349 c9bc 2d97 74bd
00000140: 38b5 91bc 90e9 603d be94 5bbc 9e54 223d
00000150: 1fd5 d8bc dac2 713d 9620 fb3c baf2 5ebc
00000160: 14f2 1abd fd23 81bc c2e4 3a3d aa8e 663d
00000170: 5aab 743d 3ef3 a9bc 624c 4cbd 041e 87bd
00000180: cf03 693d 6a81 49bd bc8d 0abd 5282 483c
00000190: 06e6 e43b 2b8a 243d 71f6 7cbd 5d69 c63c
000001a0: bcc3 f33c 1cdd 22bd f82c 83bd 3531 6c3d
000001b0: 7e3a 84bb 9a99 eabc 6be6 48bd 1344 67bc
000001c0: 6850 46bd 9a56 04bd 8f6e 7cbd 10c7 7c3d
000001d0: 6a71 1b3d 2efd 45bd 68d1 423b 7df8 463d
000001e0: 936f 0fbd dc41 c23c 67a1 6d3d 26c2 2c3d
000001f0: a274 223d 2cbf e1bc e292 0e3d 3249 803c
00000200: 5aa5 1c3c f28e 2e3c 2836 9d3a 6767 7f3c
00000210: 7955 593d 8219 d33c 29a2 01bd 5861 38bd
00000220: 8ff0 1d3d bc0e 54bd 89fd 95ba acea 26bd
00000230: fbea 0b3d bdfb 043d 1f62 583b d77c 4abd
00000240: 1c9d 51ba 21ac 2eba a7be a4bc 4f33 3dba
00000250: a6f7 e7bc 6c9c 553d a3f8 043a f1d3 6b3d
00000260: 448b a8bc 1eb8 ce3c 70c0 763d 4c30 dcbc
00000270: 1955 67bd 505d eb3c 9d4f 053c 0d85 51bd
00000280: 17e2 9bbc a8aa af3c c828 20bd 4fee 5ebc
00000290: 6d99 6fbd d947 2e3d 587a 693d 91cd 323d
000002a0: 8a4b 3d3d e55f 51bd 86e0 803d b039 84bd
000002b0: 268b c8bc 85bf 68bd 25df 0dbd 3558 50bd
000002c0: d5b6 e53c 95f7 8cbc c9cc 7b3d c108 b43c
000002d0: 7723 963c e038 473d ad43 bcbc 0050 833c
000002e0: c1b9 17bc a578 cbbc fb44 2e3c 19ed 083d
000002f0: ac48 32bc 3ac4 24bc 9c40 14bd 0167 60bc
00000300: dbd8 39bd a86c 3bbd b6db 883d 5f39 093d
00000310: 358c 7b3c 5664 70ba b553 0fbc 3dac 6fbc
00000320: 71f9 60bd a174 153d bfae bbbc d9e3 05bd
00000330: 8c14 0e3d ffe7 86bc 5f45 413d af2f 523d
00000340: 837f 3e3d 44bf f2bc e6a2 ce3c 58ab 26bd
00000350: e1a9 9cba 8df5 82bc a769 573d 5c5c 473d
00000360: a92a 5fbb 5f33 6fbd 1af3 b33b 9186 e43c
00000370: 7094 5abd 308a 8bbd e946 13bd f1a0 dbbc
00000380: c43e 23bd 9d11 6dbd 3e60 143d 247b dcbc
00000390: fabf ca3c 8531 223a 5356 25bc b285 dcbb
000003a0: dcf5 61bc 89a0 75bd 2ad7 543d 32de e4bc
000003b0: 460f a73c 7f6b 43bd 184c 233c 73c3 37bd
000003c0: 5bec 90bc 0e3f 223d cf4d 74bd 67ca 9fba
000003d0: be5c 4b3d 1700 2fbd e804 57bd cff1 a4bc
000003e0: ec3d 933b 736f c73c 5857 8bbb 2567 d23c
000003f0: 8220 7dbc d588 4d3c a610 483c 7697 aa3b
0.034058154 -0.031409845 -0.045554217 0.046727538 -0.008368511 0.034488436 -0.036574945 -0.020038059
0.0074559157 -0.023008792 0.031169914 0.049895484 0.0056940066 0.008591862 -0.0067365374 0.01213965
0.027828282 0.053207032 0.036130678 -0.010780693 -0.013312963 -0.06024759 -0.030434435 -0.014321049
0.0060066963 -0.012196976 -0.038874738 -0.0016663584 -0.03548378 0.017573604 -0.05456455 -0.024191195
-0.06320115 0.027559891 0.029676232 0.030014627 0.021715045 -0.0084214015 -0.06556694 0.038639177
-0.052586216 -0.011700993 -0.023270093 -0.041576255 0.028810339 -0.042566027 0.016500674 0.02158413
0.009329968 0.030871335 -0.0146192545 -0.07039799 0.050494123 0.018424232 0.038703457 -0.017363315
-0.010508967 0.056640644 0.0071610543 -0.010373087 -0.040119853 -0.017854413 0.05055343 -0.06628777
0.058451924 -0.019736934 0.05473967 0.044106744 0.042167448 0.00962471 0.03717533 0.04904212
0.037489627 0.0003805044 0.023916882 -0.044212345 0.048693944 -0.056704435 -0.024570948 -0.059714485
-0.017786607 0.054910243 -0.013402162 0.03963148 -0.026468812 0.059023716 0.030655187 -0.013607675
-0.03782852 -0.01576423 0.045628317 0.0562884 0.059733726 -0.02074587 -0.04987753 -0.06597522
0.056888398 -0.049195684 -0.033826575 0.012238102 0.0069854287 0.04017083 -0.061758462 0.024220163
0.02975642 -0.039761648 -0.064050615 0.057664115 -0.004035293 -0.028637696 -0.04904787 -0.014115351
-0.048416525 -0.032309152 -0.061628874 0.06171328 0.037949957 -0.048337154 0.0029726867 0.04857682
-0.035018515 0.023713045 0.058015253 0.042177342 0.03966201 -0.027556978 0.034808047 0.015659902
0.009560907 0.010654198 0.0011994289 0.015588618 0.05306003 0.025768999 -0.03164879 -0.04501471
0.038559493 -0.051771864 -0.0011443357 -0.040751144 0.03415964 0.03246664 0.003301747 -0.049435463
-0.00079961284 -0.00066632224 -0.020110441 -0.00072174234 -0.02831633 0.05215113 0.000507245 0.05757517
-0.02057422 0.025234278 0.060242116 -0.026878498 -0.05647764 0.028731018 0.008136657 -0.051152278
-0.019028706 0.02144368 -0.039101392 -0.013606622 -0.058495928 0.042548988 0.05700144 0.043653075
0.046214618 -0.051116843 0.062928244 -0.064563155 -0.024480414 -0.056823272 -0.034636635 -0.05086537
0.028041283 -0.0172079 0.061474595 0.02197683 0.018327458 0.048638225 -0.02298149 0.016029358
-0.009260596 -0.024837801 0.010636563 0.03342924 -0.010881584 -0.01005655 -0.03619443 -0.013696433
-0.045372825 -0.04575792 0.066825315 0.03350198 0.015353252 -0.00091702247 -0.008747985 -0.014628467
-0.054925386 0.03648818 -0.022910474 -0.032687996 0.034687564 -0.016468046 0.047185298 0.051315006
0.046508323 -0.029632218 0.02522416 -0.04069075 -0.0011952483 -0.015986228 0.052590992 0.048672065
-0.0034052527 -0.0583986 0.0054916264 0.027896198 -0.053364217 -0.068134665 -0.035956297 -0.026810141
-0.03985478 -0.057878125 0.036224596 -0.026914187 0.024749745 0.00061871886 -0.010091382 -0.006729805
-0.013791528 -0.05996755 0.05196301 -0.027937982 0.020393025 -0.04770994 0.009966873 -0.04486413
-0.017690828 0.039610915 -0.059644517 -0.0012191058 0.049648993 -0.042724695 -0.052494913 -0.020134835
0.0044934656 0.024345135 -0.0042523555 0.025683949 -0.015449645 0.01254483 0.012211001 0.005206044

5.weight f4 [256]
00000000: 84a3 803f 5132 7f3f 4331 813f b85e 7d3f
00000010: 2402 813f e1f9 803f 6460 803f c9c1 803f
00000020: 9036 7e3f abcd 7f3f c011 813f dcfd 803f
00000030: 3ecd 803f 1591 803f 8339 7e3f bbd6 7f3f
00000040: 0c1c 803f e678 803f 9b93 7e3f c68a 7e3f
00000050: 2978 7e3f 951e 803f b396 803f 35a6 7f3f
00000060: ed78 7f3f 451a 813f d00e 803f 6997 803f
00000070: f261 803f 7428 7f3f 43e7 7e3f 628f 7e3f
00000080: 9e12 7f3f c19c 803f 28fd 7e3f a7a3 7e3f
00000090: 9397 7e3f 02bf 803f c601 813f b741 803f
000000a0: fc43 813f 20bd 803f c290 7e3f 835d 7f3f
000000b0: 0b18 803f 7271 803f 5523 803f 3919 803f
000000c0: f4a1 803f 49b6 7e3f 37ab 7e3f 19fb 803f
000000d0: d2a7 7e3f fb32 803f e160 7e3f 6ab1 7e3f
000000e0: 6a63 803f 22bf 803f cf99 803f 35e5 7f3f
000000f0: 37fa 7e3f 3bc8 7f3f 01c7 803f 2fd5 7e3f
00000100: b989 7e3f 1db4 7f3f 77ff 803f e08e 7f3f
00000110: 0c5e 7f3f 0a9f 7d3f cb92 7e3f a48d 7e3f
00000120: be3b 7e3f 6a8f 7f3f 4089 803f d3f3 803f
00000130: 2b9c 7e3f 20f2 803f aa3f 7e3f 461a 7f3f
00000140: c68a 7e3f 0ce5 7e3f 69ad 7e3f 29b8 803f
00000150: 8d1b 813f f833 7d3f 55d2 7f3f 7109 803f
00000160: cf92 803f 3bc3 7e3f f0c0 7e3f 3dfa 7e3f
00000170: ec47 7d3f 0163 7e3f a062 7f3f aac1 803f
00000180: db9c 7e3f f64b 7e3f b897 7f3f 4975 7f3f
00000190: d720 803f 94c9 803f 0fd2 7e3f 664b 7e3f
000001a0: 1709 813f ee9b 7e3f 8a0f 7f3f 4a0f 7d3f
000001b0: f887 803f 6ad8 7f3f 2ea9 803f 2ddf 7d3f
000001c0: ad35 803f 3413 803f 823e 7e3f 27ea 7f3f
000001d0: 0db3 803f d290 7f3f c692 7e3f 77e3 7e3f
000001e0: 0f92 7e3f 8d15 803f 0364 803f 1e2b 803f
000001f0: 12b3 7d3f 6b2b 7f3f 8fa6 7e3f cdd4 7e3f
00000200: 7cfc 803f 1643 7f3f 8019 803f bb5b 813f
00000210: 2693 803f e009 7f3f cfb2 7f3f 7f6f 803f
00000220: 17f6 7e3f a94a 7e3f cf5b 803f 8db0 7e3f
00000230: 429b 7f3f 438f 7e3f f76a 7d3f 75fd 7d3f
00000240: e945 7f3f c4d8 7d3f 9645 7f3f 7d78 7e3f
00000250: bf92 7d3f 85c6 7e3f 3b4f 7f3f bfeb 803f
00000260: ab38 803f 0903 813f 6e49 803f a016 7d3f
00000270: db19 7e3f e7bf 7e3f 32b0 7f3f 1f4a 803f
00000280: ee84 803f df5f 803f aab0 7e3f 6ec2 7e3f
00000290: a03a 803f e639 7e3f b1bc 7e3f bafd 7d3f
000002a0: ea38 7f3f d549 803f af67 803f f45f 7e3f
000002b0: f4b0 803f 893c 7e3f 9c9a 7e3f d2ed 7e3f
000002c0: 76e3 7e3f 2817 803f 0727 803f 988c 813f
000002d0: 246f 803f 84c7 803f 4653 803f aeb8 7f3f
000002e0: 9b91 803f ea17 803f 46d2 803f a0fa 7d3f
000002f0: 622c 7f3f 3c14 7d3f 5073 803f 8f8e 803f
00000300: cd69 7e3f a6dd 7e3f cc1c 813f 0279 803f
00000310: 6a55 7e3f 30d0 7e3f a9eb 803f bac2 803f
00000320: b492 7f3f 27b4 803f e3da 7e3f 03d2 7c3f
00000330: 66b7 7e3f 7656 803f 8818 7e3f f536 803f
00000340: af41 7e3f ba75 803f 7bb1 7f3f 2c70 7e3f
00000350: fcae 7e3f 6f78 813f af8f 7e3f 04dc 7e3f
00000360: 8e04 813f 2b41 7d3f 14e1 7e3f 09cd 803f
00000370: 5a1a 813f 0f65 7e3f 6690 813f dd3f 7f3f
00000380: 203e 803f f91c 813f 2cce 7e3f e7c3 7e3f
00000390: 07e4 803f d317 7f3f 1610 803f 897b 803f
000003a0: 455a 803f 7f92 803f 547f 803f 1e0a 7f3f
000003b0: 9657 803f f1ae 803f e292 7f3f 3fbe 7e3f
000003c0: f1c6 7d3f e90a 813f 06b2 7e3f 54bf 7e3f
000003d0: 33c5 7e3f 37f3 803f 7562 803f ddda 803f
000003e0: 03a0 7f3f ae9b 7d3f 93e4 7f3f 82b2 803f
000003f0: 6ffa 803f 0df2 7e3f 7f5b 7f3f caed 803f
1.0049901 0.9968615 1.0093158 0.98972654 1.0078778 1.0076257 1.0029416 1.0059139
0.99302006 0.999232 1.0083542 1.0077472 1.0062635 1.0044276 0.99306506 0.9993703
1.0008559 1.0036895 0.9944398 0.994305 0.994021 1.0009333 1.004599 0.99862987
0.99793893 1.0086142 1.000452 1.0046207 1.002989 0.996711 0.9957163 0.99437535
0.9963778 1.0047837 0.99605036 0.99468464 0.99450034 1.0058291 1.0078666 1.0020055
1.0098872 1.0057716 0.9943963 0.9975206 1.0007337 1.0034621 1.0010782 1.0007697
1.0049424 0.99496895 0.99480003 1.0076629 0.99474823 1.0015558 0.99366575 0.9948946
1.0030339 1.0058329 1.0046939 0.9995912 0.9960055 0.999149 1.0060731 0.9954404
0.994289 0.99884206 1.0077962 0.99827385 0.9975288 0.990708 0.9944274 0.99434876
0.9930991 0.9982821 1.0041885 1.0074409 0.99457043 1.0073891 0.99315894 0.99649465
0.994305 0.9956825 0.9948335 1.0056201 1.0086533 0.98907423 0.99930316 1.0002881
1.0044802 0.9951665 0.9951315 0.99600583 0.9893787 0.9936982 0.99759865 1.0059102
0.9945809 0.9933466 0.9984088 0.9978834 1.0010022 1.0061517 0.99539274 0.993338
1.0080899 0.9945668 0.99633086 0.98851454 1.0041494 0.99939597 1.005163 0.99168664
1.001638 1.000586 0.9931413 0.99966663 1.0054642 0.99830353 0.9944271 0.99565834
0.9944162 1.0006577 1.0030521 1.0013158 0.99101365 0.99675626 0.994729 0.9954346
1.0077052 0.9971174 1.0007782 1.0106119 1.0044906 0.99624443 0.99882215 1.0034026
0.99594253 0.9933267 1.0028018 0.99488145 0.9984628 0.9943735 0.9899134 0.9921487
0.9971605 0.99158883 0.99715555 0.994026 0.9905204 0.99521667 0.9973027 1.0071944
1.0017294 1.0079051 1.0022409 0.9886265 0.992582 0.9951157 0.9987823 1.002262
1.0040567 1.0029258 0.9948832 0.99515426 1.0017891 0.99307096 0.9950667 0.9921528
0.9969622 1.0022532 1.0031642 0.9936516 1.0054002 0.9931112 0.99454665 0.99581635
0.9956583 1.0007067 1.001191 1.0121031 1.0033917 1.0060887 1.0025413 0.99891174
1.0044435 1.0007298 1.006417 0.9921055 0.996771 0.98859 1.003519 1.0043505
0.9938019 0.9955696 1.0086913 1.0036929 0.9934908 0.9953642 1.0071918 1.0059426
0.99833226 1.0054978 0.99552745 0.9875795 0.99498594 1.0026386 0.9925618 1.0016772
0.99318975 1.0035927 0.9988019 0.9938991 0.99485755 1.0114878 0.99437994 0.9955447
1.0079515 0.98927563 0.9956219 1.0062572 1.0086167 0.99372953 1.0122192 0.9970682
1.0018959 1.0086967 0.99533343 0.99517673 1.0069588 0.9964573 1.0004909 1.00377
1.0027548 1.0044707 1.0038857 0.9962481 1.0026729 1.0053388 0.998335 0.9950904
0.99131685 1.0081455 0.9949039 0.99510694 0.9951965 1.0074223 1.0030047 1.0066792
0.99853534 0.99065673 0.9995815 1.0054476 1.0076426 0.9958809 0.99748987 1.0072567

5.bias f4 [256]
00000000: 860f 9fbb feba 9eb9 3ffa 163c a197 aa3a
00000010: 58e7 033c 312b 04bc c51b 9f3b ba7a b4bb
00000020: 44bc 77bb f759 eeba 6fb0 e5bb b172 c6bb
00000030: dcf8 f4bb ddfd b13b 5c8c cb3b 0a46 433a
00000040: c5d1 99bb 65d3 a33b 9157 59bb 4107 9abb
00000050: 7a26 a4bb 0c49 3fbb 18d4 b43b b655 e638
00000060: f6c0 ca38 d59c e5bb 6460 dab9 e783 94bb
00000070: 0eeb b1bb 1fd9 d73b 8a73 45bb 771f 0b3c
00000080: 3cb2 11bb c280 a13b 2f24 5bbb b68a 17bb
00000090: 0b28 bbbb 0e58 b6bb d5ba ccbb e9ab 583b
000000a0: ae8c 0b3c d4bc edbb 0f04 c2bb 3678 c4bb
000000b0: 9b56 5b3b d827 8e3b 1398 39ba 23c0 c23b
000000c0: f74e 9abb 2cb2 bd3a 8a33 b7bb 02cc fabb
000000d0: e505 1d3b 4c32 e13b ef2d 8cbb 4a70 2dbb
000000e0: b2e1 a8bb a548 bc3b 18ea ecbb 6a05 dbbb
000000f0: 4cf0 25bb b5f5 eeba e4b6 b9bb 5843 b7bb
00000100: 7c42 7d3b d4ec 14bb b3a3 ddbb 41dd 8bbb
00000110: 6fc0 9fb8 aa13 44ba 4223 adbb 2e39 95ba
00000120: fec4 53bb 05d8 46bb 167f 9d3b fe8e cbbb
00000130: 9080 333b ef59 ddbb 11c8 db3b 4eb2 6dbb
00000140: 98ce a93b c9c6 f1ba 528d 9ebb 93e3 bc3b
00000150: 6911 d8bb 8567 9aba 6699 2e3b 8fb7 243b
00000160: ea92 f73b e398 78bb 65a1 8cba f81a 183a
00000170: 0b83 1f39 0dff 7cbb 899f a63b adf4 b4bb
00000180: 9797 183b 360d af3b fc70 df3b 95f7 103b
00000190: fede 253b a250 d5bb e866 c4bb 05dd f4bb
000001a0: ae68 ef3b 6f35 cabb af9a 9dbb a1a3 19bb
000001b0: a181 8abb 6a14 803a 790e 93bb cb10 053b
000001c0: ad57 7bbb 8d9b 253b a494 14bb 28dd 333b
000001d0: b2f7 a5bb 5d26 5039 1441 b3bb bd4e 39bb
000001e0: 501d 153b 9e66 9dbb ca26 863b 8ac0 92bb
000001f0: 5368 c4ba c05d fbb9 67c9 4cbb 0440 9bb9
00000200: 4a02 083c d527 f5bb 43ea 313b 8a6f 253c
00000210: 7137 343c 36e5 cdba e1a8 edbb f7c6 9ebb
00000220: 715b 24bb ab7b f5bb 4585 593b a82b d1bb
00000230: be6b c2ba ed5e c4bb b7b4 f13a 8874 c43b
00000240: 58cb bb3a c0b2 783b c3bc 253b cb6d bebb
00000250: 2c69 c93b fc35 8d3b ed8d bb3a ff27 ef3b
00000260: bc10 b7bb ec5f 2b3c ef9d bc3b 8481 7a3b
00000270: 2227 873b 4994 97bb e039 eb39 9bed 723b
00000280: 9822 9e3b 95a6 febb 0f03 d43a 6a65 97bb
00000290: f414 1c3b d110 183b d644 83bb c9ce bfba
000002a0: 6e0b 5aba ae8c 86bb 025f aa3b 019f dcba
000002b0: e920 c23b 3858 e4bb 5fa1 b73b 8e06 66bb
000002c0: 9758 b3bb 3d70 ddbb 4546 c73b a7f1 063c
000002d0: 5e54 983b 4fda 1abc 88ac 7f3b 7926 053c
000002e0: 3057 df3b db2c 013c e2aa f13b c922 883b
000002f0: e205 a03a fe91 ff3b c853 8abb 4255 8dbb
00000300: 2189 e0bb a97f 5abb 24b3 0c3c 1008 1f3c
00000310: e8ed 35bb 74e7 0f3c 5a8b fc3b 142e ce3b
00000320: 7775 f13a 43d1 adbb 7a53 e7bb 9a23 d33a
00000330: 416b bfbb cd88 933b 92f9 433b b1fe 3dbb
00000340: 286a f2bb 4ca6 81bb 8e52 d8bb 9b47 2e3b
00000350: 7336 33bb b069 3bbc 005a 4cbb 8edd 05bc
00000360: c04f 043c 431b c23a fd86 893b 162a d73b
00000370: 956d f0bb a3f7 d2bb 9fbe 49bc 6f61 ecbb
00000380: d5c9 223c 1083 18bc a67c 843b e63e 71bb
00000390: dea9 dcbb 3afc 6a3a b58a 363b 24b0 173c
000003a0: a41d 02bc 61a5 febb 299c 9a3b 4418 1d3c
000003b0: 6b8a 793b 39c7 b6bb a658 d73a 4631 3abb
000003c0: 62d7 40ba 6414 f73b 6610 cf3a 2184 82bb
000003d0: dd39 80bb 930f cabb e6d7 f4bb 0d7f b3bb
000003e0: 226b 023a 77c5 023c 1e38 f7ba b57f c83b
000003f0: 6055 e2bb fe4c a9bb c688 333b 8efc d5bb
-0.0048541455 -0.00030275428 0.009214937 0.001301516 0.008050762 -0.008066938 0.0048556053 -0.005507794
-0.0037801424 -0.0018184771 -0.007009558 -0.0060561527 -0.0074759554 0.005431874 0.0062118005 0.00074490963
-0.004694196 0.0049995654 -0.0033163766 -0.0047005718 -0.0050094696 -0.0029187826 0.0055184476 0.000109832195
9.6680524e-05 -0.007007221 -0.00041652017 -0.0045323255 -0.005429632 0.006587162 -0.003012868 0.0084913885
-0.002223148 0.004928679 -0.0033438315 -0.002312345 -0.0057115606 -0.005564696 -0.006247858 0.003306145
0.008517427 -0.007255176 -0.005920894 -0.0059957756 0.003346837 0.004338246 -0.0007079851 0.0059433146
-0.0047091204 0.0014472655 -0.0055908607 -0.007653714 0.0023959812 0.006872451 -0.0042779366 -0.0026464635
-0.005153858 0.0057459646 -0.0072300546 -0.006683995 -0.002532023 -0.0018231185 -0.005667554 -0.005592745
0.0038644364 -0.0022724168 -0.0067638992 -0.004268319 -7.6175544e-05 -0.0007479737 -0.005283744 -0.0011384839
-0.0032313461 -0.003034116 0.0048064096 -0.0062121144 0.0027389862 -0.0067551057 0.0067071994 -0.0036269608
0.0051820986 -0.0018446083 -0.004838624 0.0057644336 -0.0065938723 -0.0011780119 0.0026641726 0.0025133824
0.0075553553 -0.0037932924 -0.0010729252 0.00058023585 0.00015212239 -0.003860417 0.005084936 -0.0055223317
0.0023283714 0.005342151 0.0068188887 0.0022120227 0.0025309916 -0.0065098563 -0.0059937127 -0.0074726366
0.00730618 -0.0061709206 -0.0048096995 -0.0023443478 -0.0042268788 0.0009771709 -0.0044878093 0.00203042
-0.003835182 0.0025269717 -0.0022671605 0.0027445052 -0.005064928 0.00019850717 -0.0054704044 -0.0028275691
0.0022753067 -0.0048034927 0.0040939795 -0.004478519 -0.0014984704 -0.000479443 -0.0031247975 -0.000296116
0.008301327 -0.007481555 0.0027147688 0.010097394 0.010999546 -0.0015708569 -0.007252798 -0.004845496
-0.0025078917 -0.007491549 0.0033191007 -0.006383378 -0.0014833135 -0.0059927613 0.0018440698 0.005995337
0.0014327569 0.003794834 0.0025289513 -0.005811428 0.0061465707 0.004309414 0.0014309265 0.007298469
-0.0055867117 0.010459881 0.005756132 0.003822417 0.004124538 -0.0046258313 0.00044865813 0.0037067893
0.0048259012 -0.007771323 0.0016175228 -0.004620244 0.00238162 0.0023203383 -0.0040060086 -0.001463377
-0.0008317743 -0.004106126 0.005199314 -0.0016832055 0.0059243334 -0.0069685243 0.0056039537 -0.0035099122
-0.005473207 -0.0067577646 0.006081375 0.008236325 0.004648729 -0.009451463 0.0039012749 0.008126848
0.0068158135 0.0078842295 0.007375107 0.0041545373 0.0012208784 0.007799386 -0.0042214133 -0.004313142
-0.0068522845 -0.0033340252 0.008587632 0.009706512 -0.0027760211 0.00878321 0.0077070417 0.006292114
0.0018421848 -0.005304487 -0.0070595117 0.0016108633 -0.005841643 0.004502392 0.0029903394 -0.002899092
-0.0073979087 -0.0039565917 -0.006601638 0.0026592973 -0.0027345687 -0.011438772 -0.0031181574 -0.008170499
0.0080756545 0.001480915 0.004197 0.0065662963 -0.007337282 -0.006438212 -0.012313514 -0.0072137634
0.009935816 -0.0093085915 0.0040431796 -0.0036811172 -0.006734117 0.0008963976 0.0027853672 0.009258304
-0.007941637 -0.0077711795 0.004718323 0.009588305 0.0038076888 -0.0055779484 0.0016429618 -0.0028410717
-0.0007356313 0.0075402725 0.0015797734 -0.003983036 -0.003913148 -0.0061664074 -0.007472026 -0.005477792
0.00049750705 0.00798165 -0.0018861329 0.0061187395 -0.00690715 -0.005166649 0.0027394756 -0.006530351
