MACHINE_LEARNING/checkpoints/o3_model_epoch8.pt (torch, 419225 bytes, 13 tensors)

0.weight f4 [256, 12]
0	0x3e18a191	0.14905383
1	0x3e310642	0.17287543
2	0xbd1f4920	-0.038888097
3	0xbd19bcf5	-0.03753372
4	0xbd89d93f	-0.067308895
5	0x3bfe0a2d	0.007752678
6	0x3d2d5650	0.042318642
7	0x3b0e88de	0.002174906
8	0x3e415a80	0.1888218
9	0x3e44e00f	0.19226097
10	0x3c854c04	0.016271599
11	0x3de17c06	0.11009984
12	0x3e510951	0.2041371
13	0x3e657f3c	0.22411817
14	0xbe0a9b2b	-0.13535754
15	0xbdf39923	-0.11894443
16	0x3d92e700	0.07172966
17	0xbe845393	-0.25845012
18	0x3df186e0	0.117933035
19	0xbc9244be	-0.017855044
20	0xbe0e2b6e	-0.13883755
21	0xbd9751f4	-0.07388678
22	0xbe41544c	-0.18879813
23	0xbdcae10f	-0.09906208
24	0x3c72fc7e	0.014830707
25	0x3e5a1f39	0.21300973
26	0x3d1d310a	0.038376845
27	0x3e295fa7	0.16540395
28	0xbe7daca3	-0.24772887
29	0x3d11db88	0.035609752
30	0x3e090dd5	0.13384183
31	0x3e553c26	0.20823726
32	0xbdd9477c	-0.10609338
33	0xbe8963da	-0.26833993
34	0xbe3f6350	-0.18690228
35	0xbe447f05	-0.19189079
36	0xbe374abe	-0.17899606
37	0xbe080c5a	-0.13285962
38	0xbe78048a	-0.24220482
39	0x3e5d1256	0.21589026
40	0x3dd35d6c	0.10320553
41	0x3e2135c6	0.15743169
42	0x3e902014	0.28149474
43	0xbe0a65be	-0.13515374
44	0xbdb3fea7	-0.087888055
45	0xbd3466ce	-0.044043355
46	0xbe79cb3c	-0.24393934
47	0xbe5f3682	-0.21798137
48	0x3d3053b4	0.043048576
49	0xbe1f0f8c	-0.15533274
50	0x3e8ecf06	0.2789232
51	0xbe8f7a15	-0.2802283
52	0x3e36c856	0.1784986
53	0xbcf692bb	-0.030099263
54	0xbe6cd588	-0.2312833
55	0x3de5e2a3	0.11224868
56	0x3e1b737d	0.15180774
57	0x3a1c9117	0.0005972548
58	0x3e73b94e	0.23801157
59	0xbc68de7b	-0.0142132
60	0xbba30af8	-0.004975673
61	0xbe022f51	-0.12713362
62	0x3da07350	0.07834494
63	0xbdfbec5f	-0.123009436
64	0x3d8ade0d	0.06780634
65	0x3e652c59	0.22380199
66	0xbe2e5814	-0.17025787
67	0x3e10cc5f	0.14140461
68	0x3e7f3653	0.24923067
69	0x3c5fc9d3	0.0136589585
70	0xbe508867	-0.20364533
71	0xbe3de8b2	-0.18545797
72	0x3d0c5db5	0.034269053
73	0xbe08c853	-0.13357668
74	0x3e2c44f1	0.16823174
75	0xbda8d906	-0.08244519
76	0xbe51d4e9	-0.20491375
77	0x3e5df4c8	0.21675408
78	0xbdd58147	-0.10425048
79	0xbd13524e	-0.035967164
80	0xbace69a9	-0.0015748042
81	0x3ce25d87	0.027632488
82	0xbd88f635	-0.06687585
83	0x3e79d8a9	0.24399056
84	0xbe4d3f5b	-0.200437
85	0xbdfa4fad	-0.12222228
86	0xbe0924a9	-0.13392891
87	0x3be441b0	0.0069658384
88	0xbe5a220e	-0.21302053
89	0xbe819121	-0.25306037
90	0xbe7ae639	-0.24501885
91	0xbe84468c	-0.25835073
92	0x3d974c19	0.07387561
93	0x3e8ff8e1	0.28119567
94	0x3d97e5b8	0.07416862
95	0xbe256744	-0.16152674
96	0x3e62ec03	0.22160344
97	0x3e5a0d1d	0.21294065
98	0xbdc243d3	-0.09485593
99	0x3e4b8453	0.19874696
100	0x3e1b467c	0.15163606
101	0x3e39ed9f	0.18157052
102	0x3d876c99	0.0661251
103	0xbe81c06a	-0.25342113
104	0xbaad55f7	-0.0013224472
105	0x3dd9dec2	0.10638191
106	0x3e62b3ba	0.22138873
107	0x3e0e3c29	0.13890137
108	0xbe3542b5	-0.17701228
109	0xbe7260dd	-0.23669763
110	0xbd06634e	-0.032809548
111	0x3c0cbb9a	0.00858965
112	0x3e88e686	0.26738375
113	0xbe93fcda	-0.28903848
114	0x3e827771	0.25481752
115	0xbd8864f4	-0.0665988
116	0xbe7862c7	-0.2425643
117	0xbe816bee	-0.25277656
118	0x3d34ea4e	0.044168763
119	0x3dce143a	0.10062452
120	0x3e887f31	0.2665954
121	0xbcb92466	-0.022600364
122	0x3d4f651c	0.050633535
123	0x3e3bc08e	0.18335173
124	0xbe51b85a	-0.20480481
125	0x3dd440e2	0.10363938
126	0x3d6c82a7	0.057741787
127	0xbbd350fe	-0.006448864
128	0x3d8625b7	0.06550162
129	0xbe004206	-0.12525186
130	0xbe40aafa	-0.18815222
131	0xbdceeed8	-0.101041496
132	0xbe687090	-0.22699189
133	0x3e8c0f5e	0.27355474
134	0xbe1fff57	-0.15624748
135	0x3e841f83	0.25805292
136	0x3e8f9f9d	0.28051463
137	0x3e555ec9	0.20836939
138	0xbd3a7659	-0.04552302
139	0x3e63f8d5	0.2226289
140	0xbe55c8d2	-0.20877388
141	0x3d81981a	0.06327839
142	0xbd0eb33f	-0.03483891
143	0xbd259013	-0.040420603
144	0xbe304684	-0.172144
145	0x3e8e3cec	0.27780855
146	0xbe0ba99d	-0.13638921
147	0x3df52fc9	0.11972005
148	0xbe3a4767	-0.181913
149	0x3e472b27	0.19450055
150	0x3d3d44f3	0.046208333
151	0x3e4d8f88	0.20074284
152	0xbdd95a0f	-0.106128804
153	0xbe05f388	-0.13081181
154	0x3e80a58f	0.2512631
155	0xbe7be195	-0.24597771
156	0xbdc125fe	-0.094310746
157	0xbc24bf09	-0.010055312
158	0xbe91e04d	-0.2849144
159	0x3e87a4cc	0.26492918
160	0xbe076799	-0.13223113
161	0x3d1b2f65	0.037886996
162	0x3e067eb2	0.13134268
163	0xbe47edac	-0.19524258
164	0xbe3885ec	-0.18019837
165	0x3e7de311	0.2479365
166	0xbe0f577c	-0.13998216
167	0x3d384c42	0.0449946
168	0xbd4d742a	-0.05015961
169	0xbe3d6456	-0.18495306
170	0xbe32dc1e	-0.1746678
171	0x3e55a16a	0.20862356
172	0x3bd69960	0.0065490454
173	0xbe062287	-0.13099109
174	0xbc979cf5	-0.01850746
175	0xbe6f3fb0	-0.23364139
176	0xbe899165	-0.2686874
177	0xbc79f925	-0.015257155
178	0xbd8ed4df	-0.06974196
179	0x3da1f824	0.07908657
180	0x3d9d3603	0.076763175
181	0x3e0f868b	0.14016168
182	0x3e09c4ee	0.13454029
183	0xbd5f3a0d	-0.05449872
184	0x3d951be0	0.07280707
185	0x3daebb08	0.08531767
186	0xbe0361f5	-0.12830336
187	0x3c1fda7b	0.00975668
188	0xbdbde1a7	-0.092715554
189	0x3e2e66de	0.17031428
190	0x3e8813f7	0.26577732
191	0x3e767777	0.2406901
192	0x3e302337	0.17200933
193	0xbbcf35fe	-0.006323575
194	0xbc79e69a	-0.015252734
195	0x3dc536a4	0.096295625
196	0x3e708387	0.23487674
197	0xbd916911	-0.07100118
198	0x3e5d95a5	0.21639116
199	0xbe16face	-0.14744112
200	0xbccedffb	-0.025253287
201	0x3e2069ed	0.15665407
202	0x3e739410	0.2378695
203	0x3d2e537e	0.042560093
204	0xbd6c570f	-0.057700213
205	0x3e8c9a12	0.27461296
206	0xbda48973	-0.08034029
207	0x3e09bc7e	0.1345081
208	0x3e2b203c	0.16711515
209	0x3d02878e	0.031867556
210	0x3e8974b0	0.26846838
211	0xbde417a8	-0.111373246
212	0xbe810881	-0.252018
213	0xbda781ed	-0.08179078
214	0x3e618671	0.22023942
215	0xbd3fe829	-0.046852265
216	0x3db6d923	0.08928134
217	0x3e34f755	0.17672475
218	0xbce11ad9	-0.027478622
219	0x3e678aaa	0.2261149
220	0x3d1584e4	0.036503688
221	0xbe845f5b	-0.25854
222	0xbd13489e	-0.035957925
223	0x3e870e2e	0.26378006
224	0xbe4c9f7f	-0.19982718
225	0x3e26bda9	0.16283287
226	0xbe09c4e9	-0.13454022
227	0x3dc8f43f	0.09812211
228	0xbe6a01c0	-0.2285223
229	0x3df0eec3	0.1176429
230	0xbd78ec0b	-0.060771983
231	0xbd841002	-0.06448366
232	0x3d43a7c2	0.04776741
233	0x3e855c5e	0.26047033
234	0xbdf75d58	-0.12078351
235	0x3d55ee50	0.052229226
236	0xba3081f2	-0.00067332305
237	0xbe63d3ab	-0.22248714
238	0xbd4b8a55	-0.04969247
239	0xbe3f64a6	-0.18690738
240	0x3bedc872	0.007256561
241	0xbe70cdc5	-0.23515995
242	0x3e694efe	0.2278404
243	0xbc502cb0	-0.012705967
244	0xbe28b135	-0.16473849
245	0xbcba41e9	-0.022736507
246	0xbe1f4d87	-0.15556918
247	0x3ddc861c	0.10767767
248	0xbd82fae0	-0.06395507
249	0xbd4ee615	-0.050512392
250	0xbe8a1835	-0.26971593
251	0xbd81b5c1	-0.06333495
252	0x3e6044ac	0.21901196
253	0xbe7c7e70	-0.24657607
254	0xbe93926c	-0.2882265
255	0xbddef137	-0.10885852

0.bias f4 [256]
0	0xbdc55cce	-0.09636842
1	0x3e82ad42	0.2552281
2	0xbdbf8979	-0.09352393
3	0xbcdd6022	-0.027023379
4	0xbd829722	-0.063764825
5	0xbe584c90	-0.21122956
6	0x3e729004	0.2368775
7	0x3e82cf39	0.25548723
8	0xbe677be9	-0.22605862
9	0xbd96178d	-0.07328711
10	0x3e00b8f2	0.12570551
11	0x3d947796	0.07249372
12	0xbe1e461b	-0.1545643
13	0xbe298d2a	-0.16557756
14	0xbe01fe12	-0.12694576
15	0x3d27510c	0.040848777
16	0xbe92128a	-0.2852977
17	0x3cfd86c5	0.030948052
18	0xbe2086fa	-0.1567649
19	0xbe935b27	-0.2878048
20	0x3e568239	0.20948114
21	0xbd45d4dd	-0.048298705
22	0x3dab9412	0.083778515
23	0xbe598415	-0.21241792
24	0xbe3510a3	-0.17682128
25	0xbe8a93f9	-0.2706602
26	0x3de68b90	0.11257088
27	0x3dd47f97	0.10375898
28	0x3d89d13f	0.06729364
29	0xbe8748f5	-0.2642285
30	0x3e7162de	0.23572871
31	0xbd8aa7d5	-0.06770293
32	0x3d36ac43	0.044597875
33	0xbdbb9b18	-0.09160441
34	0x3ce406cf	0.027835278
35	0x3db4024b	0.087895
36	0xbe8a5e3a	-0.27025014
37	0x3e686ea8	0.22698462
38	0xbd9b1567	-0.075724415
39	0x3d321883	0.043480407
40	0x3d433b41	0.04766393
41	0xbb91deb3	-0.0044515966
42	0x3e33443c	0.17506498
43	0x3e859c19	0.26095656
44	0x3e4844cc	0.19557494
45	0x3e16e5a2	0.14736035
46	0x3e8892ff	0.2667465
47	0xbc9a476b	-0.018832883
48	0x3b1ef773	0.0024256378
49	0x3e5caaa5	0.2154947
50	0x3e7e328e	0.24823973
51	0x3cc9e2c2	0.02464426
52	0x3d924abd	0.071431614
53	0xbe8e19b3	-0.27753982
54	0xbe3fbc4c	-0.18724173
55	0x3e1a76fc	0.15084451
56	0x3e4083e4	0.18800312
57	0xbde25b3a	-0.11052556
58	0xbe172cdf	-0.1476321
59	0x3e4b1dee	0.19835636
60	0xbe8f058a	-0.27933913
61	0x3e61de7e	0.2205753
62	0x3e8d08f8	0.27545905
63	0xbe436108	-0.19079983
64	0x3e1597cb	0.14608686
65	0xbdaaf5c2	-0.08347656
66	0x3e4c69ab	0.19962184
67	0xbe4392a3	-0.19098906
68	0x3e4f9a49	0.20273699
69	0xbe218e34	-0.15776902
70	0xbdfa3c96	-0.12218587
71	0xbe2a8da5	-0.16655596
72	0x3e1289a0	0.14310312
73	0x3d75d396	0.060016237
74	0xbc507199	-0.012722396
75	0xbe79d905	-0.24399193
76	0xbe8c8de2	-0.27451998
77	0x3e05e5d5	0.13075955
78	0xbe7e3614	-0.24825317
79	0xbd1a6503	-0.03769399
80	0x3d8093e4	0.06278208
81	0x3d135ca9	0.03597704
82	0x3e7cf594	0.24703056
83	0x3e168c8d	0.14702053
84	0xbc983bd6	-0.01858322
85	0x3d88e0b4	0.06683484
86	0xbded2385	-0.115790404
87	0x3dec1047	0.11526542
88	0xbe4d8084	-0.20068556
89	0xbdf23dfc	-0.11828229
90	0x3e7f91df	0.24957989
91	0x3d90dc1e	0.07073234
92	0x3d5904d1	0.05298311
93	0x3e3c6c3f	0.18400668
94	0xbe6e08e9	-0.23245586
95	0x3cb94314	0.022614993
96	0xbe8c7a5e	-0.2743711
97	0xbe4ac555	-0.19801839
98	0x3e20363f	0.15645693
99	0xbddb5618	-0.107097805
100	0xbe48ffe0	-0.19628859
101	0xbd904297	-0.07043951
102	0x3e4401b5	0.19141276
103	0x3e6d2565	0.23158796
104	0xbd76376d	-0.060111452
105	0xbe00ca25	-0.12577112
106	0x3e6b0cfe	0.22954175
107	0x3e4ab5ed	0.19795962
108	0xbdfa4e75	-0.12221996
109	0x3e2dc1e6	0.16968498
110	0xbe72e6af	-0.23720811
111	0x3d9b1d7c	0.07573983
112	0xbe80bb5c	-0.25142944
113	0xbe6fb694	-0.23409492
114	0xbe35056b	-0.17677848
115	0xbe87376b	-0.26409468
116	0x3cd0a078	0.025467142
117	0x3d8cd866	0.06877212
118	0x3e040761	0.1289344
119	0x3e64eb80	0.22355461
120	0xbe915c7f	-0.2839088
121	0xbddff912	-0.10936178
122	0xbd96cbf5	-0.073631205
123	0x3c2ef4cb	0.01067848
124	0xbe73f2dc	-0.23823112
125	0xbdabd507	-0.08390241
126	0x3c3a81f4	0.011383522
127	0x3c4b9f7a	0.012428159
128	0xbe7847f0	-0.24246192
129	0xbdeda1cb	-0.11603125
130	0xbe779582	-0.24178126
131	0x3e0ab7a2	0.13546613
132	0x3e803e09	0.2504733
133	0x3e6cf3bb	0.23139851
134	0xbcc7e91a	-0.024403144
135	0x3e45052c	0.19240254
136	0xbe1c2267	-0.15247498
137	0x3d9dcd12	0.0770513
138	0x3e82f36a	0.25576335
139	0x3e06ff5c	0.1318335
140	0xbe1789e7	-0.147987
141	0xbe3cca9b	-0.18436663
142	0xbe7094e5	-0.23494299
143	0xbcbc98ff	-0.023022173
144	0x3c7e7c71	0.015532599
145	0xbbd5dba8	-0.006526429
146	0x3d9d5501	0.07682229
147	0xbe8894f4	-0.26676142
148	0x3e4e3d10	0.20140481
149	0x3e6f305f	0.23358296
150	0x3e13de67	0.14440309
151	0xbc4898db	-0.012243475
152	0x3e8b928e	0.2726025
153	0xbd550b72	-0.05201287
154	0xbd90d3c8	-0.07071644
155	0x3c93be85	0.018035183
156	0x3b8f9bb3	0.0043825745
157	0x3dac8b25	0.08424977
158	0x3d66699b	0.056253057
159	0xbda21865	-0.07914809
160	0x3d6310b4	0.05543585
161	0xbe1f3772	-0.15548494
162	0xbe7a1ffa	-0.2442626
163	0xbe64c179	-0.22339429
164	0xbda79d58	-0.08184308
165	0xbdf35c15	-0.11882798
166	0x3d692c63	0.056927096
167	0x3df2da98	0.118581
168	0x3e70123c	0.23444456
169	0x3e8910b9	0.2677057
170	0xbe88d991	-0.2672849
171	0xbe521499	-0.2051567
172	0x3e7e0b1d	0.24808927
173	0xbdfa01f5	-0.122074045
174	0xbe1ba33d	-0.15198989
175	0xbd6fd06e	-0.058548383
176	0x3e61b937	0.2204331
177	0xbe49e8b5	-0.19717677
178	0x3e213e6a	0.15746465
179	0xbe8bb314	-0.27285063
180	0x3e57fb30	0.21091914
181	0xbe485edd	-0.19567437
182	0xbe771e73	-0.24132709
183	0x3e3be577	0.18349253
184	0x3e6eb17c	0.23309892
185	0xbe547146	-0.20746335
186	0x3e1c4e36	0.1526421
187	0x3e42ae1c	0.1901173
188	0xbe88f5ec	-0.26750124
189	0xbe169bc0	-0.14707851
190	0xbdab53b2	-0.08365573
191	0x3da46fa6	0.08029108
192	0x3e47bab6	0.19504818
193	0x3cf1100a	0.029426593
194	0x3cf1e448	0.029527798
195	0x3cfcce95	0.030860225
196	0x3e7ab70c	0.2448389
197	0x3e25ee74	0.16204244
198	0x3dd0307b	0.10165497
199	0xbe29cead	-0.16582747
200	0xbd8293f4	-0.06375876
201	0xbe884236	-0.26613015
202	0x3e113215	0.14179261
203	0x3e47d77b	0.19515793
204	0xbdebb718	-0.11509532
205	0xbe7022a7	-0.23450719
206	0xbe8ee955	-0.27912393
207	0x3d342589	0.04398111
208	0xbe0ab6b7	-0.13546263
209	0xbc784f57	-0.015155635
210	0x3c2fa873	0.010721314
211	0xbe5404a4	-0.20704895
212	0x3e2370bc	0.15960974
213	0x3e90d3d1	0.28286603
214	0xbe3923d6	-0.18080077
215	0x3d8602f0	0.06543529
216	0x3e287cf7	0.1645392
217	0xbe399e83	-0.18126874
218	0x3d9d1863	0.07670667
219	0xbe868607	-0.2627413
220	0xbd7a6eaf	-0.061140712
221	0x3e8b5a09	0.2721713
222	0xbc515412	-0.012776392
223	0xbe894903	-0.26813516
224	0x3c9beebf	0.019034741
225	0xbda441e7	-0.080203824
226	0x3e4e2b39	0.20133676
227	0x3dd96bc4	0.10616258
228	0x3e5d2ed3	0.21599893
229	0x3cce1cca	0.025160212
230	0xbe39898b	-0.18118875
231	0x3e687fcf	0.22705005
232	0x3d084592	0.033269472
233	0xbe8dc22e	-0.2768721
234	0x3e60e930	0.21963954
235	0xbe8deb66	-0.27718657
236	0x3d9e5eba	0.077329114
237	0xbd6b44b8	-0.057438582
238	0xbe6232af	-0.22089647
239	0x3d6eec8c	0.058331057
240	0xbcc066c4	-0.023486502
241	0xbe583eef	-0.21117757
242	0xbe0ca0b6	-0.13733181
243	0x3d517502	0.051136978
244	0xbe82cc57	-0.25546524
245	0x3e57e1c9	0.21082224
246	0xbd1c25f6	-0.03812214
247	0x3e3b1042	0.1826792
248	0x3df6731f	0.12033676
249	0xbe631606	-0.2217637
250	0x3e875e21	0.26439002
251	0xbe91ce53	-0.28477725
252	0x3dd1cdd1	0.102443345
253	0x3e3dc713	0.18532972
254	0xbda9696b	-0.0827206
255	0xbe3d97b5	-0.18514903

1.weight f4 [256]
0	0x3f80ec8d	1.007219
1	0x3f80210d	1.0010086
2	0x3f812b57	1.0091351
3	0x3f7d2c11	0.98895365
4	0x3f80d2b1	1.0064298
5	0x3f80f90d	1.0076004
6	0x3f7e6d0c	0.9938514
7	0x3f80533c	1.0025401
8	0x3f8138a1	1.0095407
9	0x3f808958	1.0041914
10	0x3f7d9fa6	0.9907173
11	0x3f7ec403	0.9951784
12	0x3f805044	1.0024495
13	0x3f80e64d	1.0070282
14	0x3f80d971	1.0066358
15	0x3f8111b6	1.008353
16	0x3f7ff1a0	0.99978065
17	0x3f80ba1a	1.0056794
18	0x3f7f03e1	0.99615294
19	0x3f811d0f	1.0086993
20	0x3f80c697	1.0060605
21	0x3f7e2810	0.9927988
22	0x3f80d30d	1.0064408
23	0x3f7cce58	0.98752356
24	0x3f80ba5a	1.005687
25	0x3f8016f3	1.0007004
26	0x3f7f2e63	0.99680156
27	0x3f7f8274	0.9980843
28	0x3f80b72d	1.0055901
29	0x3f7e6c36	0.99383867
30	0x3f7fbb66	0.9989532
31	0x3f8103b3	1.0079254
32	0x3f7f3288	0.9968648
33	0x3f7e8cdb	0.9943368
34	0x3f805066	1.0024536
35	0x3f812fe1	1.0092736
36	0x3f7ea8c4	0.99476266
37	0x3f7ce825	0.98791724
38	0x3f80b5f5	1.0055529
39	0x3f80fe2f	1.0077571
40	0x3f807a60	1.0037346
41	0x3f7f0f86	0.9963306
42	0x3f806435	1.0030581
43	0x3f80e39f	1.0069464
44	0x3f80f768	1.0075502
45	0x3f807ec0	1.0038681
46	0x3f808c00	1.0042725
47	0x3f80671d	1.0031468
48	0x3f7ee768	0.9957185
49	0x3f7e86d9	0.9942451
50	0x3f80402d	1.0019585
51	0x3f7e75c1	0.9939843
52	0x3f7f27ae	0.9966992
53	0x3f7f045d	0.9961603
54	0x3f7e5469	0.9934755
55	0x3f7fbc32	0.9989654
56	0x3f7e153f	0.9925117
57	0x3f7df31c	0.9919908
58	0x3f810767	1.0080384
59	0x3f7eb58f	0.99495786
60	0x3f7e2ff2	0.9929191
61	0x3f7e3e97	0.99314255
62	0x3f7e88a9	0.99427277
63	0x3f806ed4	1.0033822
64	0x3f808399	1.004016
65	0x3f81965b	1.012401
66	0x3f8185b5	1.0118929
67	0x3f7e901b	0.9943864
68	0x3f80a5f0	1.005064
69	0x3f7f6fa8	0.9977975
70	0x3f807961	1.0037042
71	0x3f7e2346	0.99272573
72	0x3f7bbbad	0.98333246
73	0x3f7e1c9e	0.99262416
74	0x3f81724d	1.0113007
75	0x3f81222a	1.0088551
76	0x3f801ef8	1.0009451
77	0x3f81312b	1.009313
78	0x3f7f754b	0.9978835
79	0x3f801a9b	1.0008119
80	0x3f7fc2c5	0.9990657
81	0x3f7e2ce8	0.9928727
82	0x3f7e2e66	0.9928955
83	0x3f7f9235	0.9983247
84	0x3f7f72db	0.9978463
85	0x3f809fee	1.0048807
86	0x3f7e2f21	0.99290663
87	0x3f7e3757	0.9930319
88	0x3f810ea1	1.0082589
89	0x3f7ed077	0.9953684
90	0x3f801f29	1.0009509
91	0x3f80766a	1.0036137
92	0x3f8195b2	1.0123808
93	0x3f7fef81	0.9997483
94	0x3f7fd352	0.99931824
95	0x3f7face7	0.99873203
96	0x3f7f6ac1	0.9977227
97	0x3f812c7a	1.0091698
98	0x3f80ea66	1.0071533
99	0x3f7c3e51	0.9853259
100	0x3f7e67fa	0.99377406
101	0x3f80f8ab	1.0075887
102	0x3f7de6f0	0.9918051
103	0x3f7f38dc	0.99696136
104	0x3f804f84	1.0024266
105	0x3f7c91f9	0.98660237
106	0x3f810aa8	1.0081377
107	0x3f7eabcb	0.99480885
108	0x3f808f06	1.0043647
109	0x3f7e2d4d	0.99287874
110	0x3f7df393	0.9919979
111	0x3f810be7	1.0081757
112	0x3f80972e	1.0046136
113	0x3f8121b4	1.008841
114	0x3f7ce2ff	0.9878387
115	0x3f7d9844	0.99060464
116	0x3f8066bf	1.0031356
117	0x3f80aac7	1.0052117
118	0x3f7e188e	0.9925622
119	0x3f80b872	1.0056288
120	0x3f7dbd19	0.99116665
121	0x3f815b7e	1.0106046
122	0x3f805328	1.0025377
123	0x3f80b5f2	1.0055525
124	0x3f7eca4d	0.99527436
125	0x3f80ebff	1.007202
126	0x3f80d2e0	1.0064354
127	0x3f7d6b20	0.98991585
128	0x3f7ebd91	0.99508005
129	0x3f80fa0a	1.0076306
130	0x3f81554b	1.0104154
131	0x3f7ebe33	0.9950897
132	0x3f812160	1.008831
133	0x3f7e6311	0.99369913
134	0x3f80a446	1.0050132
135	0x3f80ccf6	1.0062549
136	0x3f7dbdb5	0.99117595
137	0x3f8040c1	1.0019761
138	0x3f80e0dd	1.0068623
139	0x3f7deffe	0.99194324
140	0x3f7f43cf	0.9971284
141	0x3f7f8216	0.9980787
142	0x3f80b01c	1.0053744
143	0x3f7e8f9f	0.994379
144	0x3f7e3b0f	0.99308866
145	0x3f7e71d4	0.9939244
146	0x3f812665	1.0089842
147	0x3f7ffba5	0.99993354
148	0x3f7dc8c5	0.99134475
149	0x3f7f7773	0.9979164
150	0x3f811bd7	1.0086621
151	0x3f80c152	1.0058997
152	0x3f7e477e	0.9932784
153	0x3f809ae8	1.0047274
154	0x3f7c27df	0.9849834
155	0x3f80370b	1.0016798
156	0x3f80cca4	1.0062451
157	0x3f811a0a	1.0086071
158	0x3f7d7621	0.99008375
159	0x3f80ecb5	1.0072237
160	0x3f7d42ca	0.9893004
161	0x3f7fcff1	0.9992667
162	0x3f7fe5fb	0.999603
163	0x3f7e4ddc	0.99337554
164	0x3f80e65e	1.0070302
165	0x3f80ed89	1.007249
166	0x3f810a7f	1.0081328
167	0x3f80445c	1.0020862
168	0x3f80c943	1.006142
169	0x3f7fc6b6	0.99912584
170	0x3f7ee1fe	0.99563587
171	0x3f80b8ba	1.0056374
172	0x3f7f2dd9	0.9967933
173	0x3f7fe17f	0.99953455
174	0x3f809e6f	1.004835
175	0x3f8053f6	1.0025623
176	0x3f7f32b7	0.9968676
177	0x3f80c84a	1.0061123
178	0x3f80db55	1.0066935
179	0x3f80b0f9	1.0054008
180	0x3f817569	1.0113956
181	0x3f7e2392	0.99273026
182	0x3f7fd179	0.99929005
183	0x3f7ed735	0.9954713
184	0x3f807441	1.0035478
185	0x3f7fb7d5	0.9988988
186	0x3f801e4f	1.000925
187	0x3f806ddc	1.0033526
188	0x3f7f1d87	0.9965443
189	0x3f809c70	1.0047741
190	0x3f801f88	1.0009623
191	0x3f80a6b9	1.005088
192	0x3f7f7236	0.9978365
193	0x3f7f5402	0.9973756
194	0x3f80462e	1.0021417
195	0x3f809f45	1.0048605
196	0x3f815ff7	1.0107411
197	0x3f819b20	1.0125465
198	0x3f80c5fc	1.006042
199	0x3f7d854a	0.9903151
200	0x3f7de7ca	0.9918181
201	0x3f7ff073	0.9997627
202	0x3f801fd9	1.0009719
203	0x3f7e6c63	0.99384135
204	0x3f814ddd	1.0101887
205	0x3f806c54	1.0033059
206	0x3f80bfae	1.0058496
207	0x3f7e3028	0.9929223
208	0x3f7e497a	0.99330866
209	0x3f7d8648	0.9903302
210	0x3f802ecf	1.0014285
211	0x3f7e3289	0.9929586
212	0x3f7dba20	0.9911213
213	0x3f7fb303	0.99882525
214	0x3f7ddbb4	0.99163365
215	0x3f7f8a0b	0.9982001
216	0x3f81320d	1.0093399
217	0x3f80bf28	1.0058336
218	0x3f800549	1.0001613
219	0x3f7d4189	0.98928124
220	0x3f80b518	1.0055265
221	0x3f7e4377	0.99321693
222	0x3f80e37f	1.0069426
223	0x3f810aab	1.0081381
224	0x3f7e4dcb	0.9933745
225	0x3f804ce7	1.0023469
226	0x3f7ddffd	0.99169904
227	0x3f8128d1	1.0090581
228	0x3f7e1826	0.992556
229	0x3f7e3ee7	0.9931473
230	0x3f7ee7e1	0.9957257
231	0x3f80c9c1	1.006157
232	0x3f803f5b	1.0019335
233	0x3f7ec9ac	0.99526477
234	0x3f7e96d4	0.99448895
235	0x3f7f23e7	0.9966416
236	0x3f7e82cd	0.99418336
237	0x3f7f53d9	0.99737316
238	0x3f7f6739	0.9976688
239	0x3f7ff225	0.9997886
240	0x3f80c9f5	1.0061632
241	0x3f80d0c1	1.0063707
242	0x3f7bf9b3	0.98427886
243	0x3f7fdc6b	0.99945706
244	0x3f7ebd1f	0.99507326
245	0x3f810b34	1.0081544
246	0x3f80e713	1.0070518
247	0x3f807927	1.0036973
248	0x3f7ea8a8	0.994761
249	0x3f7ecc7e	0.9953078
250	0x3f7e629b	0.9936921
251	0x3f7e72a5	0.99393684
252	0x3f804b85	1.0023047
253	0x3f7f0c7b	0.9962842
254	0x3f7f776e	0.9979161
255	0x3f7e3c3e	0.9931067

1.bias f4 [256]
0	0x3bf0ffd5	0.0073547163
1	0x3b1af8e8	0.0023646895
2	0x3c141d4a	0.009040186
3	0x3c326b8a	0.010889897
4	0x3bde8cf9	0.0067917076
5	0x3c194df1	0.009356962
6	0xbbb610d8	-0.005556207
7	0xbb2a5745	-0.0025991958
8	0x3c1b79b2	0.009489464
9	0xbb864b93	-0.0040983646
10	0xbc1bba7b	-0.00950491
11	0x3b9bca93	0.0047543733
12	0xbb229706	-0.0024809255
13	0xbbf23374	-0.0073913876
14	0xbbd8f58a	-0.0066210674
15	0x3c0d2fba	0.008617336
16	0xb6f3872e	-7.2577013e-06
17	0xbbbc7f34	-0.0057524685
18	0xbb7383c2	-0.0037157391
19	0xbc104991	-0.008806602
20	0x3b9b41d6	0.004738073
21	0xbbd30621	-0.0064399396
22	0xbbddee21	-0.006772772
23	0xbbf3c527	-0.007439274
24	0xbbad31d9	-0.0052854833
25	0xbad00256	-0.0015869837
26	0x3b32a0da	0.002725652
27	0xbb1d2509	-0.0023978374
28	0xbbb8cd50	-0.0056397095
29	0xbbc9479e	-0.0061425706
30	0xba7fbc1b	-0.0009755508
31	0xbc07444a	-0.0082560275
32	0x3b52b925	0.0032153812
33	0x3bbdefee	0.005796424
34	0x3b58cbbb	0.0033080417
35	0x3c05e260	0.008171648
36	0x3ba7b6a9	0.0051182103
37	0x3c4cf721	0.012510092
38	0x3bb71748	0.005587492
39	0xbbfda93a	-0.0077411206
40	0x3b878110	0.0041352585
41	0xbbd98cf5	-0.006639118
42	0x3baa64ed	0.0052000196
43	0x3b667e95	0.0035170664
44	0x3bfe9d13	0.0077701895
45	0x3bf8ebfb	0.0075964904
46	0x3b8ca1eb	0.004291763
47	0xbb75dd99	-0.0037516116
48	0x3b997035	0.0046825656
49	0xbb9ce501	-0.0047880416
50	0xbb04bd41	-0.0020254406
51	0x3be9aed1	0.0071314354
52	0xbb424c12	-0.0029647392
53	0xbb78b32d	-0.0037948594
54	0xbbd36040	-0.006450683
55	0xbaa95957	-0.0012920302
56	0xbbf17310	-0.007368453
57	0xbba5efe5	-0.005063998
58	0x3be66a97	0.0070317495
59	0x3b9ca3c4	0.0047802646
60	0x3be68a3e	0.0070355227
61	0xbbdc7998	-0.0067283623
62	0xbbb00036	-0.005371119
63	0xbb59cc51	-0.0033233354
64	0x3b6d4e05	0.0036209833
65	0xbc454a0d	-0.012041581
66	0xbc436564	-0.011926029
67	0x3b97cfce	0.0046329265
68	0x3ba6bcf7	0.0050884443
69	0x3b75f9d4	0.0037532942
70	0xbbe832e6	-0.0070861457
71	0x3beb50a3	0.0071812435
72	0xbc854408	-0.016267791
73	0xbbf08236	-0.007339741
74	0x3c234e4c	0.009967398
75	0xbc0c0f1f	-0.008548527
76	0xba83b860	-0.0010049455
77	0xbc17baba	-0.009260828
78	0x3b22c10c	0.0024834303
79	0x3bb0636a	0.005382945
80	0xba66a906	-0.000879899
81	0xbbcb38b2	-0.006201827
82	0xbbd0ff2c	-0.006378075
83	0x3b2024c9	0.0024435988
84	0xb9d4239f	-0.0004046233
85	0x3bafa969	0.0053607714
86	0xbbd57501	-0.006514192
87	0x3bdeeea9	0.006803353
88	0x3c07530b	0.008259545
89	0xbb960e1c	-0.0045793187
90	0x3b639084	0.003472359
91	0x3c27d850	0.010244444
92	0xbc46c2e5	-0.012131427
93	0xb8b7fe0a	-8.7734385e-05
94	0x39daa373	0.0004170198
95	0x3b203160	0.0024443492
96	0xbb1b2231	-0.0023671503
97	0xbc158659	-0.009126269
98	0xbbec7e43	-0.0072172
99	0x3c6a7921	0.014311106
100	0x3bc720bf	0.0060769017
101	0xbbf82424	-0.0075726677
102	0xbc06c456	-0.008225521
103	0x3b421d96	0.0029619685
104	0x39e73184	0.00044096645
105	0x3c0d4a56	0.00862368
106	0xbc04fea5	-0.008117353
107	0xbba1a51a	-0.0049330117
108	0xbba6703f	-0.0050792987
109	0xbbe6a528	-0.007038731
110	0x3c039d8c	0.008033168
111	0x3c09255f	0.008370726
112	0xbc2b8092	-0.010467665
113	0x3c15a1d0	0.009132817
114	0x3c02f478	0.007992856
115	0xbbd0bed1	-0.0063704033
116	0xbb57f6d9	-0.003295353
117	0x3b96c3c1	0.0046009724
118	0xbb4130f0	-0.0029478632
119	0x3bb55bd8	0.0055346303
120	0xbc05b7fa	-0.008161539
121	0xbc3be9f2	-0.011469351
122	0xbb284e15	-0.0025681306
123	0xbbb570e0	-0.0055371374
124	0x3b85dec2	0.0040853927
125	0x3c11c07d	0.00889599
126	0xbc015072	-0.007892715
127	0xbb739372	-0.0037166742
128	0xbb9c0952	-0.0047618533
129	0x3bd05ad1	0.0063584824
130	0xbc242c95	-0.010020395
131	0xbb1b9802	-0.0023741727
132	0x3c1869df	0.009302585
133	0x3bc66ad3	0.006055215
134	0x3ba67884	0.0050802846
135	0x3c28a310	0.010292783
136	0xbc10ee3f	-0.008845865
137	0x3b198062	0.002342247
138	0xbbda9f9b	-0.0066718585
139	0xbbfdc8d4	-0.007744888
140	0xbb346267	-0.0027524473
141	0xbad67a50	-0.0016363356
142	0x3bcfadb6	0.0063378466
143	0xbbca9162	-0.0061818818
144	0xbbe1bd35	-0.0068890103
145	0xbc06ff38	-0.00823956
146	0xbc0f4cc4	-0.00874633
147	0x3b654eea	0.0034989663
148	0xbc0dc843	-0.008653703
149	0x3af63a8d	0.001878576
150	0x3c10e57d	0.008843777
151	0xbbc09785	-0.0058774375
152	0xbbda204a	-0.006656681
153	0xbbe77397	-0.00706334
154	0x3ba77f5c	0.005111618
155	0xbaeca3e7	-0.0018054218
156	0x3be00599	0.006836605
157	0xbc106612	-0.008813398
158	0xbb4a23f1	-0.0030844177
159	0xbbedbc53	-0.007255116
160	0xbc1de639	-0.009637409
161	0x3a919d29	0.001110946
162	0x39d4adb3	0.00040565207
163	0x3bd76099	0.0065727946
164	0x3be64f60	0.007028505
165	0x3c0efcbc	0.008727249
166	0x3bf86724	0.0075806547
167	0x3bb2aad7	0.0054524946
168	0x3beea44e	0.0072827702
169	0x3a4a8f5d	0.0007727051
170	0xbb8e6cd7	-0.004346471
171	0x3ba50dc0	0.0050370395
172	0xbb38d829	-0.0028205013
173	0x3a2fc3eb	0.0006704914
174	0xbba1744b	-0.0049271933
175	0x3b727a64	0.003699922
176	0x3b1f6507	0.0024321692
177	0xbbc795ed	-0.0060908706
178	0xbbf8e03a	-0.0075950893
179	0xbbf77b8c	-0.0075525697
180	0x3c361a2c	0.011114638
181	0xbbdba095	-0.0067024925
182	0x3a436b55	0.00074546534
183	0xbb4a12ef	-0.003083404
184	0xbbb38b5d	-0.00547926
185	0x3a7c3c82	0.00096220535
186	0x3abc7822	0.0014379064
187	0xbb52e965	-0.003218257
188	0x3b5c5165	0.003361785
189	0xbba00142	-0.0048829624
190	0x3b90838d	0.0044102133
191	0xbb9ca290	-0.004780121
192	0x3b0d4e03	0.0021561391
193	0x3ac82ecf	0.0015272739
194	0x3b2b509a	0.0026140572
195	0xbb922683	-0.0044601574
196	0x3c313fec	0.010818463
197	0xbc4c6ba5	-0.012476836
198	0xbbffaf5a	-0.007802886
199	0x3c1f24ac	0.009713333
200	0xbba85c53	-0.005137959
201	0x3987aaf7	0.00025876585
202	0x3a866c66	0.0010255694
203	0xbb7767ab	-0.0037751
204	0x3c27bc2f	0.010237738
205	0x3b7ffd95	0.0039061059
206	0x3b173f2f	0.0023078432
207	0x3bb9a924	0.005665915
208	0x3bdc7de6	0.0067288755
209	0xbc1c3481	-0.009534002
210	0xbb2eb363	-0.0026657216
211	0xbbc9f43c	-0.006163148
212	0x3bf5d3b2	0.0075020427
213	0xb91a807d	-0.0001473445
214	0xbc0b8468	-0.008515455
215	0xba03ce49	-0.00050279923
216	0xbc178c29	-0.009249725
217	0x3bc449ea	0.0059902566
218	0x39150b13	0.00014213873
219	0x3bca1c15	0.0061678984
220	0x3bf12739	0.007359412
221	0xbbe213f6	-0.006899352
222	0x3be61a35	0.007022167
223	0x3c07cff4	0.008289326
224	0x3bb1a704	0.005421521
225	0xbb0e2bc8	-0.0021693576
226	0x3bcb78b2	0.0062094564
227	0x3c0dd2e9	0.008656242
228	0x3bf19bfa	0.00737333
229	0xbbd844ff	-0.006600022
230	0x3b8bdf3d	0.0042685554
231	0x3b9991e5	0.0046865814
232	0xbbc72f33	-0.0060786246
233	0xbbbe45d2	-0.005806663
234	0xbba373dc	-0.0049881767
235	0x3ba58fa8	0.0050525256
236	0x3bbf8eb1	0.0058458676
237	0x3bb1b42c	0.0054230895
238	0x3b43611b	0.0029812518
239	0x38b2bf95	8.523386e-05
240	0x3c13c085	0.009018068
241	0x3bcf9d63	0.0063359006
242	0x3c096fad	0.008388442
243	0xba6788be	-0.0008832327
244	0x3b903205	0.004400494
245	0x3c03b3b4	0.00803845
246	0xbc0544b7	-0.008134059
247	0x3b7aea69	0.0038286692
248	0x3ba26a57	0.0049565244
249	0x3b975d7a	0.0046192976
250	0x3b987960	0.004653141
251	0xbbb98edc	-0.005662782
252	0x3b1f6c48	0.0024326015
253	0xbb69ee55	-0.0035695035
254	0xba836a67	-0.0010026217
255	0x3be2a3a0	0.0069164783

4.weight f4 [256, 256]
0	0xbd822a40	-0.06355715
1	0xbd602b0c	-0.054728553
2	0x3cee9ad0	0.029126555
3	0x3d856677	0.06513684
4	0xbd4ba7b7	-0.049720492
5	0x3d1f57ae	0.038901977
6	0x3c37e62a	0.011224309
7	0x3d3bc511	0.045842234
8	0x3c749398	0.014927767
9	0x3d8230d2	0.06356968
10	0x3d26dc59	0.040737484
11	0x3c280ebb	0.010257418
12	0xbd224bcd	-0.03962307
13	0x3d7dbaba	0.061945654
14	0xbd49a5cc	-0.04923038
15	0xbc968e4b	-0.018378397
16	0x3c40355a	0.01173147
17	0xbd2513f0	-0.040302217
18	0xbc78cd99	-0.015185737
19	0x3cd4a3cc	0.02595701
20	0x3d08dd18	0.033413976
21	0xbd3f6983	-0.046731483
22	0x3d81d344	0.06339124
23	0x3d50b3e3	0.050952803
24	0xbc865d7b	-0.016401997
25	0xbcc143ab	-0.023591837
26	0xbd007416	-0.03136071
27	0x3d0eb581	0.034841064
28	0x3cfc4f12	0.030799422
29	0xbc338a88	-0.010958321
30	0x3ca9fa25	0.020749161
31	0xbc359abd	-0.011084256
32	0x3d42f58f	0.047597464
33	0xbcb2ed73	-0.02184174
34	0x3d1e0cd3	0.03858645
35	0xbb247cbe	-0.0025098766
36	0x3d4a86b8	0.049444884
37	0x3d622134	0.055207446
38	0xbd8820d8	-0.066468894
39	0x3ca3a6e0	0.019977033
40	0xbd7ae08c	-0.0612493
41	0x3d82d8c0	0.06388998
42	0xbcd95de3	-0.026534026
43	0x3d1c9b8c	0.03823428
44	0xbd4d3ce5	-0.0501069
45	0xbd22b094	-0.03971918
46	0xbd4ee15e	-0.050507896
47	0x3d63b19b	0.0555893
48	0xbcbcd303	-0.023049837
49	0xbc9988e7	-0.018742038
50	0x3cf02e11	0.029318841
51	0x3d846082	0.0646372
52	0x3a1e8a4c	0.00060478295
53	0x3c525a03	0.012838843
54	0xbcc29f26	-0.023757529
55	0xbc732ac8	-0.014841743
56	0xbcef708a	-0.029228467
57	0xbd013f6b	-0.03155462
58	0x3cf59d92	0.029982362
59	0xbc8aa0be	-0.016922351
60	0xbd1697ab	-0.036765736
61	0xbd120bab	-0.03565566
62	0x3cdaa805	0.026691446
63	0x3b2b5aa7	0.0026146562
64	0x3ca5032f	0.02014312
65	0x3d818bc3	0.063254856
66	0xbcd38314	-0.025819339
67	0xbc3da70d	-0.011575473
68	0xbd15e32e	-0.03659361
69	0x3bbc6656	0.005749504
70	0x3cb75711	0.022380384
71	0x3d635f62	0.055510886
72	0xbc49e639	-0.012322956
73	0x3b2a0095	0.0025940288
74	0x3cab9582	0.020945314
75	0x3cd34d3f	0.02579367
76	0x3d5e4488	0.054264575
77	0x3d5254fb	0.051350575
78	0xbcb8b5c5	-0.022547612
79	0xbd5e3841	-0.054252867
80	0x3cf30173	0.029663777
81	0x3c3eda83	0.011648777
82	0xbd6936ea	-0.056937136
83	0xbc824695	-0.015902797
84	0xbad08fc3	-0.0015911985
85	0xbcf6466e	-0.03006288
86	0x3cac181b	0.021007588
87	0x3c9db7fc	0.01925277
88	0x3ceb7e1e	0.02874666
89	0x3d457c6e	0.04821437
90	0xbd67f310	-0.056628287
91	0x3d0b9851	0.034080807
92	0x3d84d131	0.064852126
93	0xbc9d5d67	-0.019209577
94	0x3d6cf83b	0.05785392
95	0xbb75cd38	-0.0037506353
96	0xbb922e65	-0.004461097
97	0xbaed9109	-0.0018124889
98	0x3d12e63b	0.035864096
99	0xba004f32	-0.00048946135
100	0xbbd6cbd1	-0.0065550585
101	0xbcd6db81	-0.026227714
102	0xbd610657	-0.054937687
103	0xbc31f55d	-0.010861722
104	0x3d144ae7	0.036204245
105	0xbb214080	-0.0024605095
106	0x3b52345d	0.0032074668
107	0x3c6bcc4a	0.014391968
108	0xbcab3f0f	-0.020904092
109	0xbcee3fff	-0.02908325
110	0x3c4f8459	0.0126658315
111	0x3d12e86d	0.03586619
112	0xbb758a69	-0.0037466532
113	0xbd0611f9	-0.032731984
114	0xbc61528f	-0.013752594
115	0xbd72057b	-0.059087258
116	0x3a2b179c	0.00065266504
117	0xbce0182b	-0.027355274
118	0x3c6997f9	0.0142574245
119	0x3d01fa61	0.03173292
120	0x3d388b46	0.045054697
121	0xbc1a7e8a	-0.009429583
122	0xbc586c3a	-0.013209397
123	0xbd555320	-0.052081227
124	0xbc552883	-0.013010147
125	0x3be3768c	0.006941622
126	0x3ce29591	0.02765921
127	0x3cc81f0e	0.02442887
128	0xbce16b71	-0.027517052
129	0x3cba63be	0.022752639
130	0x3c7bb6ff	0.015363454
131	0x3d22a39f	0.039706822
132	0xbc55c6d3	-0.013047892
133	0xbc49fb42	-0.012327971
134	0x3d30c345	0.043154974
135	0xbd1b4098	-0.0379034
136	0xbced4bc5	-0.028966794
137	0xbd2cffdb	-0.04223619
138	0xbca08b2b	-0.01959761
139	0xbd34b2f2	-0.044115968
140	0xbd512986	-0.05106499
141	0xbd218adc	-0.039439067
142	0x3d25e219	0.040498827
143	0xbd7c5479	-0.061603997
144	0xbd8bbdd2	-0.06823315
145	0xbc5afc98	-0.013365887
146	0x3d4e8ea1	0.05042899
147	0xbc9321a5	-0.017960379
148	0x3d0cff08	0.034422904
149	0xbcffa5ff	-0.031207083
150	0x3d3f4e29	0.0467054
151	0x3c7be018	0.015373252
152	0xbcbe5ed3	-0.023238575
153	0x3cfc3ac8	0.030789748
154	0x3d7c7a17	0.06163987
155	0xbc7bbe15	-0.015365143
156	0xbd805e76	-0.06268017
157	0xbce9ae33	-0.028525447
158	0x3d099709	0.033591304
159	0x3c0d0092	0.008606093
160	0xbb67639e	-0.003530718
161	0x3d0c0ea5	0.034193654
162	0x3d83687c	0.06416413
163	0xbcbde122	-0.02317864
164	0xbb67afcd	-0.0035352588
165	0xbc6c8196	-0.014435193
166	0x3ced6786	0.028980028
167	0xbd0a578c	-0.033774897
168	0xbd85f48a	-0.06540783
169	0xbb1b2f45	-0.0023679298
170	0xbbb42e57	-0.005498688
171	0x3d47e6e9	0.048804197
172	0x3d3afddb	0.04565225
173	0x3d525b63	0.051356684
174	0xbd53d473	-0.05171628
175	0x3d0ebaf2	0.034846254
176	0x3ccc7f56	0.024963062
177	0xb916abd7	-0.0001436913
178	0x3d274a86	0.040842555
179	0x3d5d751b	0.05406676
180	0xbcc341d2	-0.023835097
181	0x3d1137b8	0.03545353
182	0xbca2dd53	-0.019880926
183	0xbd19d2be	-0.037554495
184	0x3ceca519	0.028887318
185	0x3d502e35	0.050825316
186	0xbd89ab00	-0.06722069
187	0xbc8c9849	-0.017162459
188	0xbd22729c	-0.03966008
189	0xbd1f9c4d	-0.03896742
190	0x3cf9d5cc	0.030497454
191	0xbc26769d	-0.010160116
192	0x3ad16e34	0.0015978278
193	0x3c4a24ae	0.012337847
194	0xbb036926	-0.0020051687
195	0x3d8857b0	0.0665735
196	0x3c0f2a94	0.008738179
197	0x3d8ba550	0.0681864
198	0x3ce7cbd6	0.028295439
199	0xbd39f319	-0.04539785
200	0xbc76a905	-0.015054946
201	0xbd15df46	-0.036589883
202	0xbcf83e85	-0.03030325
203	0xbd8cc243	-0.0687299
204	0x3d36ee8b	0.044661086
205	0xbc0a5d49	-0.0084450925
206	0xbc94ddd7	-0.018172188
207	0x3cb1b483	0.02169252
208	0xbd29f6df	-0.0414952
209	0xbc84a8f8	-0.016193852
210	0x3ccc2db4	0.024924137
211	0x3d1eb590	0.03874737
212	0xbd5b83bb	-0.053592425
213	0xbd2a772f	-0.04161757
214	0xbd80f8fe	-0.062974915
215	0xbd1278ee	-0.03575986
216	0x3d005e29	0.031339798
217	0x3adb73fe	0.0016742942
218	0x3d06c830	0.032905757
219	0x3d7e81a5	0.062135357
220	0x3cc12e77	0.023581726
221	0x3cb5e99b	0.022206118
222	0x3c6aea3b	0.014338071
223	0x3c609c22	0.0137091
224	0xbc954b40	-0.018224359
225	0xbd360b69	-0.044444475
226	0xbd2e771c	-0.04259406
227	0xbcc6be1e	-0.024260577
228	0xbd45008e	-0.048096232
229	0xbd7d789a	-0.061882593
230	0x3d3d8880	0.046272755
231	0xbd1e6150	-0.038667023
232	0x3d0d9cdf	0.034573432
233	0x3d614a3b	0.055002432
234	0xbd6874b8	-0.056751937
235	0x3d887c6b	0.06664356
236	0xbcacec6a	-0.021108825
237	0x3d544ef8	0.051833123
238	0x3c6addcf	0.01433511
239	0x3d611652	0.054952927
240	0xbc6042de	-0.013687817
241	0x3cc5c6b7	0.024142606
242	0x3cc1b38b	0.023645183
243	0x3d6ee3a0	0.05832255
244	0xbd3a3ade	-0.045466296
245	0x3d17c6d9	0.03705487
246	0x3c71bf62	0.014755102
247	0x3d007c3d	0.031368483
248	0xbc81975d	-0.015819246
249	0xbd4d2384	-0.0500827
250	0xbc2756a3	-0.010213527
251	0x3ca63d48	0.020292893
252	0xbd817afd	-0.06322286
253	0xbcb922a9	-0.022599535
254	0x3a9131ec	0.00110775
255	0x3d1cfce9	0.03832713

4.bias f4 [256]
0	0x3d03b757	0.03215727
1	0xbd001e9a	-0.031279184
2	0xbd355f26	-0.044280194
3	0x3d42146f	0.04738277
4	0xbbd0e407	-0.006374839
5	0x3cfbc712	0.030734573
6	0xbd13baed	-0.03606694
7	0xbcb049f4	-0.021519639
8	0x3bd9648e	0.0066343015
9	0xbcdaea7a	-0.026723135
10	0x3ceeffcb	0.029174706
11	0x3d471653	0.048605274
12	0x3b8984e6	0.004196751
13	0x3c206aab	0.009791057
14	0xbbf17a57	-0.0073693204
15	0x3c41f6d3	0.011838633
16	0x3cbd43c0	0.023103595
17	0x3d60a704	0.05484678
18	0x3d12f34c	0.035876557
19	0xbc3e24a5	-0.011605416
20	0xbc620acd	-0.01379652
21	0xbd814fcf	-0.063140504
22	0xbceee182	-0.029160265
23	0xbca3e6cd	-0.020007515
24	0x3bf88ad0	0.007584907
25	0xbc7a398e	-0.015272511
26	0xbd3058bd	-0.043053377
27	0xbba94155	-0.005165259
28	0xbd1e3a84	-0.038630024
29	0x3c93d9f2	0.01804826
30	0xbd5dcb70	-0.05414909
31	0xbcc84827	-0.024448467
32	0xbd8213d8	-0.06351441
33	0x3ce44c89	0.027868526
34	0x3cf68e2e	0.030097093
35	0x3cf557c4	0.029949076
36	0x3cac3329	0.021020489
37	0xbc2917ae	-0.010320587
38	0xbd8977e0	-0.067123175
39	0x3d2266a4	0.039648667
40	0xbd54d37c	-0.0519595
41	0xbc5986b5	-0.013276746
42	0xbcc44a35	-0.023961166
43	0xbd2f8ac7	-0.042856958
44	0x3cf768d6	0.030201357
45	0xbd284d5e	-0.041089408
46	0x3c52f0cb	0.012874792
47	0x3cc79b3d	0.024366016
48	0x3bfaa0f2	0.0076485807
49	0x3cd55ee8	0.026046231
50	0xbc771648	-0.015080996
51	0xbd9493b5	-0.072547354
52	0x3d5464fd	0.051854122
53	0x3c987cb1	0.018614145
54	0x3d2018ae	0.039086036
55	0xbc8ca418	-0.01716809
56	0xbc6620ef	-0.014045938
57	0x3d6979ad	0.057000805
58	0x3b9f9d08	0.0048710145
59	0xbc3cd152	-0.011524515
60	0xbd26fd43	-0.040768873
61	0xbcbc9def	-0.023024527
62	0x3d440270	0.047853887
63	0xbd891a3e	-0.066944584
64	0x3d65adb7	0.05607387
65	0xbcac5c36	-0.021040063
66	0x3d5a540d	0.053302813
67	0x3d2b9fba	0.041900374
68	0x3d313640	0.043264627
69	0x3c2bf99b	0.010496522
70	0x3d18338b	0.03715853
71	0x3d421c14	0.04739006
72	0x3d17eaf4	0.037089303
73	0xba61ac3f	-0.00086087355
74	0x3cb7de23	0.02244479
75	0xbd3adba5	-0.045619626
76	0x3d3c3f2d	0.045958687
77	0xbd713a27	-0.05889335
78	0xbcbcb607	-0.023036016
79	0xbd818339	-0.06323857
80	0xbc90f1be	-0.017693397
81	0x3d623979	0.05523059
82	0xbc61d748	-0.013784237
83	0x3d27b856	0.04094728
84	0xbcef6101	-0.02922106
85	0x3d6abde7	0.05731001
86	0x3cfcee64	0.030875392
87	0xbc598f89	-0.01327885
88	0xbd15ff15	-0.03662022
89	0xbc7e738a	-0.015530476
90	0x3d3c08dd	0.04590689
91	0x3d6bec47	0.05759838
92	0x3d7373b3	0.05943651
93	0xbca64421	-0.020296158
94	0xbd49bf6c	-0.04925482
95	0xbd89b413	-0.067237996
96	0x3d5b0c6f	0.053478654
97	0xbd6af122	-0.05735887
98	0xbd070d85	-0.032971878
99	0x3c01eb3d	0.00792962
100	0x3bf1b959	0.0073768315
101	0x3d2038f8	0.03911683
102	0xbd806cb1	-0.06270731
103	0x3cbeb87d	0.02328133
104	0x3d010f5c	0.03150879
105	0xbd255385	-0.040362854
106	0xbd84c957	-0.06483715
107	0x3d69a0f1	0.05703825
108	0xbbd91311	-0.0066245873
109	0xbce8110b	-0.02832844
110	0xbd58a9ac	-0.052896187
111	0xbc6169eb	-0.013758163
112	0xbd4af9b9	-0.04955456
113	0xbd0116d2	-0.031515904
114	0xbd7ae211	-0.06125075
115	0x3d808746	0.06275801
116	0x3d148807	0.03626254
117	0xbd42be75	-0.047544915
118	0x3b2e72c9	0.002661871
119	0x3d475b0b	0.04867081
120	0xbd0caa39	-0.034342024
121	0x3ca42bbd	0.020040387
122	0x3d700a77	0.05860373
123	0x3d26e884	0.040749088
124	0x3d1e6f1f	0.038680192
125	0xbcf57a65	-0.029965589
126	0x3d091e62	0.03347624
127	0x3c77a570	0.015115127
128	0x3c399369	0.011326649
129	0x3c1be085	0.009513979
130	0x3b0da7a7	0.002161482
131	0x3c89ab52	0.016805325
132	0x3d63e6ea	0.05564014
133	0x3cda099b	0.026615908
134	0xbd0864a3	-0.0332991
135	0xbd3bf631	-0.045889083
136	0x3d17cc75	0.03706022
137	0xbd5625ab	-0.052282017
138	0xbafad005	-0.0019135481
139	0xbd27f555	-0.04100545
140	0x3cf64d71	0.030066224
141	0x3d027533	0.03185005
142	0x3b1b31e6	0.0023680865
143	0xbd59db14	-0.053187445
144	0xbbd1548f	-0.006388254
145	0x3a833ef4	0.0010013268
146	0xbcc42622	-0.023943964
147	0xbab02a02	-0.0013440254
148	0xbd074ab3	-0.033030223
149	0x3d43f823	0.047844063
150	0x3b2171c3	0.0024634458
151	0x3d6ea21b	0.058260065
152	0xbcb32807	-0.021869672
153	0x3cd2dc40	0.025739789
154	0x3d78aec6	0.060713552
155	0xbcdfb467	-0.027307702
156	0xbd65baa1	-0.056086186
157	0x3ce42871	0.027851315
158	0x3bc174bc	0.0059038084
159	0xbd4d9614	-0.050191954
160	0xbc941f91	-0.018081458
161	0x3ca03e91	0.019561084
162	0xbd2b834b	-0.041873258
163	0xbc62d02c	-0.013843577
164	0xbd6f6aa5	-0.058451314
165	0x3d31f771	0.04344887
166	0x3d678998	0.056527704
167	0x3d3e2133	0.04641838
168	0x3d418d0c	0.047253653
169	0xbd5c341c	-0.053760633
170	0x3d81c22b	0.06335863
171	0xbd8e5081	-0.06948949
172	0xbcc10a76	-0.023564558
173	0xbd6c956f	-0.0577597
174	0xbd28097d	-0.041024674
175	0xbd4e648c	-0.050388858
176	0x3cdf53a3	0.02726156
177	0xbc98c14c	-0.018646859
178	0x3d849c33	0.06475105
179	0x3cc9bcf3	0.02462623
180	0x3c9c0f90	0.01905039
181	0x3d3fd384	0.046832576
182	0xbcb0ee9e	-0.021598157
183	0x3c72d4f6	0.014821282
184	0xbbea108a	-0.007143085
185	0xbcbf4811	-0.023349794
186	0x3c4526a1	0.012033136
187	0x3d05cc75	0.03266569
188	0xbc8ca54d	-0.017168665
189	0xbc5ad22f	-0.013355776
190	0xbd1d32c7	-0.038378503
191	0xbc7badc3	-0.015361252
192	0xbd3ba214	-0.045808867
193	0xbd3df4a3	-0.046375882
194	0x3d8d25fc	0.068920106
195	0x3d09b2cd	0.033617783
196	0x3c6aee3b	0.014339025
197	0xbb65a64f	-0.0035041755
198	0xbc0f0b03	-0.008730653
199	0xbc6227f4	-0.013803471
200	0xbd6f7743	-0.058463346
201	0x3d0ba89d	0.03409635
202	0xbcbf7b19	-0.023374127
203	0xbd1285b0	-0.035772026
204	0x3d0b68a3	0.034035336
205	0xbc6bc918	-0.014391206
206	0x3d4607ad	0.048347164
207	0x3d478787	0.048713233
208	0x3d3d3cd9	0.046200607
209	0xbcfff999	-0.031246947
210	0x3cbe9855	0.023265997
211	0xbd20efc5	-0.039291162
212	0xbb5d92f4	-0.0033809515
213	0xbc9da78a	-0.019244928
214	0x3d5933ea	0.053028025
215	0x3d434195	0.047669966
216	0xbb127467	-0.0022347213
217	0xbd71e866	-0.059059523
218	0xb7405304	-1.146342e-05
219	0x3ce83019	0.028343247
220	0xbd60d8fa	-0.054894425
221	0xbd8d3f77	-0.068968706
222	0xbd274413	-0.040836405
223	0xbce4f3e2	-0.027948324
224	0xbd1e4803	-0.038642894
225	0xbd77a038	-0.06045553
226	0x3cab4592	0.020907197
227	0xbcec2f10	-0.028831035
228	0x3cb612ff	0.022225855
229	0x3b3a9962	0.002847277
230	0xbc1a6f0c	-0.00942589
231	0xbbcb2722	-0.0061997334
232	0xbc7a3741	-0.015271963
233	0xbd7afd76	-0.061276875
234	0x3d58eb86	0.052958988
235	0xbcf39603	-0.029734617
236	0x3cac921c	0.021065764
237	0xbd490e2c	-0.04908578
238	0x3bc5e7af	0.0060395817
239	0xbd376c14	-0.044780806
240	0xbcac1823	-0.021007603
241	0x3d292f0d	0.041304637
242	0xbd72e7c4	-0.05930306
243	0xbab81330	-0.0014043804
244	0x3d4a3a96	0.04937228
245	0xbd34117c	-0.043961987
246	0xbd62f06c	-0.055405065
247	0xbcb353ad	-0.021890486
248	0x3ba2505a	0.0049534263
249	0x3cc6a3fa	0.024248112
250	0xbbf28ee3	-0.0074022873
251	0x3cd94789	0.026523368
252	0xbc91063b	-0.017703166
253	0x3c4065ec	0.01174305
254	0x3c16b288	0.009197839
255	0x3b4100ca	0.0029449933

5.weight f4 [256]
0	0x3f811256	1.0083721
1	0x3f7ed790	0.9954767
2	0x3f813447	1.0094079
3	0x3f7cc759	0.9874168
4	0x3f8176c4	1.0114369
5	0x3f7fd892	0.99939835
6	0x3f803124	1.0014997
7	0x3f81191c	1.0085788
8	0x3f7dbbde	0.9911479
9	0x3f7e163b	0.9925267
10	0x3f8179bc	1.0115275
11	0x3f817bda	1.0115921
12	0x3f81571d	1.010471
13	0x3f809ff1	1.004881
14	0x3f7b193e	0.9808539
15	0x3f7f7641	0.99789816
16	0x3f7da1f4	0.99075246
17	0x3f80c77c	1.0060878
18	0x3f7e4fa6	0.99340284
19	0x3f7e7688	0.99399614
20	0x3f7e43a3	0.99321955
21	0x3f80610c	1.0029616
22	0x3f80bd70	1.0057812
23	0x3f804ff9	1.0024406
24	0x3f7f790d	0.99794084
25	0x3f81a1c4	1.0127492
26	0x3f7ff634	0.9998505
27	0x3f807506	1.0035713
28	0x3f8068c7	1.0031976
29	0x3f7cfb5c	0.98821044
30	0x3f7e9164	0.994406
31	0x3f7bb36f	0.9832067
32	0x3f7ebb3d	0.9950445
33	0x3f807de9	1.0038425
34	0x3f7ed81d	0.9954851
35	0x3f7cff58	0.98827124
36	0x3f7e4d73	0.9933693
37	0x3f81078c	1.0080428
38	0x3f818832	1.0119689
39	0x3f80544c	1.0025725
40	0x3f8076b9	1.0036231
41	0x3f810ae8	1.0081453
42	0x3f7e6f48	0.9938855
43	0x3f801787	1.000718
44	0x3f7fb131	0.9987975
45	0x3f80a60a	1.0050671
46	0x3f7f3ccd	0.9970215
47	0x3f8084af	1.0040492
48	0x3f80f2dc	1.0074115
49	0x3f7b24c6	0.98102987
50	0x3f7e7942	0.99403775
51	0x3f810798	1.0080442
52	0x3f7e7453	0.99396247
53	0x3f7e7570	0.99397945
54	0x3f7dc85d	0.99133855
55	0x3f7de4f2	0.9917747
56	0x3f7ed11e	0.9953784
57	0x3f80a2d2	1.0049689
58	0x3f816d38	1.0111456
59	0x3f8050dd	1.0024678
60	0x3f7eacb0	0.9948225
61	0x3f7e6a8d	0.99381334
62	0x3f80f5fa	1.0075066
63	0x3f7ec7f6	0.99523866
64	0x3f7cb9ea	0.9872118
65	0x3f801e05	1.0009161
66	0x3f81579b	1.010486
67	0x3f805706	1.0026557
68	0x3f7f709b	0.997812
69	0x3f7cac99	0.98700863
70	0x3f7e58e2	0.99354374
71	0x3f7e40bb	0.9931752
72	0x3f7dbd6c	0.9911716
73	0x3f7ffeaf	0.9999799
74	0x3f7fa22e	0.9985684
75	0x3f8186dd	1.0119282
76	0x3f7c9467	0.98663944
77	0x3f814acc	1.0100951
78	0x3f7d09f0	0.9884329
79	0x3f807096	1.0034359
80	0x3f7d284d	0.9888962
81	0x3f7e9d63	0.99458903
82	0x3f7e3415	0.9929822
83	0x3f80e464	1.0069699
84	0x3f81eede	1.0151021
85	0x3f7c4215	0.98538333
86	0x3f7f05ed	0.9961842
87	0x3f7fbd07	0.9989781
88	0x3f805827	1.0026902
89	0x3f7e9786	0.99449956
90	0x3f7e50b8	0.9934192
91	0x3f7ebac5	0.9950374
92	0x3f7bf26a	0.9841677
93	0x3f7da3ca	0.9907805
94	0x3f7e081d	0.9923113
95	0x3f811130	1.008337
96	0x3f7d3179	0.98903614
97	0x3f7eeccc	0.99580073
98	0x3f7ed0c4	0.995373
99	0x3f7fbb6e	0.9989537
100	0x3f7fed16	0.9997114
101	0x3f813a8d	1.0095993
102	0x3f7e897b	0.9942853
103	0x3f7e1504	0.9925082
104	0x3f818a3b	1.012031
105	0x3f7e7da3	0.99410456
106	0x3f7f382c	0.99695086
107	0x3f7c0a53	0.98453254
108	0x3f8102d9	1.0078994
109	0x3f7fbb44	0.9989512
110	0x3f802f06	1.001435
111	0x3f7cfc65	0.98822623
112	0x3f805c64	1.0028195
113	0x3f801c6f	1.0008677
114	0x3f7dba3e	0.9911231
115	0x3f80062b	1.0001882
116	0x3f80f555	1.0074869
117	0x3f7f610b	0.9975745
118	0x3f7e3bd5	0.99310046
119	0x3f7ea315	0.99467593
120	0x3f7df869	0.9920717
121	0x3f7dfb46	0.9921154
122	0x3f805d64	1.00285
123	0x3f810baa	1.0081685
124	0x3f7dc2e1	0.99125487
125	0x3f7fa31c	0.9985826
126	0x3f7ee1ee	0.9956349
127	0x3f7e1493	0.99250144
128	0x3f81034f	1.0079135
129	0x3f7fa5cc	0.9986236
130	0x3f80127a	1.0005639
131	0x3f8140ff	1.009796
132	0x3f80fb83	1.0076755
133	0x3f7ecab2	0.9952804
134	0x3f8025cf	1.0011538
135	0x3f80bd58	1.0057783
136	0x3f7f587a	0.9974438
137	0x3f7e189c	0.992563
138	0x3f80134d	1.000589
139	0x3f7e524c	0.99344325
140	0x3f80dc07	1.0067147
141	0x3f7e6525	0.99373084
142	0x3f7c8951	0.9864703
143	0x3f7e002f	0.9921903
144	0x3f7d6b6e	0.9899205
145	0x3f7cfa93	0.98819846
146	0x3f7f9290	0.9983301
147	0x3f7e4055	0.9931691
148	0x3f7c753f	0.98616403
149	0x3f7f0e21	0.99630934
150	0x3f7f7682	0.99790204
151	0x3f80c574	1.0060258
152	0x3f80eaab	1.0071615
153	0x3f807681	1.0036165
154	0x3f7fe815	0.99963504
155	0x3f7ba1e7	0.9829392
156	0x3f7cec93	0.98798484
157	0x3f7eab6c	0.9948032
158	0x3f7f9a92	0.9984523
159	0x3f8014b4	1.0006318
160	0x3f80992b	1.0046743
161	0x3f80c423	1.0059856
162	0x3f7d43b7	0.9893145
163	0x3f7ea055	0.994634
164	0x3f801d3c	1.0008922
165	0x3f7c0a13	0.9845287
166	0x3f7e980e	0.9945077
167	0x3f7d9501	0.99055487
168	0x3f7eeb50	0.9957781
169	0x3f80e4e6	1.0069854
170	0x3f7f93d5	0.9983495
171	0x3f7b7464	0.98224473
172	0x3f80ad4c	1.0052886
173	0x3f7e0b25	0.99235755
174	0x3f7f2b79	0.9967571
175	0x3f7e7efc	0.9941251
176	0x3f7f018d	0.9961174
177	0x3f80a34f	1.0049838
178	0x3f805edc	1.0028949
179	0x3f82055e	1.0157888
180	0x3f804fa0	1.00243
181	0x3f80f355	1.0074259
182	0x3f80713a	1.0034554
183	0x3f7ca40b	0.9868781
184	0x3f8062e9	1.0030185
185	0x3f807261	1.0034906
186	0x3f80baff	1.0057067
187	0x3f7bffd5	0.98437244
188	0x3f7e5597	0.9934935
189	0x3f798146	0.9746288
190	0x3f80e22e	1.0069025
191	0x3f80e0bc	1.0068583
192	0x3f7e37b8	0.9930377
193	0x3f7e3bb0	0.99309826
194	0x3f817b10	1.0115681
195	0x3f7eaa7a	0.99478877
196	0x3f7de784	0.9918139
197	0x3f7c4968	0.9854951
198	0x3f80629c	1.0030093
199	0x3f80ae34	1.0053163
200	0x3f7d1b47	0.98869747
201	0x3f812b8c	1.0091414
202	0x3f7e86ee	0.99424636
203	0x3f7c03b9	0.9844318
204	0x3f7e99aa	0.9945322
205	0x3f809f5d	1.0048634
206	0x3f7df923	0.9920828
207	0x3f80097d	1.0002896
208	0x3f7ddde6	0.99166715
209	0x3f80d3f7	1.0064687
210	0x3f809556	1.0045574
211	0x3f7ebdcb	0.9950835
212	0x3f7ff4d0	0.9998293
213	0x3f818af8	1.0120535
214	0x3f7dd84b	0.9915816
215	0x3f7eb261	0.99490935
216	0x3f80fdb6	1.0077426
217	0x3f7c98b6	0.9867052
218	0x3f7e3575	0.9930032
219	0x3f80b850	1.0056248
220	0x3f819310	1.0123005
221	0x3f7e2d2b	0.9928767
222	0x3f817c77	1.0116109
223	0x3f7f2234	0.99661565
224	0x3f7f89ef	0.99819845
225	0x3f810e5b	1.0082506
226	0x3f79d834	0.97595525
227	0x3f7e8322	0.9941884
228	0x3f80e185	1.0068823
229	0x3f7f0853	0.99622077
230	0x3f800095	1.0000178
231	0x3f7f685d	0.9976862
232	0x3f80a72b	1.0051016
233	0x3f810550	1.0079746
234	0x3f8085ee	1.0040872
235	0x3f7c0029	0.98437744
236	0x3f804bb4	1.0023103
237	0x3f8135ca	1.009454
238	0x3f800336	1.000098
239	0x3f7e6945	0.9937938
240	0x3f7bcd50	0.98360157
241	0x3f81367a	1.009475
242	0x3f7e0ff0	0.9924307
243	0x3f7e97c8	0.9945035
244	0x3f7e71a8	0.99392176
245	0x3f815d00	1.0106506
246	0x3f80e6e9	1.0070468
247	0x3f81a067	1.0127076
248	0x3f7f62b2	0.9975997
249	0x3f7bf6dc	0.9842355
250	0x3f8053ad	1.0025536
251	0x3f804bf0	1.0023174
252	0x3f815ae3	1.0105861
253	0x3f7e2894	0.9928067
254	0x3f7ea6e8	0.9947343
255	0x3f817df0	1.0116558
